eindcode/voicerecognition/model.pt (torch, 120779 bytes, 26 tensors)

weight f4 [32, 1, 80]
0.03373407 0.1062147 -0.018534936 0.024155796 -0.0052264705 0.049993888 0.034776658 -0.022430494
-0.091806844 -0.100673504 -0.049384013 -0.07807343 -0.044348188 -0.040741764 -0.03164453 -0.030594036
0.017652169 0.02420421 0.045659557 0.0803625 0.063131034 -0.017443262 0.09126094 0.0747747
0.026750281 -0.0999489 0.07332672 0.04432203 0.08153555 0.040050924 -0.050639722 -0.00035681576
0.038572446 0.079037085 -0.076869905 -0.007436469 -0.10400485 -0.093284726 -0.07662981 0.031889617
-0.10211443 -0.05149766 -0.0024978295 -0.06259541 -0.04446859 0.035213992 0.029059127 -0.08129394
0.06462614 0.019196555 0.04364544 0.05345878 0.057540447 -0.017533578 0.11004758 0.031432763
-0.033117928 0.109402895 0.027114287 -0.062752105 0.09506509 0.072046295 -0.019162536 0.08703956
-0.08130941 0.05034031 -0.0801449 0.034987032 -0.014208771 -0.050107814 0.01894635 0.094700694
0.085162625 -0.077347174 0.0511117 0.07277103 -0.00980261 0.027769923 -0.041196555 0.027620882
0.024137035 -0.071368486 -0.039571866 -0.060642336 -0.025499098 -0.10098651 0.08997947 0.00836841
-0.047137193 0.08657855 0.07418378 0.08058694 0.041432723 -0.015413515 0.048559442 -0.06373368
-0.10465092 0.019427046 -0.021744236 0.0906304 -0.02685891 -0.08179112 0.040412843 0.09558414
0.092215165 -0.060322504 0.07426722 -0.1078566 0.082079574 -0.0060174093 0.014674768 -0.024729244
-0.0031863153 0.023060441 -0.02943623 0.035720885 -0.025396444 0.009924978 0.051545918 -0.07700823
0.0059696957 0.046335995 -0.043380454 -0.03297232 -0.061398152 -0.0041317493 -0.007557377 -0.023127832
-0.1072582 0.0741069 -0.01685682 0.033574656 0.017697588 0.06674194 -0.09526729 -0.08141932
0.07754706 -0.10340966 -0.036027685 0.0010299236 0.05384113 0.05286269 0.058933884 -0.01392027
-0.0056830496 -0.061425116 -0.029379308 -0.07164013 -0.06756633 -0.035608657 0.019796237 0.007640958
0.08602819 -0.020156324 0.021712542 -0.04541368 0.036153227 -0.013004214 -0.09766093 0.08738181
-0.032329604 -0.048120707 0.093155235 0.106581494 0.04970303 -0.08676526 -0.0065965056 0.019966036
-0.06737396 0.016499564 -0.043705493 0.058980584 0.09869245 -0.049411908 -0.057590637 0.075593784
0.06201282 -0.03273291 0.09990226 -0.04169306 -0.035938345 -0.08797241 -0.09838704 0.08664839
-0.061776858 -0.008185767 0.012557805 -0.048656426 0.02000241 -0.0889413 -0.02748534 -0.10129027
0.025202304 -0.009048566 -0.097051166 -0.05206947 -0.078946576 0.04098794 -0.05280931 -0.010105729
0.07082915 -0.042729035 0.051150784 -0.07482803 -0.06648212 -0.0819847 0.041592866 -0.032017075
0.016782925 -0.07719523 0.09433991 -0.095001705 -0.07148008 -0.024632134 -0.045999847 0.03999062
-0.0118410885 0.07378571 0.10883775 -0.032851636 0.059672028 0.0558964 -0.08420689 -0.068119586
0.102419704 -0.013792247 -0.09846188 -0.09128603 0.099100545 0.10906008 -0.054012388 0.059367806
-0.06180615 -0.053247508 -0.08100732 0.08979197 -0.06016029 0.046225563 -0.018638693 0.07665829
-0.04967448 0.093172655 -0.01232627 0.03184934 -0.018722795 0.10193491 0.10797243 -0.056353185
-0.04254669 -0.005528286 -0.050519757 0.036559403 0.01736027 -0.09545678 -0.05111296 0.012627162
00000000: bc2c 0a3d 1887 d93d 94d6 97bc 60e2 c53c
00000010: d042 abbb 64c6 4c3d f871 0e3d 28c0 b7bc
00000020: 3a05 bcbd e92d cebd e446 4abd f6e4 9fbd
00000030: 72a6 35bd d6e0 26bd b29d 01bd 58a0 fabc
00000040: 489b 903c e847 c63c 8405 3b3d 1895 a43d
00000050: d84a 813d 2ce5 8ebc 04e7 ba3d 7a23 993d
00000060: 6823 db3c 02b2 ccbd 522c 963d 048b 353d
00000070: 1cfc a63d 700c 243d 996b 4fbd 0013 bbb9
00000080: 24fe 1d3d 32de a13d f86d 9dbd a0ad f3bb
00000090: 7f00 d5bd 100c bfbd 17f0 9cbd b09e 023d
000000a0: 5f21 d1bd 36ef 52bd a0b2 23bb 0632 80bd
000000b0: b224 36bd 8c3c 103d 680d ee3c 707d a6bd
000000c0: b65a 843d 1842 9d3c 90c5 323d 98f7 5a3d
000000d0: 88af 6b3d 94a2 8fbc a060 e13d a4bf 003d
000000e0: aaa6 07bd a00e e03d c81e de3c 2d84 80bd
000000f0: 7cb1 c23d 028d 933d c0fa 9cbc cc41 b23d
00000100: 8c85 a6bd a431 4e3d 0223 a4bd 904e 0f3d
00000110: e8cb 68bc da3d 4dbd 6035 9b3c 70f2 c13d
00000120: be69 ae3d 3268 9ebd 805a 513d fa08 953d
00000130: 209b 20bc c07d e33c b8bd 28bd 3045 e23c
00000140: 08bb c53c a429 92bd 1c16 22bd 1964 78bd
00000150: 7ce3 d0bc 04d2 cebd 2847 b83d a81b 093c
00000160: ee12 41bd 1850 b13d aaed 973d c40a a53d
00000170: 5cb5 293d f888 7cbc 44e6 463d ce86 82bd
00000180: 3953 d6bd 7825 9f3c f820 b2bc 6e9c b93d
00000190: 3807 dcbc 1a82 a7bd f087 253d 9ec1 c33d
000001a0: 4edb bc3d bb14 77bd 6a19 983d ece3 dcbd
000001b0: 5619 a83d b02d c5bb 706e 703c fc94 cabc
000001c0: 80d1 50bb 40e9 bc3c 4024 f1bc 1050 123d
000001d0: 340c d0bc 609c 223c d021 533d 7eb6 9dbd
000001e0: 709d c33b d0ca 3d3d b4af 31bd fc0d 07bd
000001f0: a17c 7bbd a063 87bb e0a3 f7bb 9476 bdbc
00000200: 30aa dbbd 5cc5 973d 5017 8abc 9485 093d
00000210: 88fa 903c 00b0 883d 7f1b c3bd 2cbf a6bd
00000220: fed0 9e3d 72c8 d3bd c491 13bd 80fe 863a
00000230: 8488 5c3d 8c86 583d a864 713d d811 64bc
00000240: e038 babb e798 7bbd e0ac f0bc 0fb8 92bd
00000250: 3760 8abd 62da 11bd b82b a23c 0061 fa3b
00000260: 8c2f b03d e01e a5bc 80de b13c b203 3abd
00000270: 6815 143d a00f 55bc 7402 c8bd 3cf5 b23d
00000280: 0c6c 04bd 381a 45bd 2cc8 be3d 6647 da3d
00000290: 6895 4b3d fcb1 b1bd 8027 d8bb d08f a33c
000002a0: 5cfb 89bd 182a 873c 8804 33bd a095 713d
000002b0: 441f ca3d 2464 4abd 29e4 6bbd ead0 9a3d
000002c0: 2801 7e3d f212 06bd 8e99 cc3d 58c6 2abd
000002d0: 1634 13bd e12a b4bd 257f c9bd b674 b13d
000002e0: bb09 7dbd 981d 06bc 40bf 4d3c f64b 47bd
000002f0: 18dc a33c db26 b6bd f028 e1bc 4671 cfbd
00000300: 1075 ce3c 7040 14bc c3c2 c6bd cc46 55bd
00000310: beae a1bd f8e2 273d 934e 58bd 8092 25bc
00000320: e00e 913d a404 2fbd 7c83 513d 703f 99bd
00000330: c727 88bd 98e7 a7bd 485d 2a3d 5624 03bd
00000340: 587c 893c 8818 9ebd 4835 c13d 4190 c2bd
00000350: 2664 92bd 54c9 c9bc 566a 3cbd 34cd 233d
00000360: 2001 42bc f61c 973d 54e6 de3d 708f 06bd
00000370: a86a 743d a0f3 643d a974 acbd 4882 8bbd
00000380: 6cc1 d13d e0f8 61bc 62a6 c9bd 2cf4 babd
00000390: 3af5 ca3d e45a df3d 183c 5dbd a82b 733d
000003a0: 7228 7dbd 0f1a 5abd 2ae7 a5bd dae4 b73d
000003b0: a36a 76bd 0457 3d3d 2cb0 98bc 06ff 9c3d
000003c0: 7877 4bbd 4ed1 be3d 20f4 49bc 7474 023d
000003d0: 8c60 99bc 40c3 d03d a620 dd3d 99d2 66bd
000003e0: 7045 2ebd a026 b5bb ceed 4ebd 50bf 153d
000003f0: 2037 8e3c d87e c3bd d35b 51bd 28e2 4e3c

bias f4 [32]
-0.06516984 0.0499956 -0.013661511 -0.06846812 0.049079552 0.014914185 0.1086971 0.09541102
0.045064256 0.09700999 -0.079893455 0.03652686 -0.052574016 0.05349408 -0.09795038 0.09325242
-0.0418005 -0.08128245 -0.10020044 0.010690458 -0.025634006 0.051493183 0.013214618 0.08198887
0.10465796 0.078726396 -0.09267619 0.051262185 -0.020198815 0.030263558 0.014902651 -0.06863558
00000000: c477 85bd 30c8 4c3d 88d4 5fbc 0439 8cbd
00000010: a407 493d a05a 743c 969c de3d da66 c33d
00000020: 4c95 383d 2cad c63d 2e9f a3bd 309d 153d
00000030: da57 57bd 9c1c 5b3d 359a c8bd 20fb be3d
00000040: 0037 2bbd 6a77 a6bd e335 cdbd 0827 2f3c
00000050: 68fe d1bc 84ea 523d 2082 583c c8e9 a73d
00000060: ea56 d63d 4e3b a13d 04cd bdbd 4cf8 513d
00000070: fc77 a5bc 48eb f73c 402a 743c d090 8cbd

weight f4 [32]
1.0 1.0 1.0 1.0 1.0 1.0 1.0 1.0
1.0 1.0 1.0 1.0 1.0 1.0 1.0 1.0
1.0 1.0 1.0 1.0 1.0 1.0 1.0 1.0
1.0 1.0 1.0 1.0 1.0 1.0 1.0 1.0
00000000: 0000 803f 0000 803f 0000 803f 0000 803f
00000010: 0000 803f 0000 803f 0000 803f 0000 803f
00000020: 0000 803f 0000 803f 0000 803f 0000 803f
00000030: 0000 803f 0000 803f 0000 803f 0000 803f
00000040: 0000 803f 0000 803f 0000 803f 0000 803f
00000050: 0000 803f 0000 803f 0000 803f 0000 803f
00000060: 0000 803f 0000 803f 0000 803f 0000 803f
00000070: 0000 803f 0000 803f 0000 803f 0000 803f

bias f4 [32]
0.0 0.0 0.0 0.0 0.0 0.0 0.0 0.0
0.0 0.0 0.0 0.0 0.0 0.0 0.0 0.0
0.0 0.0 0.0 0.0 0.0 0.0 0.0 0.0
0.0 0.0 0.0 0.0 0.0 0.0 0.0 0.0
00000000: 0000 0000 0000 0000 0000 0000 0000 0000
00000010: 0000 0000 0000 0000 0000 0000 0000 0000
00000020: 0000 0000 0000 0000 0000 0000 0000 0000
00000030: 0000 0000 0000 0000 0000 0000 0000 0000
00000040: 0000 0000 0000 0000 0000 0000 0000 0000
00000050: 0000 0000 0000 0000 0000 0000 0000 0000
00000060: 0000 0000 0000 0000 0000 0000 0000 0000
00000070: 0000 0000 0000 0000 0000 0000 0000 0000

running_mean f4 [32]
-0.012358495 0.009590159 -0.0025869221 -0.013071662 0.009404522 0.0025845203 0.020676246 0.018160872
0.0085758995 0.018422367 -0.015308144 0.0070486357 -0.010165963 0.010023409 -0.018579243 0.01772154
-0.007891128 -0.015372165 -0.019272706 0.001985656 -0.0048862724 0.00986201 0.0025280805 0.015625155
0.01996485 0.015041446 -0.01747542 0.009781518 -0.0039739544 0.0057287016 0.002823677 -0.01303905
00000000: 497b 4abc 0b20 1d3c 5a89 29bb 862a 56bc
00000010: 6d15 1a3c 0e61 293b 3b61 a93c 1cc6 943c
00000020: ee81 0c3c 81ea 963c 02cf 7abc 3ef8 e63b
00000030: 248f 26bc 3939 243c 7f33 98bc c32c 913c
00000040: ca49 01bc 88db 7bbc cbe1 9dbc c821 023b
00000050: 061d a0bb 4594 213c 27ae 253b 5300 803c
00000060: 538d a33c 6670 763c 9d28 8fbc a942 203c
00000070: f237 82bb d5b7 bb3b 700d 393b bda1 55bc

running_var f4 [32]
0.8102777 0.8102331 0.8101954 0.8101734 0.8102794 0.81023455 0.81020707 0.81030536
0.8102276 0.81032693 0.8102117 0.8103382 0.8102735 0.81021863 0.8103515 0.8102591
0.8102712 0.81020087 0.8103136 0.8101978 0.81022096 0.81027424 0.8101231 0.8102848
0.81021124 0.8101747 0.8102007 0.8101746 0.81013775 0.8102828 0.8102582 0.8103787
00000000: 5c6e 4f3f 706b 4f3f f768 4f3f 8667 4f3f
00000010: 796e 4f3f 886b 4f3f bb69 4f3f 2c70 4f3f
00000020: 136b 4f3f 9671 4f3f 096a 4f3f 5372 4f3f
00000030: 166e 4f3f 7d6a 4f3f 3273 4f3f 246d 4f3f
00000040: ef6d 4f3f 5369 4f3f b670 4f3f 1f69 4f3f
00000050: a46a 4f3f 226e 4f3f 3a64 4f3f d36e 4f3f
00000060: 016a 4f3f 9c67 4f3f 5069 4f3f 9a67 4f3f
00000070: 3065 4f3f b26e 4f3f 156d 4f3f fa74 4f3f

weight f4 [32, 32, 3]
-0.04033806 0.00887648 0.030840427 -0.047633633 -0.08104716 -0.0042516068 0.0047692284 -0.05150806
0.09550169 -0.046902202 -0.002434224 -0.071665965 -0.032026067 0.008682005 -0.093042634 0.007302217
0.071703956 -0.03080567 0.0043998584 0.082759276 -0.096934415 0.023961052 -0.05259898 -0.04318087
-0.046293404 -0.063781574 0.044291362 -0.09920001 0.05629304 0.011189938 -0.06497711 -0.09418296
-0.085005924 -0.07594709 0.09499173 0.039369196 0.074209794 -0.0736576 -0.064926766 -0.038324952
-0.0048648044 -0.09199438 -0.09887391 0.038450465 0.089324266 0.033212647 -0.048370622 -0.05693533
-0.04403151 0.085868925 0.06390418 0.09545465 -0.08916968 -0.09803375 -0.0990646 -0.026606001
-0.034981087 -0.0257667 0.030254334 -0.021576874 -0.030263796 0.0007773489 -0.025768183 -0.0077896044
-0.048502874 0.044032052 -0.032069527 0.06718017 0.075907096 -0.027551822 0.07321313 0.09639099
-0.005884446 0.092497796 0.050052315 0.001955159 0.039313287 -0.017374396 0.011744857 -0.045951203
0.061706603 -0.04978794 -0.07548395 -0.08309358 -0.07913493 -0.033381335 0.0016484112 0.09988925
0.09533879 -0.050250273 0.02022329 -0.016889535 -0.084999055 -0.056784414 -0.087709926 0.07821658
0.089473724 0.05794993 -0.06525961 0.06879796 -0.0039815307 0.09098804 -0.021501243 0.025000677
0.023585841 0.09143898 -0.04681582 -0.02308318 -0.079189904 0.04060386 -0.0704133 -0.040979613
0.10109572 0.08731885 -0.07281388 -0.00021958351 0.009359524 0.06860587 0.07471077 -0.026938953
-0.013463616 -0.02625589 0.07139963 0.03140916 -0.06226586 0.08067304 0.0041702613 0.06994967
-0.08162953 -0.012926199 0.026789874 -0.008390784 -0.02400636 0.00071456283 0.06048204 0.096441075
0.017506383 0.06771161 -0.06152381 -0.012775764 0.0808966 0.044716746 -0.027194947 -0.08600118
-0.056838322 -0.044724245 -0.015713684 -0.10034691 0.022765204 -0.018887267 0.09033544 0.045429766
-0.074637145 -0.095925875 -0.04138326 0.086912304 0.07451077 0.08380939 0.034807757 -0.007908165
-0.01280722 -0.0108212605 -0.082882345 0.0950308 -0.04530073 0.070860624 -0.030446619 -0.082285866
0.070402116 0.00280305 0.07486093 -0.07802142 0.049635127 -0.09696838 -0.0848297 0.050672248
0.09828484 -0.084641024 -0.086134695 0.042182922 -0.077493 0.0029091537 -0.10067723 -0.059326667
0.023842841 -0.04856716 -0.0031384528 -0.024702236 -0.061687283 0.08880289 0.0012913272 -0.01640176
0.06753981 0.02933152 -0.06112951 -0.048413448 0.02028495 -0.02061107 -0.030942023 0.058641687
-0.06771049 -0.011023812 -0.06317975 0.023154363 0.008372657 0.001552783 -0.039713103 0.044487372
-0.0060424358 0.04142496 0.026096657 0.015273377 0.015517071 -0.06340703 -0.08210498 0.010071278
-0.017228372 -0.025597975 0.01236207 -0.026020877 0.024695098 0.094840735 -0.023381531 -0.0037796348
-0.06838839 -0.009134904 -0.013943419 -0.06512097 0.012286797 0.038867563 0.033627614 0.031621754
0.084000215 0.08186585 0.034935877 -0.09638653 -0.005508445 0.05855286 0.0372058 -0.021337532
-0.09498068 0.09743914 0.027126625 -0.014573455 0.09746984 0.039819673 0.04033394 0.098818004
0.09573166 -0.06728034 0.023962423 -0.10167964 -0.035724908 -0.009038508 0.050595745 -0.029061131
00000000: 8639 25bd a86e 113c 10a5 fc3c 7c1b 43bd
00000010: 0efc a5bd 1051 8bbb 3047 9c3b 1efa 52bd
00000020: 6496 c33d 861c 40bd 8087 1fbb 9bc5 92bd
00000030: c42d 03bd f83e 0e3c 238d bebd 7047 ef3b
00000040: 86d9 923d 2c5c fcbc b02c 903b b27d a93d
00000050: 8d85 c6bd f849 c43c 0772 57bd 6dde 30bd
00000060: 279e 3dbd ea9f 82bd dc6a 353d 6029 cbbd
00000070: 8893 663d 0056 373c b812 85bd ffe2 c0bd
00000080: 9617 aebd 268a 9bbd 068b c23d 9841 213d
00000090: 4efb 973d ccd9 96bd 53f8 84bd a0fa 1cbd
000000a0: f068 9fbb 8d67 bcbd 687e cabd 3c7e 1d3d
000000b0: a4ef b63d fc09 083d 4620 46bd 0535 69bd
000000c0: 625a 34bd 0cdc af3d 32e0 823d ba7d c33d
000000d0: 989e b6bd ebc5 c8bd 62e2 cabd d4f4 d9bc
000000e0: 5448 0fbd b014 d3bc f0d7 f73c fcc1 b0bc
000000f0: c8eb f7bc 00c7 4b3a cc17 d3bc f03f ffbb
00000100: f3aa 46bd f45a 343d 565b 03bd c295 893d
00000110: 2e75 9b3d 5cb4 e1bc c4f0 953d a468 c53d
00000120: 50d2 c0bb 7c6f bd3d a803 4d3d 2022 003b
00000130: f806 213d c054 8ebc 806d 403c 5437 3cbd
00000140: 10c0 7c3d 70ee 4bbd 5497 9abd f82c aabd
00000150: 7f11 a2bd deba 08bd 800f d83a bc92 cc3d
00000160: fc40 c33d 3bd3 4dbd 50ab a53c ec5b 8abc
00000170: fc13 aebd c696 68bd 43a1 b3bd 0430 a03d
00000180: 003e b73d e85c 6d3d d5a6 85bd f2e5 8c3d
00000190: 8077 82bb f057 ba3d 6023 b0bc 38ce cc3c
000001a0: 1837 c13c 5c44 bb3d f2c1 3fbd f018 bdbc
000001b0: 512e a2bd 3c50 263d d934 90bd 3dda 27bd
000001c0: 460b cf3d 3ad4 b23d 721f 95bd 0040 66b9
000001d0: b058 193c 3c81 8c3d f601 993d 14af dcbc
000001e0: 8096 5cbc 9816 d7bc f839 923d e4a6 003d
000001f0: 7d0a 7fbd e837 a53d b0a6 883b c641 8f3d
00000200: 622d a7bd 68c8 53bc 7076 db3c 8079 09bc
00000210: fca8 c4bc 8051 3b3a 04bc 773d e682 c53d
00000220: 8c69 8f3c 62ac 8a3d 6400 7cbd 7051 51bc
00000230: 1ead a53d e828 373d f0c7 debc 6321 b0bd
00000240: 4dcf 68bd c530 37bd fcb9 80bc ae82 cdbd
00000250: 187e ba3c 78b9 9abc ca01 b93d 9014 3a3d
00000260: 5cdb 98bd c974 c4bd 7e81 29bd 14ff b13d
00000270: 1a99 983d 42a4 ab3d 9492 0e3d 4091 01bc
00000280: 60d5 51bc a84b 31bc 38be a9bd 829f c23d
00000290: 428d 39bd 601f 913d 306b f9bc 7e85 a8bd
000002a0: fc2e 903d 60b3 373b b050 993d b2c9 9fbd
000002b0: 344e 4b3d 5c97 c6bd 32bb adbd b48d 4f3d
000002c0: 9049 c93d 4658 adbd 6367 b0bd 00c8 2c3d
000002d0: a6b4 9ebd 80a7 3e3b dd2f cebd 8500 73bd
000002e0: 1052 c33c 5cee 46bd 80ae 4dbb 585c cabc
000002f0: ceab 7cbd 4ade b53d c041 a93a fc5c 86bc
00000300: 5052 8a3d a848 f03c f062 7abd 2e4d 46bd
00000310: a02c a63c 8cd8 a8bc 207a fdbc 4432 703d
00000320: ccab 8abd 389d 34bc 6364 81bd 38ae bd3c
00000330: 782d 093c c086 cb3a 35aa 22bd 6438 363d
00000340: a0ff c5bb 38ad 293d a8c8 d53c 303d 7a3c
00000350: 503b 7e3c 8cdb 81bd a826 a8bd 0002 253c
00000360: 8422 8dbc d8b2 d1bc 488a 4a3c bc29 d5bc
00000370: 604d ca3c dc3b c23d a08a bfbc c0b3 77bb
00000380: 360f 8cbd 90aa 15bc f072 64bc 255e 85bd
00000390: 904e 493c 9833 1f3d 1cbd 093d d085 013d
000003a0: 4e08 ac3d 48a9 a73d ec18 0f3d 4d66 c5bd
000003b0: 3080 b4bb 20d5 6f3d 1c65 183d 0ccc aebc
000003c0: 3b85 c2bd 2c8e c73d a838 de3c 80c5 6ebc
000003d0: 449e c73d f419 233d 3435 253d 1861 ca3d
000003e0: f60e c43d 46ca 89bd d84c c43c 6a3d d0bd
000003f0: 4854 12bd 4016 14bc 7c3d 4f3d 9c11 eebc

bias f4 [32]
0.008561678 0.058322534 0.06314343 -0.03730735 0.06318161 0.082497224 0.008531578 0.09404038
-0.033661447 0.07053217 0.10036376 0.015545659 -0.0053720176 0.03700356 0.058361515 -0.023319833
0.07467677 -0.015869066 -0.024932161 0.08365558 -0.020556897 -0.074488565 0.07429968 -0.071815565
0.07842925 -0.08970041 -0.02324202 0.06623 0.09528753 -0.01885087 -0.0794739 0.00075536966
00000000: 4846 0c3c 9ce3 6e3d 5851 813d 98cf 18bd
00000010: 5c65 813d 4ef4 a83d 08c8 0b3c 3e98 c03d
00000020: 96e0 09bd 2c73 903d 848b cd3d 38b3 7e3c
00000030: c007 b0bb 0c91 173d 7c0c 6f3d 3c09 bfbc
00000040: 22f0 983d d8ff 81bc 883e ccbc 9e53 ab3d
00000050: f066 a8bc 768d 98bd 6e2a 983d 0a14 93bd
00000060: 849f a03d d9b4 b7bd 0c66 bebc 98a3 873d
00000070: 1c26 c33d 246d 9abc 36c3 a2bd 0004 463a

weight f4 [32]
1.0 1.0 1.0 1.0 1.0 1.0 1.0 1.0
1.0 1.0 1.0 1.0 1.0 1.0 1.0 1.0
1.0 1.0 1.0 1.0 1.0 1.0 1.0 1.0
1.0 1.0 1.0 1.0 1.0 1.0 1.0 1.0
00000000: 0000 803f 0000 803f 0000 803f 0000 803f
00000010: 0000 803f 0000 803f 0000 803f 0000 803f
00000020: 0000 803f 0000 803f 0000 803f 0000 803f
00000030: 0000 803f 0000 803f 0000 803f 0000 803f
00000040: 0000 803f 0000 803f 0000 803f 0000 803f
00000050: 0000 803f 0000 803f 0000 803f 0000 803f
00000060: 0000 803f 0000 803f 0000 803f 0000 803f
00000070: 0000 803f 0000 803f 0000 803f 0000 803f

bias f4 [32]
0.0 0.0 0.0 0.0 0.0 0.0 0.0 0.0
0.0 0.0 0.0 0.0 0.0 0.0 0.0 0.0
0.0 0.0 0.0 0.0 0.0 0.0 0.0 0.0
0.0 0.0 0.0 0.0 0.0 0.0 0.0 0.0
00000000: 0000 0000 0000 0000 0000 0000 0000 0000
00000010: 0000 0000 0000 0000 0000 0000 0000 0000
00000020: 0000 0000 0000 0000 0000 0000 0000 0000
00000030: 0000 0000 0000 0000 0000 0000 0000 0000
00000040: 0000 0000 0000 0000 0000 0000 0000 0000
00000050: 0000 0000 0000 0000 0000 0000 0000 0000
00000060: 0000 0000 0000 0000 0000 0000 0000 0000
00000070: 0000 0000 0000 0000 0000 0000 0000 0000

running_mean f4 [32]
-0.115595534 0.032264918 -0.019699048 -0.13304381 0.004780833 0.044246357 -0.05240797 0.036412273
0.07874587 0.04542175 0.05383313 0.013751274 -0.18196212 0.019556345 0.03715782 -0.024151413
-0.009923684 -0.013162535 0.14137524 0.097699046 0.100965925 0.04103418 -0.06625291 -0.0003740239
-0.024542572 0.051051352 0.07337676 0.029404933 0.12845172 -0.106340304 -0.045674704 -0.03664421
00000000: 5abd ecbd 3828 043d e65f a1bc a33c 08be
00000010: 89a8 9c3b ab3b 353d bda9 56bd 0925 153d
00000020: 8445 a13d 280c 3a3d 2180 5c3d 064d 613c
00000030: 4754 3abe a134 a03c cc32 183d 2fd9 c5bc
00000040: f396 22bc aca7 57bc acc4 103e 7016 c83d
00000050: 39c7 ce3d 7513 283d 9baf 87bd a318 c4b9
00000060: 810d c9bc 391b 513d 8e46 963d 9de2 f03c
00000070: d988 033e f2c8 d9bd 6615 3bbd 3d18 16bd

running_var f4 [32]
0.95334506 0.8407466 0.84858096 0.99023515 0.8337134 0.841203 0.8501948 0.8317025
0.9106941 0.8488097 0.84301984 0.83187157 1.1464574 0.8355492 0.8375542 0.84573036
0.83749515 0.8341776 1.0419339 0.88975513 0.923712 0.86314625 0.89249784 0.84217495
0.8383355 0.87839264 0.88395184 0.8334412 0.94265026 0.9306375 0.8446342 0.8366355
00000000: 6c0e 743f 2b3b 573f 9a3c 593f 0d80 7d3f
00000010: 3e6e 553f 1459 573f 5ea6 593f 74ea 543f
00000020: 4023 693f 984b 593f 26d0 573f 89f5 543f
00000030: 1ebf 923f 8de6 553f f469 563f c981 583f
00000040: 1566 563f aa8c 553f 175e 853f fec6 633f
00000050: 6478 6c3f 27f7 5c3f bd7a 643f c798 573f
00000060: 289d 563f 57de 603f ab4a 623f 675c 553f
00000070: 8751 713f 423e 6e3f f239 583f be2d 563f

weight f4 [64, 32, 3]
0.036509544 -0.0773839 -0.04384121 -0.012819722 -0.035640284 -0.011368126 -0.05724591 -0.084296264
0.03273733 -0.058540694 0.003072016 -0.09871319 0.08281581 0.0912413 0.013727039 -0.09787462
0.051326916 0.100118905 -0.09841141 -0.087742396 -0.051104695 -0.06612654 0.100105524 0.02038189
-0.08724631 -0.041659724 0.084704 -0.025697827 -0.09637614 -0.059831053 0.05236183 0.09273739
0.087236404 0.05802232 0.100118116 0.037945822 0.058194324 0.051759332 -0.0663531 -0.022008099
-0.06906399 0.0842433 -0.085855156 0.019447014 -0.05457425 -0.026834294 -0.087491885 -0.031506643
-0.03952179 -0.09293949 -0.02589354 0.072664216 -0.025084198 0.049495444 -0.0043973178 0.063039765
-0.06264551 -0.019057557 -0.032306947 0.053872645 -0.0036247522 0.09260841 0.044322312 -0.021442764
0.048588768 0.06732738 0.009633958 -0.07839616 -0.09837265 0.024719715 -0.060158923 -0.09360254
-0.08099747 0.009742074 -0.060059533 -0.050278693 0.0502882 -0.07170987 -0.0729097 -0.09846475
0.037768573 0.042314783 -0.031476654 -0.028659508 0.057710186 -0.100731544 0.098756686 -0.050907608
-0.07337555 0.07163784 -0.02569078 0.012005635 -0.08485475 0.07312532 0.09073526 0.03295912
0.08857866 0.08609094 0.091487676 0.0662629 0.057760805 -0.097663395 0.007011272 -0.08511771
-0.079418376 0.034167394 -0.026832469 -0.02090685 0.05300884 -0.078842826 -0.08937131 0.046313673
-0.021063901 -0.0759814 0.026300296 0.05789703 0.021700218 -0.07043469 0.079737425 0.0988453
0.064254284 0.053201824 -0.0040764585 0.03343539 -0.0768396 0.073473096 0.07529937 0.01676181
0.070439085 -0.018515915 -0.0339142 0.07253905 0.049333483 0.054412603 -0.07550647 -0.07452166
0.0741497 0.007685758 -0.052136533 0.062682524 -0.05125576 0.09146772 -0.044926338 0.09839156
-0.093286455 0.06982228 0.082952574 0.04622008 -0.0077804625 -0.07122398 -0.020540744 -0.03359677
-0.06983368 -0.07363102 0.074797556 0.047813743 0.026554912 -0.10048944 -0.057400137 0.07361582
0.06275545 -0.082938045 0.009482205 -0.08887672 0.0011369437 0.07505342 0.0124493465 -0.055735797
0.06836861 -0.094497435 -0.06297287 0.041250408 0.03267245 -0.033387206 -0.07980594 -0.027949683
-0.04395807 -0.07595356 -0.04552938 0.048889503 0.013840586 -0.0378294 -0.034649767 -0.045231868
0.08235587 -0.027179249 0.056524158 0.031043455 0.098195836 0.05455342 -0.049940288 -0.08948352
-0.0029244572 0.037376195 -0.0580298 -0.056527756 -0.089749314 0.07570389 0.07078099 -0.070386305
-0.015242428 -0.079897195 -0.059511688 -0.078950696 0.028874636 0.0959913 -0.07497932 -0.006622553
-0.04240991 0.010937855 0.051277682 -0.08950363 -0.053275537 -0.082916856 -0.021912798 0.02486007
0.069599405 0.096810654 -0.008360431 0.028320149 -0.08849698 0.012045868 -0.081056505 0.036843345
-0.059217058 -0.08400391 -0.016185366 -0.08789806 -0.008488037 0.017245159 0.0799028 0.09395859
-0.08382881 -0.016279012 0.037065163 0.012333654 -0.09689663 0.047135264 0.08752932 -0.05119366
0.099342436 -0.08109444 -0.027363405 0.034554392 0.045853227 -0.099662304 -0.0705314 0.048902646
0.060370907 0.014300235 0.029651657 -0.07992036 0.053369418 -0.03678301 -0.09481162 0.0658135
00000000: 088b 153d 737b 9ebd d792 33bd d009 52bc
00000010: 8cfb 11bd 6041 3abc b07a 6abd 85a3 acbd
00000020: 9417 063d 5ec8 6fbd e053 493b 242a cabd
00000030: 569b a93d b8dc ba3d 60e7 603c 7d72 c8bd
00000040: 2c3c 523d 240b cd3d ec8b c9bd 49b2 b3bd
00000050: 2853 51bd 5a6d 87bd 2004 cd3d ecf7 a63c
00000060: 32ae b2bd 63a3 2abd 4a79 ad3d 4084 d2bc
00000070: db60 c5bd 6811 75bd 5c79 563d 1aed bd3d
00000080: 00a9 b23d d0a8 6d3d ba0a cd3d 146d 1b3d
00000090: 2c5d 6e3d 9801 543d 22e4 87bd 544a b4bc
000000a0: 6c71 8dbd c087 ac3d d4d4 afbd 584f 9f3c
000000b0: 4089 5fbd 98d3 dbbc f22e b3bd 1c0d 01bd
000000c0: 9ae1 21bd 0f57 bebd b01e d4bc fad0 943d
000000d0: 607d cdbc bcbb 4a3d 6017 90bb fe1a 813d
000000e0: 4a4c 80bd 981e 9cbc 4a54 04bd 90a9 5c3d
000000f0: 408d 6dbb 7aa9 bd3d 508b 353d bca8 afbc
00000100: 0405 473d f0e2 893d c0d7 1d3c 2a8e a0bd
00000110: 9a77 c9bd 0081 ca3c 3469 76bd b0b2 bfbd
00000120: 00e2 a5bd 389d 1f3c fc00 76bd 08f1 4dbd
00000130: 00fb 4d3d a0dc 92bd ae51 95bd e3a7 c9bd
00000140: 38b3 1a3d 4452 2d3d aaed 00bd 58c7 eabc
00000150: 8461 6c3d 574c cebd f240 ca3d 7f84 50bd
00000160: ec45 96bd dcb6 923d 7875 d2bc 48b3 443c
00000170: 54c8 adbd bac2 953d 68d3 b93d 2400 073d
00000180: ba68 b53d 7250 b03d e45d bb3d d8b4 873d
00000190: 9896 6c3d bf03 c8bd d0be e53b 3252 aebd
000001a0: 1aa6 a2bd 1cf3 0b3d c4cf dbbc d844 abbc
000001b0: cc1f 593d 5978 a1bd 4e08 b7bd 68b3 3d3d
000001c0: 348e acbc 239c 9bbd b873 d73c 7025 6d3d
000001d0: a8c4 b13c 1040 90bd 604d a33d 686f ca3d
000001e0: c097 833d 28ea 593d d093 85bb 8cf3 083d
000001f0: 155e 9dbd 1079 963d 8e36 9a3d 1050 893c
00000200: 5e42 903d b0ae 97bc 9ee9 0abd 5a8f 943d
00000210: e811 4a3d c0df 5e3d 23a3 9abd d09e 98bd
00000220: ccdb 973d d0d8 fb3b 1e8d 55bd b25f 803d
00000230: 8ff1 51bd 6e53 bb3d ae04 38bd 8481 c93d
00000240: f80c bfbd fcfe 8e3d 0ae3 a93d 4451 3d3d
00000250: 40f3 febb e1dd 91bd 1045 a8bc c49c 09bd
00000260: f604 8fbd dccb 96bd 762f 993d 58d8 433d
00000270: b089 d93c 68cd cdbd 681c 6bbd e4c3 963d
00000280: ee85 803d 6cdb a9bd 405b 1b3c ff04 b6bd
00000290: 8005 953a 9cb5 993d 58f8 4b3c 384b 64bd
000002a0: d804 8c3d df87 c1bd ecf7 80bd 30f6 283d
000002b0: 8cd3 053d 06c1 08bd 4c71 a3bd bcf6 e4bc
000002c0: 610d 34bd 8a8d 9bbd 047d 3abd 5c40 483d
000002d0: a0c3 623c 00f3 1abd eaec 0dbd 0d45 39bd
000002e0: 32aa a83d 04a7 debc e085 673d d84e fe3c
000002f0: e61a c93d 6873 5f3d 308e 4cbd 2343 b7bd
00000300: 40a8 3fbb c817 193d a8b0 6dbd a689 67bd
00000310: 7dce b7bd a40a 9b3d a0f5 903d b226 90bd
00000320: 60bb 79bc 24a1 a3bd 87c2 73bd e7b0 a1bd
00000330: 808a ec3c 1697 c43d c28e 99bd 0002 d9bb
00000340: 04b6 2dbd b034 333c 8c08 523d ae4d b7bd
00000350: 7337 5abd 50d0 a9bd 7882 b3bc 58a7 cb3c
00000360: 228a 8e3d aa44 c63d 30fa 08bc a8ff e73c
00000370: e83d b5bd 085c 453c f400 a6bd 0ce9 163d
00000380: 968d 72bd 3e0a acbd 2c97 84bc e603 b4bd
00000390: 6811 0bbc b845 8d3c 14a4 a33d 5c6d c03d
000003a0: 70ae abbd 905b 85bc a4d1 173d 1813 4a3c
000003b0: be71 c6bd e810 413d 9242 b33d 71b0 51bd
000003c0: 0c74 cb3d d714 a6bd 3829 e0bc e888 0d3d
000003d0: 98d0 3b3d c01b ccbd c472 90bd 244e 483d
000003e0: 7c47 773d 884b 6a3c 08e8 f23c 49ad a3bd
000003f0: e499 5a3d c8a9 16bd 982c c2bd 3ac9 863d

bias f4 [64]
-0.047696143 0.07844065 -0.069831505 -0.08797099 -0.02978456 0.06888221 -0.05583363 0.02302666
-0.0085053 0.04664226 -0.050858147 0.0008819774 0.041868195 0.030085355 -0.069976576 -0.051410336
0.040562823 -0.014073737 -0.062539965 0.030717745 -0.055122204 -0.084126584 0.027425393 -0.1020383
0.06123337 -0.067301184 -0.066969976 -0.09604631 -0.049433153 -0.011528648 0.10022774 -0.09961869
-0.076061904 -0.07185964 -0.0732733 0.07675633 -0.011766829 0.033113718 -0.06700705 -0.10172002
-0.019079223 0.0700009 -0.043025125 0.0591902 -0.08819729 -0.09828395 0.057244465 0.08248143
0.052046984 0.021789163 -0.09254672 -0.0026278123 -0.045709997 0.058336273 0.07959053 0.05253467
0.08479974 0.07206756 -0.07807453 0.033186942 -0.09088242 0.10088469 -0.064398535 0.042308077
00000000: 085d 43bd 7ea5 a03d d203 8fbd 222a b4bd
00000010: c0fe f3bc 1e12 8d3d ceb1 64bd 68a2 bc3c
00000020: d059 0bbc f40b 3f3d a250 50bd 8034 673a
00000030: fc7d 2b3d 9075 f63c e14f 8fbd a593 52bd
00000040: 3425 263d 8895 66bc f414 80bd c8a3 fb3c
00000050: d2c7 61bd 8f4a acbd 38ab e03c 75f9 d0bd
00000060: d8cf 7a3d 34d5 89bd 8e27 89bd eeb3 c4bd
00000070: 6b7a 4abd a8e2 3cbc 3444 cd3d e204 ccbd
00000080: 58c6 9bbd 262b 93bd 5010 96bd 6c32 9d3d
00000090: a8c9 40bc 40a2 073d fe3a 89bd 9652 d0bd
000000a0: 084c 9cbc a25c 8f3d 1d3b 30bd 6c71 723d
000000b0: c8a0 b4bd 1849 c9bd 2c79 6a3d 06ec a83d
000000c0: 382f 553d 307f b23c 2289 bdbd 6037 2cbb
000000d0: 683a 3bbd 04f2 6e3d 5c00 a33d 982e 573d
000000e0: 7cab ad3d 2898 933d 8ae5 9fbd 08ef 073d
000000f0: 9020 babd a29c ce3d 61e3 83bd 3c4b 2d3d

weight f4 [64]
1.0 1.0 1.0 1.0 1.0 1.0 1.0 1.0
1.0 1.0 1.0 1.0 1.0 1.0 1.0 1.0
1.0 1.0 1.0 1.0 1.0 1.0 1.0 1.0
1.0 1.0 1.0 1.0 1.0 1.0 1.0 1.0
1.0 1.0 1.0 1.0 1.0 1.0 1.0 1.0
1.0 1.0 1.0 1.0 1.0 1.0 1.0 1.0
1.0 1.0 1.0 1.0 1.0 1.0 1.0 1.0
1.0 1.0 1.0 1.0 1.0 1.0 1.0 1.0
00000000: 0000 803f 0000 803f 0000 803f 0000 803f
00000010: 0000 803f 0000 803f 0000 803f 0000 803f
00000020: 0000 803f 0000 803f 0000 803f 0000 803f
00000030: 0000 803f 0000 803f 0000 803f 0000 803f
00000040: 0000 803f 0000 803f 0000 803f 0000 803f
00000050: 0000 803f 0000 803f 0000 803f 0000 803f
00000060: 0000 803f 0000 803f 0000 803f 0000 803f
00000070: 0000 803f 0000 803f 0000 803f 0000 803f
00000080: 0000 803f 0000 803f 0000 803f 0000 803f
00000090: 0000 803f 0000 803f 0000 803f 0000 803f
000000a0: 0000 803f 0000 803f 0000 803f 0000 803f
000000b0: 0000 803f 0000 803f 0000 803f 0000 803f
000000c0: 0000 803f 0000 803f 0000 803f 0000 803f
000000d0: 0000 803f 0000 803f 0000 803f 0000 803f
000000e0: 0000 803f 0000 803f 0000 803f 0000 803f
000000f0: 0000 803f 0000 803f 0000 803f 0000 803f

bias f4 [64]
0.0 0.0 0.0 0.0 0.0 0.0 0.0 0.0
0.0 0.0 0.0 0.0 0.0 0.0 0.0 0.0
0.0 0.0 0.0 0.0 0.0 0.0 0.0 0.0
0.0 0.0 0.0 0.0 0.0 0.0 0.0 0.0
0.0 0.0 0.0 0.0 0.0 0.0 0.0 0.0
0.0 0.0 0.0 0.0 0.0 0.0 0.0 0.0
0.0 0.0 0.0 0.0 0.0 0.0 0.0 0.0
0.0 0.0 0.0 0.0 0.0 0.0 0.0 0.0
00000000: 0000 0000 0000 0000 0000 0000 0000 0000
00000010: 0000 0000 0000 0000 0000 0000 0000 0000
00000020: 0000 0000 0000 0000 0000 0000 0000 0000
00000030: 0000 0000 0000 0000 0000 0000 0000 0000
00000040: 0000 0000 0000 0000 0000 0000 0000 0000
00000050: 0000 0000 0000 0000 0000 0000 0000 0000
00000060: 0000 0000 0000 0000 0000 0000 0000 0000
00000070: 0000 0000 0000 0000 0000 0000 0000 0000
00000080: 0000 0000 0000 0000 0000 0000 0000 0000
00000090: 0000 0000 0000 0000 0000 0000 0000 0000
000000a0: 0000 0000 0000 0000 0000 0000 0000 0000
000000b0: 0000 0000 0000 0000 0000 0000 0000 0000
000000c0: 0000 0000 0000 0000 0000 0000 0000 0000
000000d0: 0000 0000 0000 0000 0000 0000 0000 0000
000000e0: 0000 0000 0000 0000 0000 0000 0000 0000
000000f0: 0000 0000 0000 0000 0000 0000 0000 0000

running_mean f4 [64]
-0.08092736 0.044554625 -0.11140609 -0.08152543 0.1152936 0.042321544 0.109197326 -0.06672426
0.00705621 -0.11614424 -0.12343716 -0.005129323 0.061461646 0.017749019 -0.079584114 0.027336305
-0.01003867 -0.0466348 -0.09743766 0.01651191 -0.040427934 -0.10153425 0.019362042 -0.065912135
0.004842342 -0.1874238 0.003375067 -0.025818078 0.021513179 -0.09540419 -0.0098517705 -0.034926053
0.08294226 -0.06304021 0.010323708 0.034443993 -0.09791536 -0.07384585 0.032656945 0.040491104
0.10923706 -0.12918697 -0.014279824 0.013099562 0.041638892 0.061214738 0.1194543 -0.16317232
0.07833558 0.018244443 -0.011548198 0.047196135 0.114967406 0.027692731 -0.079132505 -0.003040419
0.0158124 -0.07156887 -0.017087668 0.007129056 0.10980724 0.07030391 -0.038119785 0.13955717
00000000: 3ebd a5bd e97e 363d e028 e4bd cef6 a6bd
00000010: 0d1f ec3d 5b59 2d3d d9a2 df3d bba6 88bd
00000020: c837 e73b 08dd edbd 9fcc fcbd e113 a8bb
00000030: 35bf 7b3d 6466 913c fffc a2bd 63f0 df3c
00000040: 3c79 24bc 2204 3fbd 658d c7bd fc43 873c
00000050: c397 25bd 30f1 cfbd 259d 9e3c f1fc 86bd
00000060: 82ac 9e3b 06ec 3fbe 3a30 5d3b 6f80 d3bc
00000070: 683c b03c 4663 c3bd 5269 21bc 9f0e 0fbd
00000080: a2dd a93d 3a1b 81bd c524 293c 2515 0d3d
00000090: d987 c8bd 7e3c 97bd 4ac3 053d 00da 253d
000000a0: aeb7 df3d 9749 04be ecf5 69bc 8c9f 563c
000000b0: 8b8d 2a3d 4ebc 7a3d 75a4 f43d a516 27be
000000c0: 686e a03d 5f75 953c a734 3dbc bc50 413d
000000d0: 0874 eb3d dedb e23c 3910 a2bd c441 47bb
000000e0: 0289 813c b392 92bd 70fb 8bbc db9a e93b
000000f0: 9ee2 e03d 7ffb 8f3d 7e23 1cbd 13e8 0e3e

running_var f4 [64]
0.86035377 0.84249365 0.85962176 0.86292374 0.8576842 0.84129703 0.86544895 0.84963375
0.84810597 1.0029966 0.9893762 0.82821697 0.8374267 0.8361397 0.9059018 0.8583825
0.8569155 0.85821575 0.8456531 0.82664174 0.8409538 0.9156625 0.835583 0.8286314
0.8346397 1.0417029 0.8291184 0.9395281 0.8307815 0.91104805 0.83527505 0.8662227
0.84949213 0.835659 0.84586823 0.8448767 0.87832165 0.89319175 0.894982 0.8653817
0.89422596 0.9209959 0.84442574 0.849776 0.8607037 0.9891248 0.92859346 1.0794172
0.85116863 0.8341727 0.83645296 0.8293238 0.9681495 0.8466381 0.82286835 0.8411744
0.86134756 0.87455523 0.83445245 0.8319634 1.0000393 0.8437127 0.8285719 0.9126306
00000000: 2540 5c3f aaad 573f 2c10 5c3f 92e8 5c3f
00000010: 3191 5b3f 3e5f 573f 108e 5d3f 9981 593f
00000020: 791d 593f 3162 803f c247 7d3f 0706 543f
00000030: 9961 563f 400d 563f 2ee9 673f f5be 5b3f
00000040: d05e 5b3f 07b4 5b3f b97c 583f cb9e 533f
00000050: c048 573f dc68 6a3f c4e8 553f 3021 543f
00000060: f3aa 553f 8556 853f 1a41 543f ea84 703f
00000070: 19ae 543f 723a 693f 96d4 553f c5c0 5d3f
00000080: 5178 593f c0ed 553f d28a 583f d749 583f
00000090: b0d9 603f 37a8 643f 8a1d 653f a889 5d3f
000000a0: feeb 643f 63c6 6b3f 492c 583f ec8a 593f
000000b0: 1457 5c3f 4837 7d3f 4db8 6d3f 582a 8a3f
000000c0: 30e6 593f 588c 553f c821 563f 914e 543f
000000d0: a5d8 773f 46bd 583f 80a7 523f 3557 573f
000000e0: 4681 5c3f dae2 5f3f ad9e 553f 8efb 543f
000000f0: 4a01 803f 8efd 573f 4a1d 543f 29a2 693f

weight f4 [64, 64, 3]
0.018568821 0.06466812 0.0150441155 0.041626178 0.0715877 0.05556862 0.04756882 -0.013857752
0.042765595 0.02100873 -0.04415827 -0.011507601 -0.0067807212 -0.046938233 -0.06114611 0.0367672
0.033181958 -0.019346096 -0.015439939 0.018877149 -0.038169023 0.069216296 0.060870245 -0.021307271
-0.042804085 0.03810481 0.04952293 0.0028548539 -0.008460194 0.045321852 -0.03287047 0.06542972
-0.037575446 -0.063448116 0.0048028976 0.0042722747 -0.037358943 0.065323025 0.03549558 -0.06058816
-0.051566117 -0.041252017 0.04934483 -0.041031294 0.06689449 -0.02776521 -0.012391973 0.05217132
0.017403707 0.0013310239 0.01561527 0.059858814 -0.06427109 -0.013241213 -0.05050724 0.01707735
-0.05272056 -0.024376106 -0.06887394 -0.046764053 -0.04573632 0.03893616 0.017640106 0.022794597
-0.068751216 -0.053610638 0.061844587 0.013546541 0.046761878 0.039214015 -0.05897507 -0.036549497
-0.06824772 0.016661309 0.012215644 0.05849707 -0.059873506 0.012992382 -0.0010280758 -0.04313121
-0.039632063 -0.018514581 0.044031262 -0.064866476 0.06464189 0.036657654 -0.022417527 0.0684059
-0.04222692 0.03437879 0.0093936175 -0.03503703 -0.036412112 0.071290076 0.014734872 0.019306526
-0.04648212 -0.017925598 -0.0038169771 -0.05883235 0.008232579 0.0023239478 -0.042165633 0.056956902
-0.009727437 -0.05867185 -0.030152328 -0.006661929 0.054790705 0.06555112 -0.06726249 -0.035128817
-0.060641523 -0.042025283 -0.0056073666 0.037471555 0.033258937 -0.05090314 -0.070380524 -0.024161533
0.038189128 0.06841284 0.053825736 0.040764228 -0.0065116584 0.03847889 -0.052062776 0.07106061
-0.0025104657 -0.071432 -0.04902623 -0.01788621 -0.019287962 0.045219257 0.00016605109 -0.03074143
0.05448371 0.022964388 -0.05892312 0.058601275 0.0056928173 -0.05796735 0.026450478 0.016247757
-0.0652761 -0.00482855 0.056210235 -0.006425947 -0.010044962 -0.060385503 0.0068003386 0.015385345
-0.034016278 0.021384388 -0.045089126 0.04364612 0.04652538 -0.043395795 0.056975022 -0.015252456
-0.02233098 -0.007646285 0.034580655 0.004609108 -0.017871603 -0.037852243 0.046704218 0.026280276
0.016999155 0.0625788 -0.032851923 0.05272434 -0.056561477 -0.06143319 0.04350756 -0.044155706
-0.05061338 0.03549757 0.03087283 -0.018006466 -0.008207716 -0.03580497 0.06846252 0.014239654
-0.03818694 0.042867422 -0.038545728 0.046743408 0.050655358 -0.031551294 -0.042165205 0.0036633685
0.0640264 -0.058802765 -0.004641935 0.04877326 0.048506245 0.048364773 0.017414428 -0.049424335
-0.054789152 -0.05543828 0.047283508 -0.012916725 0.0031453595 0.0050706267 -0.034189798 0.018914446
-0.06262383 0.06552549 0.021677531 -0.0533769 0.00822676 0.07035951 0.04455872 0.052399255
0.037739217 0.059728548 0.029805936 -0.028608065 0.06463261 0.06468299 0.05082965 0.050114222
-0.03336555 0.0398594 -0.021635342 -0.024112992 0.069105655 -0.05178232 -0.014371067 -0.048209477
0.029977553 -0.04409643 0.009449184 0.038362294 0.017163731 -0.06548543 0.06366402 -0.036212336
-0.0306934 -0.023865893 0.05664383 0.035117082 0.04060349 -0.028285868 -0.026057348 0.04623916
-0.061097056 0.06032586 -0.056103952 0.039761566 0.00068383664 -0.013604946 0.058845967 -0.042668395
00000000: a41d 983c b870 843d 987b 763c 3680 2a3d
00000010: 929c 923d ec9b 633d 86d7 423d a00b 63bc
00000020: fa2a 2f3d 801a ac3c 4ddf 34bd 608a 3cbc
00000030: d030 debb 4e42 40bd 5874 7abd 3499 163d
00000040: cee9 073d b47b 9ebc ccf7 7cbc 40a4 9a3c
00000050: 1f57 1cbd 46c1 8d3d 1453 793d 968c aebc
00000060: 5653 2fbd ca13 1c3d 8ed8 4a3d 8018 3b3b
00000070: a09c 0abc 68a3 393d 30a3 06bd 0400 863d
00000080: b6e8 19bd 16f1 81bd a061 9d3b 70fe 8b3b
00000090: b105 19bd 14c8 853d d063 113d 4a2b 78bd
000000a0: fe36 53bd e0f7 28bd ce1d 4a3d 6e10 28bd
000000b0: faff 883d de73 e3bc b407 4bbc 98b1 553d
000000c0: 3892 8e3c c075 ae3a 30d7 7f3c 842e 753d
000000d0: 90a0 83bd acf1 58bc aee0 4ebd cce5 8b3c
000000e0: 84f1 57bd 66b0 c7bc c80d 8dbd aa8b 3fbd
000000f0: 0256 3bbd 867b 1f3d fc81 903c bcbb ba3c
00000100: 70cd 8cbd d496 5bbd c050 7d3d 50f2 5d3c
00000110: 6289 3f3d e09e 203d d88f 71bd edb4 15bd
00000120: 76c5 8bbd 4c7d 883c 2024 483c a09a 6f3d
00000130: ec3d 75bd 00de 543c 80c0 86ba 5aaa 30bd
00000140: 3b55 22bd e4ab 97bc 205a 343d b7d8 84bd
00000150: f862 843d 5626 163d f6a4 b7bc 6418 8c3d
00000160: 23f6 2cbd c6d0 0c3d b0e7 193c fd82 0fbd
00000170: de24 15bd 8800 923d 886a 713c b828 9e3c
00000180: 0964 3ebd b4d8 92bc 4026 7abb 31fa 70bd
00000190: f0e1 063c 604d 183b dfb5 2cbd a44b 693d
000001a0: d45f 1fbc e551 70bd 0402 f7bc 504c dabb
000001b0: 386c 603d aa3f 863d ebc0 89bd 3ce3 0fbd
000001c0: 3f63 78bd b422 2cbd 00be b7bb c67b 193d
000001d0: 863a 083d d07f 50bd aa23 90bd 68ee c5bc
000001e0: 346c 1c3d 081c 8c3d 6078 5c3d 64f8 263d
000001f0: c05f d5bb 0a9c 1d3d c73f 55bd 3a88 913d
00000200: a086 24bb f14a 92bd bacf 48bd 1a86 92bc
00000210: ca01 9ebc d437 393d 001e 2e39 74d5 fbbc
00000220: 502a 5f3d d01f bc3c 5f59 71bd e407 703d
00000230: d08a ba3b 2c6f 6dbd acae d83c 041a 853c
00000240: 7aaf 85bd d038 9ebb b43c 663d c090 d2bb
00000250: a093 24bc ca56 77bd 60d5 de3b d012 7c3c
00000260: a754 0bbd 502e af3c 60af 38bd 46c6 323d
00000270: 6691 3e3d cabf 31bd a45e 693d 70e5 79bc
00000280: 76ef b6bc b08d fabb 72a4 0d3d 0008 973b
00000290: 7867 92bc f40a 1bbd ec4c 3f3d bc49 d73c
000002a0: d041 8b3c 5029 803d bd8f 06bd 7af5 573d
000002b0: 02ad 67bd 5ea1 7bbd fc34 323d 9ddc 34bd
000002c0: fa4f 4fbd e665 113d 04e9 fc3c 4c82 93bc
000002d0: a879 06bc 3ba8 12bd 1436 8c3d 704d 693c
000002e0: e969 1cbd c095 2f3d 20e2 1dbd 0476 3f3d
000002f0: fe7b 4f3d ee3b 01bd 6cb5 2cbd 2015 703b
00000300: 4620 833d 2bdb 70bd 601b 98bb 78c6 473d
00000310: 7cae 463d 241a 463d b4a8 8e3c 2c71 4abd
00000320: 976a 60bd 4013 63bd 5aac 413d aca0 53bc
00000330: 6022 4e3b 8027 a63b 9a0a 0cbd 78f2 9a3c
00000340: ec40 80bd 3a32 863d 1495 b13c bca1 5abd
00000350: 88c9 063c a618 903d 3483 363d 9aa0 563d
00000360: 7094 1a3d eca5 743d 942b f43c 765b eabc
00000370: 1a5e 843d 8478 843d c032 503d 9244 4d3d
00000380: 51aa 08bd 9c43 233d 9a3c b1bc 9c88 c5bc
00000390: 4487 8d3d b319 54bd a074 6bbc 4d77 45bd
000003a0: 7c93 f53c 759e 34bd c0d0 1a3c c821 1d3d
000003b0: f49a 8c3c 3a1d 86bd 4862 823d 6353 14bd
000003c0: ba70 fbbc 6882 c3bc 5c03 683d eed6 0f3d
000003d0: d84f 263d c4b7 e7bc 3876 d5bc 4665 3d3d
000003e0: e840 7abd 4018 773d 42cd 65bd 06dd 223d
000003f0: 8043 333a 48e7 5ebc 7808 713d 0ec5 2ebd

bias f4 [64]
-0.031825658 0.04064562 -0.069889605 0.059341624 0.05240214 0.02689983 0.0072087124 -0.056488764
-0.0010013804 -0.026160415 0.07113966 0.03447938 -0.0003349334 0.018440738 -0.007926285 -0.049960934
0.021009788 -0.0043745264 0.032645926 0.0073672235 -0.0018458739 -0.024064299 -0.06681848 -0.05252062
-0.026899353 -0.0052240714 -0.006979689 -0.00566262 -0.027910769 0.022292301 0.014705665 -0.015235964
-0.049584817 0.029267915 -0.065451175 0.058716074 0.023609228 -0.049759537 0.069860935 0.0449028
-0.004849538 -0.014822815 -0.017861597 0.032740466 -0.031008087 0.056736633 0.010559544 0.042555623
-0.018243518 0.020961061 -0.039666038 0.021300577 -0.054042388 -0.04202202 -0.028986122 0.014013603
0.010447718 -0.05978903 0.07063991 0.052884042 -0.052023012 0.051349 0.054868802 0.03972368
00000000: 9f5b 02bd 067c 263d 4822 8fbd 3410 733d
00000010: a0a3 563d 085d dc3c 1037 ec3b c360 67bd
00000020: c040 83ba 5e4e d6bc acb1 913d 403a 0d3d
00000030: 009a afb9 0811 973c 40dd 01bc d6a3 4cbd
00000040: b81c ac3c 3058 8fbb bcb7 053d c068 f13b
00000050: 40f1 f1ba 7e22 c5bc 21d8 88bd dd1f 57bd
00000060: 085c dcbc b02e abbb e0b5 e4bb 808d b9bb
00000070: 20a5 e4bc 589e b63c 08f0 703c 44a0 79bc
00000080: 7319 4bbd 44c3 ef3c 440b 86bd 4480 703d
00000090: 2468 c13c a8d0 4bbd 4013 8f3d 00ec 373d
000000a0: e0e8 9ebb 64db 72bc 7c52 92bc de1a 063d
000000b0: ac04 febc ac64 683d f001 2d3c ce4e 2e3d
000000c0: 6e73 95bc 88b6 ab3c db78 22bd 8c7e ae3c
000000d0: 8d5b 5dbd 481f 2cbd 4e74 edbc 5099 653c
000000e0: e82c 2b3c 58e5 74bd a8ab 903d f09c 583d
000000f0: 1516 55bd 5453 523d 1cbe 603d 4cb5 223d

weight f4 [64]
1.0 1.0 1.0 1.0 1.0 1.0 1.0 1.0
1.0 1.0 1.0 1.0 1.0 1.0 1.0 1.0
1.0 1.0 1.0 1.0 1.0 1.0 1.0 1.0
1.0 1.0 1.0 1.0 1.0 1.0 1.0 1.0
1.0 1.0 1.0 1.0 1.0 1.0 1.0 1.0
1.0 1.0 1.0 1.0 1.0 1.0 1.0 1.0
1.0 1.0 1.0 1.0 1.0 1.0 1.0 1.0
1.0 1.0 1.0 1.0 1.0 1.0 1.0 1.0
00000000: 0000 803f 0000 803f 0000 803f 0000 803f
00000010: 0000 803f 0000 803f 0000 803f 0000 803f
00000020: 0000 803f 0000 803f 0000 803f 0000 803f
00000030: 0000 803f 0000 803f 0000 803f 0000 803f
00000040: 0000 803f 0000 803f 0000 803f 0000 803f
00000050: 0000 803f 0000 803f 0000 803f 0000 803f
00000060: 0000 803f 0000 803f 0000 803f 0000 803f
00000070: 0000 803f 0000 803f 0000 803f 0000 803f
00000080: 0000 803f 0000 803f 0000 803f 0000 803f
00000090: 0000 803f 0000 803f 0000 803f 0000 803f
000000a0: 0000 803f 0000 803f 0000 803f 0000 803f
000000b0: 0000 803f 0000 803f 0000 803f 0000 803f
000000c0: 0000 803f 0000 803f 0000 803f 0000 803f
000000d0: 0000 803f 0000 803f 0000 803f 0000 803f
000000e0: 0000 803f 0000 803f 0000 803f 0000 803f
000000f0: 0000 803f 0000 803f 0000 803f 0000 803f

bias f4 [64]
0.0 0.0 0.0 0.0 0.0 0.0 0.0 0.0
0.0 0.0 0.0 0.0 0.0 0.0 0.0 0.0
0.0 0.0 0.0 0.0 0.0 0.0 0.0 0.0
0.0 0.0 0.0 0.0 0.0 0.0 0.0 0.0
0.0 0.0 0.0 0.0 0.0 0.0 0.0 0.0
0.0 0.0 0.0 0.0 0.0 0.0 0.0 0.0
0.0 0.0 0.0 0.0 0.0 0.0 0.0 0.0
0.0 0.0 0.0 0.0 0.0 0.0 0.0 0.0
00000000: 0000 0000 0000 0000 0000 0000 0000 0000
00000010: 0000 0000 0000 0000 0000 0000 0000 0000
00000020: 0000 0000 0000 0000 0000 0000 0000 0000
00000030: 0000 0000 0000 0000 0000 0000 0000 0000
00000040: 0000 0000 0000 0000 0000 0000 0000 0000
00000050: 0000 0000 0000 0000 0000 0000 0000 0000
00000060: 0000 0000 0000 0000 0000 0000 0000 0000
00000070: 0000 0000 0000 0000 0000 0000 0000 0000
00000080: 0000 0000 0000 0000 0000 0000 0000 0000
00000090: 0000 0000 0000 0000 0000 0000 0000 0000
000000a0: 0000 0000 0000 0000 0000 0000 0000 0000
000000b0: 0000 0000 0000 0000 0000 0000 0000 0000
000000c0: 0000 0000 0000 0000 0000 0000 0000 0000
000000d0: 0000 0000 0000 0000 0000 0000 0000 0000
000000e0: 0000 0000 0000 0000 0000 0000 0000 0000
000000f0: 0000 0000 0000 0000 0000 0000 0000 0000

running_mean f4 [64]
-0.03870373 0.16224907 -0.029893987 0.02878671 0.21126693 0.015377637 -0.08553325 0.04685214
-0.0005967962 -0.028319562 0.036584213 -0.10192655 -0.08776304 0.062719196 -0.16682893 0.068794586
0.17171572 -0.21159618 0.070516765 -0.017772973 -0.07006372 -0.07944103 -0.104458265 -0.11038062
0.016461885 -0.014699443 0.09989633 -0.046793222 -0.100327484 -0.09478334 0.087754846 -0.10666491
0.07304621 -0.08074324 0.17905997 -0.052094698 -0.07141977 -0.15499005 -0.10146661 -0.09124514
0.16062206 -0.008049644 0.056392122 -0.074631825 0.09352989 -0.036863472 -0.048837285 -0.040505063
0.03385883 0.01663737 -0.0071042757 -0.030754995 0.037769925 -0.070794284 -0.07150963 -0.04683156
0.253361 -0.032642145 -0.11252332 -0.0611959 -0.014940911 0.036127925 0.12299902 -0.012559196
00000000: cd87 1ebd 9f24 263e 3ce4 f4bc 1bd2 eb3c
00000010: 5c56 583e 7cf2 7b3c 0e2c afbd 08e8 3f3d
00000020: 5172 1cba 6dfe e7bc 54d9 153d debe d0bd
00000030: 1cbd b3bd ec72 803d 34d5 2abe 2de4 8c3d
00000040: 3fd6 2f3e abac 58be 186b 903d a098 91bc
00000050: 917d 8fbd fbb1 a2bd 37ee d5bd 3c0f e2bd
00000060: 13db 863c efd5 70bc 7296 cc3d 40aa 3fbd
00000070: 7f78 cdbd c51d c2bd d0b8 b33d 2273 dabd
00000080: 4099 953d b65c a5bd 7f5b 373e 4061 55bd
00000090: 8744 92bd b6b5 1ebe bacd cfbd bbde babd
000000a0: 1c7a 243e a7e2 03bc 6dfb 663d 92d8 98bd
000000b0: 998c bf3d 27fe 16bd 9b09 48bd a3e8 25bd
000000c0: 8eaf 0a3d 184b 883c fcca e8bb e6f1 fbbc
000000d0: a3b4 1a3d 98fc 90bd a473 92bd 73d2 3fbd
000000e0: 88b8 813e c5b3 05bd a072 e6bd 8da8 7abd
000000f0: b9ca 74bc e0fa 133d e9e6 fb3d 16c5 4dbc

running_var f4 [64]
0.93144196 0.8697627 0.9063658 0.8379698 0.8770702 0.87820756 0.8771562 0.8380073
0.816772 0.8221813 0.8926013 0.8595446 0.85848415 0.8521912 0.8501251 0.8286927
0.88580596 0.91878206 0.8675648 0.85572004 0.9103381 0.91593254 0.8585495 0.8344801
0.86401427 0.93290126 0.9743546 0.8691094 0.903397 0.90138024 0.8475435 0.87989634
0.8528452 0.83579063 0.8333263 0.89666885 0.8424836 0.87893116 0.89061326 0.90543437
0.8227162 0.8617695 0.8434822 0.8494379 0.8435387 0.83948606 0.8859416 0.92916083
0.8712762 0.85144055 0.8215267 0.8770243 0.86320126 0.87568516 0.8294605 0.8302067
0.8610988 0.8654761 0.83466077 0.8897544 0.8274295 0.84457964 0.84227854 0.8444903
00000000: fb72 6e3f c5a8 5e3f 9707 683f 3085 563f
00000010: ac87 603f 36d2 603f 4f8d 603f a587 563f
00000020: f817 513f 797a 523f 8581 643f 1d0b 5c3f
00000030: 9ec5 5b3f 3429 5a3f cca1 593f 3425 543f
00000040: 2ec4 623f 4d35 6b3f ba18 5e3f 7810 5b3f
00000050: eb0b 693f 8e7a 6a3f e6c9 5b3f 7da0 553f
00000060: 0a30 5d3f 9ed2 6e3f 4e6f 793f f47d 5e3f
00000070: 0745 673f dbc0 663f 9cf8 583f e340 613f
00000080: 1054 5a3f 60f6 553f df54 553f 178c 653f
00000090: 01ad 573f a201 613f 3bff 633f 8cca 673f
000000a0: 879d 523f ed9c 5c3f 73ee 573f c374 593f
000000b0: 27f2 573f 8fe8 563f 12cd 623f 7cdd 6d3f
000000c0: f50b 5f3f 02f8 593f 934f 523f aa84 603f
000000d0: c2fa 5c3f e72c 603f 8657 543f 6d88 543f
000000e0: f970 5c3f d78f 5d3f 54ac 553f f2c6 633f
000000f0: 6bd2 533f 5f36 583f 919f 573f 8430 583f
