eindcode/voicerecognition/modelDumb.pt (torch, 120779 bytes, 26 tensors)

weight f4 [32, 1, 80]
-0.07630319 -0.022112701 -0.14091706 -0.04435173 -0.026774706 -0.11112044 -0.0105004925 0.073182054
0.0028340812 0.020437159 0.0422958 -0.06791983 0.07748826 -0.015098798 -0.011248538 -0.043117773
0.019148868 0.09213841 -0.021344462 0.07544944 -0.12686339 -0.19087219 -0.075329214 -0.07929828
0.06995499 -0.035388023 0.07015518 -0.0642022 -0.08354851 0.074384354 -0.033828866 0.09120086
-0.05391496 0.14217353 0.045580663 0.12588501 0.0868524 0.09289136 -0.017415188 -0.14529632
-0.121591955 -0.150325 -0.03686915 -0.16423681 -0.027875897 -0.102893114 -0.07182769 0.0033297576
0.052836273 0.0077397707 0.03484185 0.18962611 0.09360598 0.099085994 0.022201145 0.06613767
0.11448671 -0.027787564 -0.19106086 -0.13860019 -0.119935 -0.111564785 -0.12901124 -0.14819895
-0.009409683 0.0410269 0.056390874 0.042095017 0.0545477 0.017235689 -0.11248176 -0.008901488
0.03060853 -0.025456378 -0.13872167 0.006755914 -0.11070296 0.00962916 -0.05981341 0.050514553
-0.09810343 -0.023644367 -0.06366168 -0.11628672 0.08503625 0.0712323 0.0685713 0.041013874
0.04695878 -0.020411633 -0.020246994 0.14641072 -0.011277845 -0.11661261 -0.20048189 -0.089141645
-0.061072808 -0.09330321 0.14547464 0.04764226 0.09342716 0.13836133 0.07014705 -0.05572561
-0.015145473 -0.12057121 0.058850452 -0.088586114 0.0034849788 0.044183593 0.090905294 -0.03722129
0.06794734 -0.0079558855 0.07237487 0.04737176 0.020484606 0.033855196 -0.032210276 -0.055360045
0.10614459 -0.006455238 0.1222387 -0.011165221 0.09535553 0.037250232 0.075251944 0.14169817
0.06452986 0.062403902 -0.115539104 -0.1670597 -0.055267673 0.062255412 0.0012067137 0.056989204
-0.0021525358 -0.0010033855 -0.096459895 0.05714849 -0.106222376 -0.01867803 -0.037962012 -0.06430008
-0.07599349 -0.060447395 0.061121304 -0.08784217 0.03458408 -0.06622129 0.15127061 -0.045191605
-0.011253689 0.023051396 -0.019112935 -0.1320624 -0.06275027 -0.17450166 -0.14497243 0.05137176
-0.12240709 -0.07709697 -0.005544882 -0.02706216 -0.055244464 -0.14602548 -0.13289864 0.03090313
0.20228979 0.16144858 -0.0029214597 0.013873781 0.094566934 0.080470145 -0.05548007 0.07093002
-0.13587502 -0.05737339 -0.07520272 -0.063453 -0.12523232 -0.076971866 0.0054667494 0.0660336
-0.00037090783 -0.082308546 -0.076925434 -0.092719145 -0.028370533 -0.14637671 -0.013710957 0.08559487
0.10552795 0.06781195 0.022879764 0.05952435 0.041499622 0.14251901 0.16389818 0.12607656
0.018841362 0.00912802 0.17270847 -0.0029907655 -0.004514047 0.094027765 -0.058698095 0.07989397
-0.07358119 0.02551001 0.098282725 -0.06375076 -0.052546162 0.05611289 -0.0027448745 -0.034770384
-0.03978719 0.06041443 -0.09501522 -0.01731615 0.13701658 0.063789435 -0.052466344 0.03954213
0.07921788 0.031265166 -0.056284994 0.12939556 0.0055830395 0.00048693072 0.072301544 0.06537378
-0.07930493 -0.016067477 -0.021504046 -0.15815115 -0.15742074 -0.048807453 0.012083314 0.07591114
0.0835194 0.07318595 -0.06255267 0.043903194 -0.00864959 0.023582948 -0.04052729 -0.0173054
-0.14132036 0.0073129046 -0.02424976 -0.05691939 0.009340652 0.032221004 0.11559101 0.059392344
00000000: d944 9cbd b225 b5bc 904c 10be 29aa 35bd
00000010: a156 dbbc 1d93 e3bd 420a 2cbc 79e0 953d
00000020: febb 393b d46b a73c 5c3e 2d3d 8d19 8bbd
00000030: 2ab2 9e3d f360 77bc ca4b 38bc 439c 30bd
00000040: 16de 9c3c 10b3 bc3d 95da aebc 3c85 9a3d
00000050: 7ae8 01be 0074 43be 3446 9abd 2367 a2bd
00000060: 9044 8f3d 08f3 10bd 85ad 8f3d 717c 83bd
00000070: 7b1b abbd d356 983d 2390 0abd 84c7 ba3d
00000080: efd5 5cbd f095 113e cab2 3a3d 00e8 003e
00000090: acdf b13d d33d be3d 4caa 8ebc 8fc8 14be
000000a0: 3405 f9bd ccee 19be 1b04 17bd b22d 28be
000000b0: fe5b e4bc a0b9 d2bd 651a 93bd 1038 5a3b
000000c0: d96a 583d e79d fd3b 54b6 0e3d 592d 423e
000000d0: 7eb4 bf3d 99ed ca3d 2ddf b53c 3073 873d
000000e0: 0278 ea3d bfa2 e3bc 75a5 43be 35ed 0dbe
000000f0: 7ba0 f5bd 147c e4bd 861b 04be 77c1 17be
00000100: 122b 1abc d30b 283d 1efa 663d d36b 2c3d
00000110: 696d 5f3d dc31 8d3c d65c e6bd 8cd7 11bc
00000120: bdbe fa3c e589 d0bc 0e0d 0ebe b760 dd3b
00000130: 3cb8 e2bd a0c3 1d3c e8fe 74bd 59e8 4e3d
00000140: 73ea c8bd d5b1 c1bc 0e61 82bd bb27 eebd
00000150: 7c27 ae3d 3de2 913d 1c6f 8c3d 2afe 273d
00000160: da57 403d 4c36 a7bc 06dd a5bc b1ec 153e
00000170: b6c6 38bc 98d2 eebd 204b 4dbe e58f b6bd
00000180: 7b27 7abd c115 bfbd 4ef7 143e 8824 433d
00000190: bd56 bf3d 98ae 0d3e 42a9 8f3d 8a40 64bd
000001a0: b824 78bc 0aee f6bd 2c0d 713d a36c b5bd
000001b0: 3e64 643b dbf9 343d 8e2c ba3d 5a75 18bd
000001c0: fa27 8b3d 6759 02bc 4739 943d e408 423d
000001d0: 55cf a73c bfab 0a3d ecee 03bd 37c1 62bd
000001e0: 5662 d93d 7686 d3bb 4958 fa3d 55ee 36bc
000001f0: c349 c33d b393 183d b11d 9a3d 5319 113e
00000200: 3b28 843d 3c9b 7f3d c49f ecbd b311 2bbe
00000210: 5b60 62bd 88ff 7e3d 982a 9e3a 836d 693d
00000220: 8f11 0dbb 0884 83ba c48c c5bd 8914 6a3d
00000230: 1e8b d9bd ab02 99bc 0e7e 1bbd c3af 83bd
00000240: 7aa2 9bbd b097 77bd 555a 7a3d 98e6 b3bd
00000250: 09a8 0d3d 079f 87bd afe6 1a3e d51a 39bd
00000260: 6561 38bc 48d6 bc3c bb92 9cbc 5e3b 07be
00000270: 3783 80bd 90b0 32be a773 14be 326b 523d
00000280: 92b0 fabd 04e5 9dbd d7b1 b5bb 77b1 ddbc
00000290: 0548 62bd b487 15be 9516 08be 9028 fd3c
000002a0: 0e25 4f3e c752 253e f675 3fbb db4e 633c
000002b0: 4fac c13d 88cd a43d 123f 63bd c243 913d
000002c0: d222 0bbe 5c00 6bbd e203 9abd a5f3 81bd
000002d0: e73c 00be 6da3 9dbd 6b22 b33b a03c 873d
000002e0: 6876 c2b9 6291 a8bd 158b 9dbd 89e3 bdbd
000002f0: 5269 e8bc c7e3 15be eca3 60bc 5d4c af3d
00000300: 0a1f d83d fee0 8a3d 586e bb3c cecf 733d
00000310: 82fb 293d 81f0 113e edd4 273e 371a 013e
00000320: 3359 9a3c b18d 153c 7dda 303e b800 44bb
00000330: 92ea 93bb a191 c03d 6a6d 70bd 739f a33d
00000340: bcb1 96bd 5efa d03c 7448 c93d c28f 82bd
00000350: a53a 57bd a1d6 653d 5ae3 33bb 646b 0ebd
00000360: e4f7 22bd 1f75 773d 5797 c2bd 99da 8dbc
00000370: 134e 0c3e 09a4 823d f3e6 56bd eef6 213d
00000380: fc3c a23d e70f 003d 188b 66bd 4580 043e
00000390: eef1 b63b bc4a ff39 d512 943d b0e2 853d
000003a0: a06a a2bd f19f 83bc 4129 b0bc 60f2 21be
000003b0: e732 21be 53ea 47bd 18f9 453c 4d77 9b3d
000003c0: 380c ab3d 84e2 953d 9d1b 80bd d6d3 333d
000003d0: 03b7 0dbc 0731 c13c f2ff 25bd 0ec4 8dbc
000003e0: 49b6 10be 17a1 ef3b 6fa7 c6bc 4e24 69bd
000003f0: 8909 193c 2cfa 033d fbba ec3d 6345 733d

bias f4 [32]
-0.019515507 0.019109294 -0.00816084 0.00013732382 -0.0022480688 0.0029848043 -0.0010362237 2.2855524e-05
0.004828927 -0.0023641034 0.00024399537 -0.013776496 -0.0005798986 0.0044669737 0.00027689748 -0.0054449025
-0.0023770186 0.0010140872 0.003162616 0.019360851 0.0018898548 0.01784353 0.013872412 0.00062021374
-0.0026459491 -0.019575182 0.0046400805 0.018487588 -0.007714745 -0.01486073 -0.00054756325 0.019692015
00000000: fcde 9fbc 188b 9c3c 0bb5 05bc 95fe 0f39
00000010: 5654 13bb b59c 433b e6d1 87ba ddb9 bf37
00000020: fa3b 9e3b 13ef 1abb 02d9 7f39 d0b6 61bc
00000030: 5604 18ba b15f 923b 8d2c 9139 276b b2bb
00000040: c1c7 1bbb 1feb 843a e443 4f3b a69a 9e3c
00000050: 01b5 f73a 982c 923c 1d49 633c d795 223a
00000060: a967 2dbb 225c a0bc d10b 983b 4873 973c
00000070: f9cb fcbb 6b7a 73bc 598a 0fba 2651 a13c

weight f4 [32]
0.9252007 1.0121768 0.96033716 1.0529505 0.9074609 0.957889 1.0760474 1.0071334
1.0636772 0.9304695 1.0623144 1.0594243 0.9577196 1.0745353 1.0413889 1.1051084
0.9821666 0.941498 1.0189426 0.91270506 0.94137955 0.9877564 0.99413884 0.99766356
1.0992801 0.9447652 1.0331775 1.0342895 0.8955454 1.0412025 0.91748565 0.95733416
00000000: f4d9 6c3f 028f 813f a8d8 753f 15c7 863f
00000010: 5c4f 683f 3738 753f ecbb 893f bfe9 803f
00000020: 9326 883f 4033 6e3f ebf9 873f 379b 873f
00000030: 1d2d 753f 5f8a 893f 3b4c 853f 3174 8d3f
00000040: 456f 7b3f 0306 713f b66c 823f 0aa7 693f
00000050: 40fe 703f 9add 7c3f e27f 7e3f e166 7f3f
00000060: 36b5 8c3f 22dc 713f 293f 843f 9963 843f
00000070: 7742 653f 2046 853f 57e0 6a3f da13 753f

bias f4 [32]
0.016663747 0.032713234 0.055747677 0.058164377 -0.052336045 -0.05842184 0.08946231 -0.12693423
0.06207194 -0.021833304 0.09671869 0.048172526 0.0022729337 0.062910505 0.0055569583 -0.05994433
0.010111117 -0.057330698 0.114118524 -0.029794253 -0.069996454 0.044317417 -0.036351517 0.0714833
0.078484245 -0.10445217 0.11443405 -0.056207765 -0.0443638 -0.048683893 -0.049908485 -0.02945964
00000000: 6982 883c 50fe 053d ad57 643d c53d 6e3d
00000010: 525e 56bd bd4b 6fbd 0438 b73d 0cfb 01be
00000020: 263f 7e3d c2db b2bc 7314 c63d 8e50 453d
00000030: 80f5 143b 39d7 803d 2517 b63b 3088 75bd
00000040: 19a9 253c 98d3 6abd f9b6 e93d 1413 f4bc
00000050: 4d5a 8fbd 2e86 353d 54e5 14bd d665 923d
00000060: 59bc a03d 05eb d5bd 665c ea3d 1d3a 66bd
00000070: d1b6 35bd c368 47bd d76c 4cbd 5855 f1bc

running_mean f4 [32]
-0.018952908 0.019184625 -0.008172405 0.00047140455 -0.001615991 0.0032640263 -0.0010278679 0.00031585674
0.0046719117 -0.0019578584 0.0005265541 -0.013869712 -0.0006617055 0.0042308117 0.00048223176 -0.005404555
-0.002334814 0.0009434904 0.0028257463 0.019701593 0.002444704 0.017827274 0.01364975 0.000656134
-0.0026209527 -0.019676331 0.0047328984 0.018394683 -0.0074771866 -0.014973046 -0.00053765863 0.019315949
00000000: 2143 9bbc 1329 9d3c 8de5 05bc d926 f739
00000010: a9cf d3ba 46e9 553b 86b9 86ba 9399 a539
00000020: d616 993b 6a4f 00bb 7308 0a3a ca3d 63bc
00000030: 4e76 2dba 9fa2 8a3b 0dd4 fc39 b118 b1bb
00000040: ae03 19bb 9254 773a 2830 393b 3c65 a13c
00000050: 5437 203b 810a 923c 33a3 5f3c 6800 2c3a
00000060: 4ac4 2bbb 4230 a1bc 6e16 9b3b 72b0 963c
00000070: 3003 f5bb 8251 75bc a9f1 0cba 7b3c 9e3c

running_var f4 [32]
0.011839716 0.0067325844 0.0077335536 0.009599783 0.010141812 0.008101705 0.009876159 0.0068618087
0.005968508 0.008767837 0.0054465835 0.01001302 0.008830358 0.010134992 0.0061113234 0.006579149
0.0090170065 0.009791022 0.0072561637 0.0096158795 0.0074090236 0.006127519 0.008570236 0.009554787
0.0057954523 0.0074759135 0.008040221 0.008564645 0.01091247 0.009140494 0.0074999626 0.010621719
00000000: 5efb 413c 039d dc3b c069 fd3b 6948 1d3c
00000010: d829 263c 04bd 043c 9dcf 213c 06d9 e03b
00000020: 7993 c33b f9a6 0f3c 4179 b23b a60d 243c
00000030: 35ad 103c 3d0d 263c 7f41 c83b e795 d73b
00000040: 11bc 133c 866a 203c 1dc5 ed3b ec8b 1d3c
00000050: 65c7 f23b 5bc9 c83b 2d6a 0c3c ae8b 1c3c
00000060: c7e7 bd3b 82f8 f43b 22bb 033c ba52 0c3c
00000070: 37ca 323c 03c2 153c 3fc2 f53b b806 2e3c

weight f4 [32, 32, 3]
0.07018004 -0.0408922 0.093344174 -0.0029376582 -0.14900841 -0.058575664 -0.057533756 -0.031294324
0.0686084 -0.06535476 0.016510116 -0.008159569 -0.032868594 -0.10858146 0.071258865 -0.006068608
0.012912627 0.09860081 0.056083966 0.11282369 0.03278877 -0.1063722 -0.14337786 0.13382486
0.039982196 0.12895611 -0.08704623 0.025140276 -0.0068877256 -0.16985409 0.07120579 -0.06725231
-0.13852659 -0.10622174 0.10426121 0.009918227 -0.07259495 0.034978442 0.012812776 0.09648446
0.091347896 -0.0018702972 -0.040283665 -0.043161266 -0.08290975 0.13047878 -0.01806044 -0.0038367887
-0.029105257 0.05758245 -0.06934063 0.085328735 0.1095933 -0.01943436 -0.011564542 0.12749968
0.04356976 0.05489776 -0.03504114 -0.033055574 -0.061839394 -0.17019255 0.00082601834 0.033244215
0.011020139 -0.037768517 -0.044069465 0.029437738 0.13833784 -0.001327445 -0.0656994 -0.093582004
-0.018274453 0.120403595 0.09093539 0.007830842 0.0010948176 0.042827886 -0.036677603 -0.027833702
0.11672259 -0.0741016 0.11521522 0.058107127 0.00013314081 -0.048518725 0.12978874 0.02518601
0.0795645 0.10890045 0.028270578 0.08573181 -0.14467482 0.045000207 0.014624385 0.12024067
-0.0037995577 -0.03570651 -0.07951323 0.06360979 -0.12007819 -0.106456384 -0.15132336 -0.07914154
-0.037667457 -0.060180385 -0.016954312 0.025889589 0.04482209 -0.123213015 -0.1215025 0.06675203
0.03406821 -0.11260713 -0.13267116 0.020736428 -0.026624467 -0.01643106 0.032108005 -0.12379725
-0.12646532 -0.12809072 -0.07383596 -0.0019117432 -0.045766093 -0.14703542 -0.025203047 -0.004953601
0.16864707 0.028356416 -0.060967345 0.020684147 0.0027631088 -0.05163456 0.11588164 -0.04803375
0.075407855 0.10964615 -0.06428919 -0.06546826 -0.012288724 0.0022113689 -0.077675216 -0.09718486
-0.06577507 -0.06172564 -0.055344123 -0.09470894 -0.095381364 -0.026708603 -0.065565884 -0.12864813
-0.06218146 0.04220378 -0.05890436 0.06445022 0.015061987 -0.02998142 -0.06741153 -0.0020546936
-0.11695204 -0.13980699 0.04519233 -0.088171005 -7.2214796e-05 -0.07552487 -0.015435526 -0.1626666
0.014852733 -0.079729125 -0.06470418 -0.053610686 -0.015474138 -0.045324482 -0.060465667 -0.0087456005
-0.071962535 -0.14824033 -0.15119505 -0.113399066 -0.05119812 -0.011610257 0.02300143 0.015362539
-0.12905656 -0.066194944 -0.05331043 0.00057401386 -0.045108516 0.02837269 -0.13179441 0.0016383296
0.012841086 0.01511106 0.012080554 -0.010740094 0.11902545 0.06603119 -0.099748634 0.07414237
-0.045987938 -0.16868354 -0.103054926 -0.16129576 -0.17692934 -0.03970379 0.040461417 0.029121699
0.04316449 0.02240719 0.18503971 0.1406818 0.14051881 -0.06944428 0.038567986 0.10559534
-0.043869644 0.013884562 -0.0069896234 -0.10427668 -0.04584751 0.002101159 -0.05206868 -0.0308986
-0.06592528 -0.10427811 0.11138456 -0.14435905 -0.011627553 -0.02179593 -0.10295685 0.05149099
-0.054359008 0.012481195 0.051140375 0.05769368 -0.14394368 -0.09104106 -0.12332132 -0.09218213
0.028241305 -0.009214858 0.05714722 0.03782169 0.06424019 0.09875889 -0.059470475 0.01609342
-0.0038467294 0.07365873 0.09148362 0.0009930233 -0.016075172 -0.0064407196 -0.081008166 0.025888475
00000000: 8eba 8f3d 947e 27bd 3b2b bf3d ba85 40bb
00000010: a995 18be 09ed 6fbd 84a8 6bbd 7a2e 00bd
00000020: 9082 8c3d b7d8 85bd 3940 873c b7af 05bc
00000030: 38a1 06bd f55f debd 2bf0 913d 2cdb c6bb
00000040: 7c8f 533c 39ef c93d 4db8 653d 1b10 e73d
00000050: 844d 063d abd9 d9bd a5d1 12be 6209 093e
00000060: 5fc4 233d 120d 043e 4b45 b2bd fbf2 cd3c
00000070: 6eb2 e1bb 3bee 2dbe 57d4 913d 94bb 89bd
00000080: ead9 0dbe c98a d9bd e786 d53d 0f80 223c
00000090: a9ac 94bd 8e45 0f3d adec 513c a599 c53d
000000a0: 9b14 bb3d c324 f5ba 7c00 25bd dec9 30bd
000000b0: 96cc a9bd 3b9c 053e 7df3 93bc a272 7bbb
000000c0: 266e eebc 93db 6b3d 7602 8ebd d5c0 ae3d
000000d0: 7472 e03d cf34 9fbc 3479 3dbc 478f 023e
000000e0: 3476 323d 79dc 603d 4c87 0fbd 4865 07bd
000000f0: 4e4b 7dbd f546 2ebe 2789 583a 162b 083d
00000100: d08d 343c 29b3 1abd 2f82 34bd 6927 f13c
00000110: 6fa8 0d3e aafd adba 688d 86bd eca7 bfbd
00000120: 4eb4 95bc 2996 f63d 553c ba3d ef4c 003c
00000130: fc7f 8f3a 4b6c 2f3d 413b 16bd 8103 e4bc
00000140: 410c ef3d 94c2 97bd f5f5 eb3d bd01 6e3d
00000150: b79b 0b39 92bb 46bd 57e7 043e e452 ce3c
00000160: b6f2 a23d 3307 df3d b397 e73c 2994 af3d
00000170: a325 14be 2352 383d 1e9b 6f3c be40 f63d
00000180: 0002 79bb fd40 12bd d5d7 a2bd d945 823d
00000190: 8eeb f5bd ce05 dabd 83f4 1abe f614 a2bd
000001a0: 3149 1abd b57f 76bd c5e3 8abc 6716 d43c
000001b0: 5e97 373d 1b57 fcbd 4dd6 f8bd 4ab5 883d
000001c0: 1b8b 0b3d 919e e6bd f3da 07be 71df a93c
000001d0: 8e1b dabc 6e9a 86bc af83 033d 6a89 fdbd
000001e0: 2080 01be 372a 03be 4f37 97bd 7593 faba
000001f0: 3a75 3bbd 7490 16be 9f76 cebc d151 a2bb
00000200: d1b1 2c3e b74b e83c e5b8 79bd cd71 a93c
00000210: 4615 353b c37e 53bd 5a53 ed3d 0abf 44bd
00000220: 6f6f 9a3d 298e e03d 0daa 83bd 3914 86bd
00000230: a556 49bc 9dec 103b 2f14 9fbd db08 c7bd
00000240: 14b5 86bd 06d4 7cbd 85b0 62bd c3f6 c1bd
00000250: 4e57 c3bd 00cc dabc 6847 86bd 56bc 03be
00000260: fdb1 7ebd dfdd 2c3d b345 71bd 7afe 833d
00000270: 8dc6 763c 989b f5bc 0e0f 8abd 0aa8 06bb
00000280: 8d84 efbd 9029 0fbe 981b 393d 0093 b4bd
00000290: 0672 97b8 c8ac 9abd 4ae5 7cbc 1392 26be
000002a0: e158 733c 0649 a3bd a083 84bd e196 5bbd
000002b0: 3d87 7dbc 2aa6 39bd d9aa 77bd b549 0fbc
000002c0: 1861 93bd 50cc 17be e0d2 1abe c53d e8bd
000002d0: 1fb5 51bd f338 3ebc 7f6d bc3c 29b3 7b3c
000002e0: 6727 04be 3791 87bd 0a5c 5abd 6b79 163a
000002f0: b5c3 38bd d86d e83c 1df5 06be 38bd d63a
00000300: 6b63 523c 6194 773c 84ed 453c 38f7 2fbc
00000310: 9dc3 f33d 5c3b 873d 0349 ccbd f4d7 973d
00000320: d95d 3cbd 61bb 2cbe 760e d3bd b72a 25be
00000330: f72c 35be 71a0 22bd dfba 253d a190 ee3c
00000340: 40cd 303d 498f b73c 0d7b 3d3e e40e 103e
00000350: 2ae4 0f3e cd38 8ebd 77f9 1d3d 5f42 d83d
00000360: a8b0 33bd 137c 633c 3609 e5bb 038f d5bd
00000370: 99ca 3bbd 99b3 093b f845 55bd 101f fdbc
00000380: d503 87bd c38f d5bd 971d e43d dcd2 13be
00000390: 7e81 3ebc 618d b2bc 0adb d2bd 37e8 523d
000003a0: 8da7 5ebd ed7d 4c3c 9278 513d 3550 6c3d
000003b0: f965 13be bc73 babd e38f fcbd fcc9 bcbd
000003c0: 4f5a e73c eaf9 16bc 3413 6a3d ebea 1a3d
000003d0: 5c90 833d 1a42 ca3d 5097 73bd 59d6 833c
000003e0: 6919 7cbb 63da 963d c45b bb3d 5528 823a
000003f0: 14b0 83bc ac0c d3bb 9ce7 a5bd 1114 d43c

bias f4 [32]
7.2403556e-05 -0.00072293973 0.00014937464 -0.003234287 0.00061687414 -0.0001461848 -0.00014596699 -4.4921413e-05
-0.0018332773 -0.00060494017 -0.00037616937 -0.0033428587 0.0006046142 0.00012082139 -0.0008402523 -7.0510934e-05
-0.0103627145 -0.00021553885 -0.00026537443 -0.00010165276 -0.01741415 -0.0003804796 -0.0008088568 0.0026325586
0.00014490513 -0.0029920049 -0.0058507216 -0.00025895055 0.0046330686 -0.0003030542 -0.00054719247 -0.010432814
00000000: 5dd7 9738 aa83 3dba 73a1 1c39 55f6 53bb
00000010: b9b5 213a 2f49 19b9 b70e 19b9 006a 3cb8
00000020: 944a f0ba d994 1eba 9938 c5b9 dd13 5bbb
00000030: f97e 1e3a 7d61 fd38 6144 5cba 45df 93b8
00000040: 60c8 29bc 4502 62b9 f421 8bb9 692e d5b8
00000050: 1fa8 8ebc 1c7b c7b9 7609 54ba 0187 2c3b
00000060: adf1 1739 8315 44bb 69b7 bfbb c1c3 87b9
00000070: ffd0 973b 3fe3 9eb9 7771 0fba 65ee 2abc

weight f4 [32]
1.0446693 0.99058306 1.0074639 0.9899652 1.1378837 1.0473757 1.0771075 1.1056607
1.0538365 1.0138798 1.0178543 0.94099444 1.028622 0.95051605 0.9466508 1.0580453
0.90829605 1.0094974 0.92768717 0.91199327 0.93379027 1.1032469 1.0508918 1.1836185
0.95060885 0.9995609 0.94340515 0.93871135 1.0299839 1.0315038 0.95048 0.99198407
00000000: b9b7 853f da96 7d3f 94f4 803f 5c6e 7d3f
00000010: 2ca6 913f 6810 863f a9de 893f 4a86 8d3f
00000020: 1de4 863f d0c6 813f 0d49 823f 03e5 703f
00000030: e3a9 833f 0555 733f b557 723f 076e 873f
00000040: 1786 683f 3637 813f e87c 6d3f 6478 693f
00000050: e10c 6f3f 3237 8d3f 9f83 863f d080 973f
00000060: 1a5b 733f 39e3 7f3f 0083 713f 634f 703f
00000070: 83d6 833f 5108 843f a852 733f abf2 7d3f

bias f4 [32]
0.12007664 0.10206478 0.09163896 -0.020238208 0.076473236 0.104626745 0.13092414 0.09155209
0.023387669 0.03869308 0.046316884 -0.028433805 0.093003854 0.17843448 0.01822799 -0.07692016
-0.114062704 0.091707796 -0.062016703 -0.085575 -0.0026465193 0.117712654 0.057490885 0.15753727
0.10442536 0.08129698 0.117459506 -0.014857421 0.11833646 0.018817108 0.095193826 0.09853563
00000000: beea f53d 5707 d13d 35ad bb3d 99ca a5bc
00000010: 009e 9c3d 8c46 d63d fa10 063e aa7f bb3d
00000020: 7f97 bf3c a37c 1e3d c6b6 3d3d 03ee e8bc
00000030: ce78 be3d 87b7 363e de52 953c 5188 9dbd
00000040: b599 e9bd 4cd1 bb3d 3a05 7ebd f241 afbd
00000050: 3a71 2dbb 5513 f13d 907b 6b3d 7351 213e
00000060: f7dc d53d 087f a63d 9c8e f03d 8a6c 73bc
00000070: 635a f23d 5626 9a3c fbf4 c23d 0ccd c93d

running_mean f4 [32]
0.4002681 -1.9751376 0.114647225 -0.27950072 -1.8454987 0.84715104 -0.3032114 -2.6626937
-0.8608442 -2.354707 0.82374674 -2.5441704 0.08053298 0.513748 -2.6478708 1.9166869
1.7869297 0.17948988 -1.2340673 -2.2550576 -1.0946704 -2.0641525 0.88102925 -0.9420905
1.0589436 1.5726856 0.40803182 -0.8163051 -0.65528834 -2.513899 -1.9831915 -0.21082982
00000000: f1ef cc3e 4fd1 fcbf 2acc ea3d b81a 8fbe
00000010: 4d39 ecbf e4de 583f 863e 9bbe 9369 2ac0
00000020: 4960 5cbf 85b3 16c0 11e1 523f b0d3 22c0
00000030: 7aee a43d fd84 033f b776 29c0 ff55 f53f
00000040: 1dba e43f 32cc 373e ebf5 9dbf dd52 10c0
00000050: 291e 8cbf 131b 04c0 228b 613f d82c 71bf
00000060: 778b 873f c34d c93f 8ce9 d03e 5ff9 50bf
00000070: fac0 27bf b9e3 20c0 38d9 fdbf c6e3 57be

running_var f4 [32]
0.96474314 13.524635 0.5656274 0.67736924 11.30317 3.0858734 1.5056299 23.79792
3.073032 18.669247 3.244236 20.906221 0.71784234 1.4380136 23.736044 12.837019
9.924472 0.67402893 4.8741417 17.61676 4.2258053 14.688342 3.7186584 3.0872135
5.066515 7.491629 1.3436687 2.7269907 2.4552658 22.857267 13.516521 0.98699605
00000000: 68f9 763f e864 5841 f5cc 103f 1268 2d3f
00000010: c9d9 3441 f37e 4540 7bb8 c03f 2462 be41
00000020: 8eac 4440 9e5a 9541 90a1 4f40 f13f a741
00000030: 84c4 373f d410 b83f 6be3 bd41 6e64 4d41
00000040: a3ca 1e41 298d 2c3f f8f8 9b40 20ef 8c41
00000050: cc39 8740 7303 6b41 80fe 6d40 e894 4540
00000060: e420 a240 6dbb ef40 56fd ab3f 0487 2e40
00000070: 1323 1d40 afdb b641 ac43 5841 c6ab 7c3f

weight f4 [64, 32, 3]
0.083177134 0.056183636 -0.014956599 0.0076846657 -0.013598597 -0.07536535 -0.12956342 0.013184345
-0.06203956 0.138775 -0.08981915 0.026576206 -0.044767465 -0.007326542 -0.03660896 0.105402924
-0.003081185 0.052199755 -0.06308161 -0.013487722 -0.055222645 -0.05835314 -0.055752072 -0.08982968
-0.02391333 -0.08289275 -0.044060953 0.088815704 -0.14692141 -0.048850328 0.05151949 -0.012219875
0.028067263 0.100795545 0.07014596 -0.07893197 -0.037986986 0.042158917 -0.104413025 0.027116371
0.15347534 0.06517026 -0.03328352 -0.0071521266 -0.069812424 -0.10585523 -0.05863867 -0.04182123
-0.13887879 -0.15411901 -0.11340424 0.0033517424 0.052031208 0.053248193 0.10655194 0.013344353
-0.073576815 0.029929733 -0.07826207 0.08343729 0.060841028 -0.032703996 -0.0052287057 0.16273132
-0.06370038 -0.16493562 -0.06805612 0.04757418 -0.042692933 0.11011376 -0.04283471 -0.12069921
-0.055361714 -0.020265497 0.099132575 -0.07117165 -0.08785527 -0.050044335 -0.09918164 0.1304757
-0.028705502 -0.0016445146 -0.033506174 -0.118927546 0.09391272 0.045043483 0.17258203 -0.028280118
-0.09152083 0.04561113 0.00034241975 -0.11335886 -0.18219583 -0.055696733 -0.087445326 0.024296552
-0.08404976 0.055301193 -0.092018776 0.09260125 0.03667468 -0.026917487 -0.05609957 0.013243111
-0.09971487 0.11403367 -0.055363286 -0.095310114 0.19280814 0.050607763 0.017827777 -0.14317802
-0.1436771 -0.028624652 -0.10993784 -0.021058213 0.060832974 0.13057095 0.12519379 -0.08876212
-0.017389914 -0.016067436 0.0401991 -0.087962955 0.07666527 0.097966395 -0.020085633 0.034450386
0.05631489 0.05205353 0.07430189 0.14874454 0.02652689 0.050754327 0.10875115 0.041461904
0.006923717 0.05718989 0.014937038 -0.08627219 -0.04940858 -0.07218302 -0.0051003373 -0.06398723
-0.036278937 0.11085741 -0.11815618 -0.09433671 0.023633966 -0.051512007 0.13523181 0.0008827304
0.047528774 -0.087110765 0.13528557 0.021485161 0.04620434 -0.10704634 -0.007741369 0.106705494
-0.06790298 -0.07956501 0.062362835 -0.0408824 0.032928552 0.21714254 0.11806407 0.09003493
0.050633617 -0.017802367 0.00671781 -0.05658284 -0.013807681 -0.016809357 0.006394158 -0.0009733277
-0.120942585 0.13084678 -0.12952445 0.06232426 -0.0021101623 -0.07381552 0.06176261 -0.07255674
-0.07700159 0.075661615 0.06259811 0.10182577 -0.024863569 -0.08359054 -0.13300824 0.12221869
0.05485355 0.028660912 0.10812256 0.011291415 -0.103307106 -0.05187196 -0.003812479 0.08584536
0.14215045 -0.07363328 -0.0054566907 -0.052165303 0.021262605 -0.11638304 -0.14339022 0.15192106
0.14570144 0.13970153 0.07381248 0.08541845 0.062013917 -0.1661733 -0.14967598 -0.17021184
0.016804675 0.059636705 0.08345363 -0.04894651 -0.11603051 -0.1235403 0.09000694 0.065960295
0.063893415 -0.0019372551 -0.07818826 0.094175905 0.12288924 0.052405234 -0.04444514 0.0067538284
0.012345575 0.06832553 -0.08051107 0.033461057 0.10164301 0.15085483 0.12770867 0.06534421
0.07145057 0.0047654244 0.044617344 -0.0045112143 0.035186913 -0.036948744 0.0038740966 0.09381834
0.1827184 -0.13695516 -0.08578625 -0.07629344 0.11297953 -0.055794172 0.093941085 0.00076815503
00000000: c658 aa3d d020 663d 860c 75bc a6cf fb3b
00000010: a6cc 5ebc 2659 9abd 46ac 04be 2703 583c
00000020: 321d 7ebd 091b 0e3e 1af3 b7bd 58b6 d93c
00000030: 175e 37bd 7d13 f0bb 47f3 15bd 7ddd d73d
00000040: b5ed 49bb 69cf 553d ee30 81bd 9bfb 5cbc
00000050: 2431 62bd b403 6fbd 495c 64bd a0f8 b7bd
00000060: e3e5 c3bc adc3 a9bd 4279 34bd 02e5 b53d
00000070: 9172 16be 4817 48bd 1a06 533d df35 48bc
00000080: 51ed e53c e56d ce3d afa8 8f3d 16a7 a1bd
00000090: 3e98 1bbd d4ae 2c3d 7fd6 d5bd 2723 de3c
000000a0: a428 1d3e fc77 853d 4d54 08bd 635c eabb
000000b0: d1f9 8ebd a0ca d8bd 1a2f 70bd bd4c 2bbd
000000c0: 3e36 0ebe 60d1 1dbe 7b40 e8bd e8a8 5b3b
000000d0: ad1e 553d c71a 5a3d e737 da3d 46a2 5a3c
000000e0: 71af 96bd 332f f53c dd47 a0bd 2be1 aa3d
000000f0: 7134 793d a0f4 05bd 9055 abbb 0aa3 263e
00000100: 5875 82bd e2e4 28be 0261 8bbd 25dd 423d
00000110: c9de 2ebd 5383 e13d 7373 2fbd 2631 f7bd
00000120: f7c2 62bd d403 a6bc 0506 cb3d 71c2 91bd
00000130: 77ed b3bd 4afb 4cbd be1f cbbd 6c9b 053e
00000140: cd27 ebbc c18c d7ba c53d 09bd 4990 f3bd
00000150: 5055 c03d 847f 383d 58b9 303e b5ab e7bc
00000160: 466f bbbd bcd2 3a3d cd86 b339 b128 e8bd
00000170: 8b91 3abe 4222 64bd 8916 b3bd 9009 c73c
00000180: 4822 acbd 8183 623d 5774 bcbd b9a5 bd3d
00000190: 3038 163d 1082 dcbc aac8 65bd a2f9 583c
000001a0: 4f37 ccbd 7c8a e93d 9dc4 62bd f331 c3bd
000001b0: 7f6f 453e 164a 4f3d 8f0b 923c 429d 12be
000001c0: 1720 13be 3f7e eabc 1727 e1bd 4682 acbc
000001d0: ff2b 793d 64b4 053e cd32 003e eac8 b5bd
000001e0: 4b75 8ebc db9f 83bc d0a7 243d ec25 b4bd
000001f0: ae02 9d3d 9ba2 c83d a08a a4bc d91b 0d3d
00000200: 71aa 663d 1536 553d 972b 983d 7d50 183e
00000210: ec4e d93c c5e3 4f3d ecb8 de3d f5d3 293d
00000220: 59e0 e23b f23f 6a3d 7aba 743c 79af b0bd
00000230: a760 4abd b1d4 93bd bb20 a7bb bd0b 83bd
00000240: 3999 14bd 3609 e33d defb f1bd 9b33 c1bd
00000250: 059c c13c 41fe 52bd 357a 0a3e 0967 673a
00000260: 88ad 423d 2167 b2bd 4d88 0a3e a601 b03c
00000270: c340 3d3d 1d3b dbbd 4fab fdbb 6988 da3d
00000280: b810 8bbd fbf2 a2bd 2c70 7f3d 4e74 27bd
00000290: 17e0 063d 9d5a 5e3e 93cb f13d 3c64 b83d
000002a0: 3265 4f3d 45d6 91bc 1321 dc3b 68c3 67bd
000002b0: 9d39 62bc c7b3 89bc 1686 d13b eb26 7fba
000002c0: bfb0 f7bd b3fc 053e 0fa2 04be b947 7f3d
000002d0: a64a 0abb 972c 97bd cafa 7c3d a198 94bd
000002e0: 02b3 9dbd 7af4 9a3d 7033 803d 088a d03d
000002f0: afae cbbc 8431 abbd 5033 08be cb4d fa3d
00000300: 1eae 603d 4aca ea3c 5c6f dd3d a1ff 383c
00000310: ad92 d3bd b177 54bd c9da 79bb b1cf af3d
00000320: e38f 113e 0ccd 96bd 0ace b2bb 49ab 55bd
00000330: ea2e ae3c 3b5a eebd e3d4 12be 3291 1b3e
00000340: c232 153e eb0d 0f3e ff2a 973d deef ae3d
00000350: 4e02 7e3d 5529 2abe a944 19be 034c 2ebe
00000360: f5a9 893c 9e45 743d bde9 aa3d 237c 48bd
00000370: 67a1 edbd b202 fdbd 8f55 b83d 3116 873d
00000380: 8dda 823d 7feb fdba 2b21 a0bd 4cdf c03d
00000390: 5bad fb3d dfa6 563d 1b0c 36bd 384f dd3b
000003a0: 1845 4a3c 41ee 8b3d fde2 a4bd 760e 093d
000003b0: 362a d03d b079 1a3e 10c6 023e 2fd3 853d
000003c0: ad54 923d 4727 9c3b adc0 363d cfd2 93bb
000003d0: 2720 103d 9157 17bd 8ee4 7d3b d423 c03d
000003e0: 881a 3b3e f93d 0cbe b4b0 afbd bc3f 9cbd
000003f0: d061 e73d 6e88 64bd 2f64 c03d 035e 493a

bias f4 [64]
-0.0009664554 -0.0007077372 0.00038037996 4.186374e-05 0.013065728 0.0034365966 0.0026344259 -0.017184762
0.016659977 0.0013510035 -0.004833865 0.011077684 -0.01650379 0.005357709 -0.0005187443 -0.0019366809
0.012183846 0.001706835 0.015698863 -0.014513338 -0.00018137503 -0.0055827065 -0.00037735308 -0.00022326938
-0.0029653993 0.0004966109 -0.0045803864 0.009043067 0.006955548 0.00035124822 -0.0004346935 0.00082564575
-0.01694662 -0.004673878 0.00034360136 -1.5935166e-05 -0.0004502699 0.016891185 -0.002952078 0.008427918
0.015283532 -0.0005861649 0.00012175911 0.0006728699 -0.0029954673 0.0005291219 -0.0024259028 -6.0385475e-05
0.015455294 -0.0020703727 -0.00027892363 0.006678767 -0.0029891839 -4.68073e-05 -6.266895e-05 -0.00046370723
-0.0022055109 -0.00020750974 -0.00042452474 0.00084774656 0.002827075 -0.00070931605 -0.014850477 -0.00062167307
00000000: b959 7dba 7187 39ba bc6d c739 d996 2f38
00000010: a311 563c 8638 613b 55a6 2c3b 0fc7 8cbc
00000020: 817a 883c 2814 b13a 6665 9ebb 2d7f 353c
00000030: f532 87bc b88f af3b 57fc 07ba 3ad8 fdba
00000040: c19e 473c e1b7 df3a e79a 803c 5ac9 6dbc
00000050: 7d2f 3eb9 23ef b6bb 79d7 c5b9 6b1d 6ab9
00000060: 2557 42bb fe2e 023a 1117 96bb 5f29 143c
00000070: 5eeb e33b bd27 b839 93e7 e3b9 2670 583a
00000080: a3d3 8abc 5527 99bb 6525 b439 82ac 85b7
00000090: 3412 ecb9 625f 8a3c a677 41bb 4015 0a3c
000000a0: c867 7a3c dca8 19ba ed58 ff38 8963 303a
000000b0: 9a4f 44bb c5b4 0a3a e5fb 1ebb 6946 7db8
000000c0: 3438 7d3c 17af 07bb 7f3c 92b9 8fd9 da3b
000000d0: 2fe6 43bb f552 44b8 236d 83b8 bb1d f3b9
000000e0: 558a 10bb f996 59b9 bf92 deb9 4f3b 5e3a
000000f0: 7346 393b 65f1 39ba 6a4f 73bc c6f7 22ba

weight f4 [64]
1.1380882 1.0898204 0.8978655 1.077112 0.99850184 0.96608937 1.1077659 0.8698291
0.9210743 0.92836076 1.0443121 1.0039103 0.9715538 0.907286 0.96753865 0.9558007
1.0518658 0.9764816 0.9304214 1.155211 1.0161244 0.9145284 1.0703133 0.9547709
0.95340466 0.9631142 1.0633309 0.9756456 1.0308129 0.98745257 1.0069777 1.0386076
1.2039516 1.0232532 0.93471587 1.1206089 0.9528195 0.95469177 1.0320791 1.0096933
1.0676674 0.9522031 0.92545325 1.042361 1.073352 1.0117804 1.0055289 1.0488892
1.1500942 1.0206329 1.0128745 0.9868088 0.9759119 1.0200362 0.9264332 0.93050903
1.0131207 0.94004214 0.9728342 0.9180275 0.86757964 1.0120063 0.9435097 1.1565189
00000000: e0ac 913f 3c7f 8b3f 83da 653f cede 893f
00000010: d19d 7f3f a251 773f 46cb 8d3f 1fad 5e3f
00000020: 86cb 6b3f 0da9 6d3f 05ac 853f 2280 803f
00000030: c0b7 783f e543 683f 9db0 773f 5baf 743f
00000040: 8aa3 863f b3fa 793f 1930 6e3f f4dd 933f
00000050: 5d10 823f 891e 6a3f 0700 893f de6b 743f
00000060: 5412 743f a78e 763f 3a1b 883f e9c3 793f
00000070: adf1 833f b1c9 7c3f a5e4 803f 18f1 843f
00000080: 161b 9a3f f6f9 823f 8a49 6f3f 1d70 8f3f
00000090: fbeb 733f ae66 743f 2b1b 843f a13d 813f
000000a0: 53a9 883f 95c3 733f 81ea 6c3f 166c 853f
000000b0: 9963 893f 0582 813f 2cb5 803f 0042 863f
000000c0: 4936 933f 19a4 823f dfa5 813f 809f 7c3f
000000d0: 5dd5 793f 8c90 823f ba2a 6d3f d735 6e3f
000000e0: f0ad 813f 9aa6 703f aa0b 793f da03 6b3f
000000f0: b319 5e3f 6c89 813f da89 713f d008 943f

bias f4 [64]
0.11930066 0.116856694 -0.10214957 0.115127236 0.0064286157 -0.07701652 0.15379798 -0.08936151
-0.07858621 -0.024889765 0.13432118 0.0029555282 0.0158423 -0.052047167 0.036354084 -0.0074870954
0.030938255 0.0583399 0.08355278 0.13972189 0.034430917 -0.14966324 0.071634635 -0.0038228065
0.1116269 0.018121563 0.050625086 0.04367081 0.04031848 0.05114149 0.083137915 0.1164386
0.18847543 -0.0027410025 -0.05964407 0.08825271 -0.014671453 -0.08064679 0.1363347 0.034688815
0.11360768 0.019300072 -0.053024247 0.13650759 0.03692415 0.17364536 -0.03864299 0.041368812
0.17688619 0.09599335 0.044991225 -0.106298506 -0.08284257 -0.00071973493 -0.012639435 -0.043421242
0.0038705142 -0.033288065 0.024373997 0.020829076 -0.020880299 0.01918108 -0.014239821 0.13273817
00000000: e853 f43d 9052 ef3d cb33 d1bd d4c7 eb3d
00000010: 23a7 d23b d6ba 9dbd 387d 1d3e 2b03 b7bd
00000020: cff1 a0bd 9fe5 cbbc 7e8b 093e 89b1 413b
00000030: b6c7 813c 692f 55bd 05e8 143d 4f56 f5bb
00000040: 3972 fd3c d2f5 6e3d b81d ab3d 4113 0f3e
00000050: 6f07 0d3d 5241 19be 2eb5 923d 0d88 7abb
00000060: a59c e43d ac73 943c 405c 4f3d 2ae0 323d
00000070: fe24 253d bd79 513d 3644 aa3d 5c77 ee3d
00000080: b4ff 403e 64a2 33bb 574d 74bd d6bd b43d
00000090: 8960 70bc 252a a5bd 539b 0b3e dc15 0e3d
000000a0: 25ab e83d 2f1b 9e3c f42f 59bd a5c8 0b3e
000000b0: c73d 173d 17d0 313e 1d48 1ebd 5872 293d
000000c0: a721 353e 2998 c43d b848 383d 08b3 d9bd
000000d0: 5ea9 a9bd 98ac 3cba a215 4fbc 79da 31bd
000000e0: 74a8 7d3b 1159 08bd faab c73c bda1 aa3c
000000f0: 290d abbc a421 9d3c 234e 69bc 84ec 073e

running_mean f4 [64]
-0.5397545 0.17612606 0.59970635 -1.047021 1.3022109 1.6888272 -0.90255183 1.3282835
-1.8833836 -1.1658239 -1.1269093 -0.79908967 -0.50741637 0.14609335 -1.1063317 0.5706379
-0.13048317 -0.9138256 -1.3052361 -0.20139143 -0.07269248 1.6005775 -0.15719143 -0.43689132
-1.7818017 0.039798655 -0.9435837 0.67327404 0.71804494 -0.17575607 0.09364079 0.29940712
0.7932943 -0.0693762 -0.5871732 -1.2019914 0.8595303 -0.55878323 -0.9111236 -0.0034051468
0.20689577 -1.4012738 0.58364975 -0.722117 0.3900967 -0.37063792 0.40492064 -0.46856567
0.98668325 -0.70193434 -1.0548754 0.56266105 -1.4149592 -0.075571276 -0.8613786 -2.4064488
-0.18585406 -0.7505523 -1.4863678 -0.47354925 0.29758215 0.969025 -1.3175144 0.008528496
00000000: 5a2d 0abf 645a 343e 5b86 193f c904 86bf
00000010: d9ae a63f 7d2b d83f a30d 67bf 3205 aa3f
00000020: b712 f1bf b839 95bf 903e 90bf 2491 4cbf
00000030: 0ae6 01bf 7f99 153e 479c 8dbf 5315 123f
00000040: 619d 05be 79f0 69bf fa11 a7bf 8e39 4ebe
00000050: ccdf 94bd b9df cc3f caf6 20be 38b0 dfbe
00000060: 1412 e4bf ea03 233d b48e 71bf b05b 2c3f
00000070: cbd1 373f 66f9 33be bec6 bf3d e44b 993e
00000080: 5615 4b3f 1c15 8ebd fc50 16bf dbda 99bf
00000090: 2e0a 5c3f 6b0c 0fbf 653f 69bf e228 5fbb
000000a0: 7cdc 533e f15c b3bf 126a 153f a9dc 38bf
000000b0: c1ba c73e 41c4 bdbe c251 cf3e d7e7 efbe
000000c0: 4697 7c3f f8b1 33bf 2806 87bf 8e0a 103f
000000d0: 621d b5bf 1dc5 9abd 4f83 5cbf 4203 1ac0
000000e0: 8750 3ebe 3224 40bf 4d41 bebf 0c75 f2be
000000f0: b05c 983e 0612 783f 50a4 a8bf 1bbb 0b3c

running_var f4 [64]
0.19357616 1.1127392 4.8707123 5.5657954 5.437299 2.2587192 0.6746979 2.1944852
2.8190615 0.6875581 5.4991565 2.6852114 0.5157363 0.9259903 3.9237618 5.3056293
0.83873767 0.56438506 0.587399 2.092721 0.9809962 1.2117643 1.8492309 0.4243337
2.8645668 1.4297646 0.34267375 3.6069784 0.7805329 0.3383304 0.32804278 0.7676485
1.1031771 0.6107957 1.1615717 1.2531224 5.5783987 0.34671187 6.137712 1.4314449
0.60243255 0.5545078 1.8535411 1.1424978 0.71216935 2.504988 2.8263855 2.9517534
0.9501127 2.3219826 0.49719277 2.1987977 0.39850673 0.8426679 1.020907 4.69762
3.2920568 1.5788009 3.4747357 4.5869923 1.8589712 0.89567685 5.4962068 0.27149695
00000000: d438 463e 3d6e 8e3f e0dc 9b40 ff1a b240
00000010: 5afe ad40 db8e 1040 00b9 2c3f 7272 0c40
00000020: 816b 3440 cf03 303f 17f9 af40 81da 2b40
00000030: 4b07 043f b30d 6d3f ea1e 7b40 b7c7 a940
00000040: 83b7 563f 8a7b 103f c85f 163f 24ef 0540
00000050: 9122 7b3f 181b 9b3f 99b3 ec3f 4442 d93e
00000060: 1055 3740 8702 b73f ef72 af3e bcd8 6640
00000070: 01d1 473f a439 ad3e 39f5 a73e 9d84 443f
00000080: e834 8d3f 1b5d 1c3f 62ae 943f 5166 a03f
00000090: 3e82 b240 3884 b13e 2368 c440 9639 b73f
000000a0: 0539 1a3f 39f4 0d3f d640 ed3f 5e3d 923f
000000b0: bb50 363f b951 2040 80e3 3440 87e9 3c40
000000c0: 963a 733f 5d9b 1440 0d90 fe3e 1ab9 0c40
000000d0: 1309 cc3e 15b9 573f 15ad 823f e752 9640
000000e0: 0fb1 5240 2616 ca3f 1262 5e40 a4c8 9240
000000f0: c5f2 ed3f 144b 653f ede0 af40 a601 8b3e

weight f4 [64, 64, 3]
0.026901698 0.039657477 0.042794228 -0.057322636 0.002451418 -0.016163427 0.09715173 -0.067629874
-0.054415926 -0.10049048 -0.060126603 -0.14459576 0.072613925 -0.04312029 -0.08064634 -0.0621999
-0.037665877 -0.06668686 -0.18632539 -0.10338056 -0.036030285 0.03790916 0.0097721275 0.07004492
-0.041882787 -0.03228591 -0.025870154 -0.06179864 0.079167075 0.12810421 -0.06478166 -0.16042049
-0.15704824 -0.02814695 0.04525979 0.021944612 0.057010736 0.07681498 -0.10673943 -0.019102117
0.017126918 0.005537775 -0.017693141 -0.016919559 0.02424131 0.096742086 0.046529178 -0.023607241
-0.04708083 -0.048004523 -0.029472183 -0.11273359 -0.01764306 0.09845891 0.049442112 0.11543251
0.113424644 -0.018493967 -0.15936129 -0.163445 -0.04038053 -0.09436279 0.08027011 -0.063663326
-0.07065795 -0.07879841 -0.0158751 -0.12829886 -0.077217594 -0.12297231 0.038304195 0.06901304
-0.06015458 0.07308746 0.115431845 0.047405187 0.01189976 -0.033846177 -0.046845738 0.0775356
-0.01438618 0.085414484 0.07079453 -0.015129574 -0.05713074 -0.08153982 0.059169102 0.017946124
-0.08473182 -0.08653062 -0.060789 -0.045741558 -0.030044237 -0.07284009 -0.11096069 -0.13048038
-0.05771441 -0.067272484 -0.06714095 -0.059737533 -0.07500224 -0.11390725 0.053677123 -0.15024455
0.035805125 -0.004020753 -0.09062378 -0.06342957 0.05817372 0.0739687 -0.0011912341 0.09545314
0.11407408 -0.056516677 -0.14733872 -0.031881962 -0.044131286 0.03493753 -0.09743635 -0.06816036
-0.047220115 -0.05381484 -0.025423894 0.04364407 0.1518365 0.076456785 -0.02737897 0.012604559
0.067923054 0.08398419 0.087512605 0.048856474 0.08444335 -0.053776514 -0.15131325 -0.16425705
-0.082973 -0.15869752 0.07437428 0.08573953 0.048252225 -0.12732798 0.074722335 -0.032560416
-0.094814636 -0.09633229 -0.15244475 -0.008165785 0.001368806 0.054079305 0.0041036387 0.068739764
0.09412784 0.016910678 -0.023975 0.055211388 0.20054033 0.12890403 0.13824397 -0.12575285
-0.0076097976 -0.036348168 0.07852295 -0.043756943 0.04556771 0.0022930086 -0.053752426 0.039396707
-0.054450102 -0.008974403 0.056876577 -0.013679412 -0.04586167 -0.13737682 0.05231287 -0.011500328
0.07202807 -0.01802188 -0.000492576 0.042753015 -0.036944985 0.06620748 -0.049842324 0.08390619
-0.012548691 0.025632525 -0.04264933 -0.040131312 -0.15361193 -0.030112188 -0.07703212 -0.1080711
0.025938613 -0.004058715 -0.115160726 -0.08886396 0.04261787 -0.025058033 0.074171245 0.07508662
-0.09025892 0.087064125 0.051158957 -0.053107306 0.034724254 -0.039488014 -0.04716541 0.026424112
-0.11358106 -0.1445742 0.02279933 -0.07939795 -0.018283974 0.009185699 -0.07034935 -0.012176225
-0.044834897 -0.05081741 -0.13639961 0.051340908 -0.11530064 -0.030274939 0.13793847 0.057393625
0.10796928 -0.008969648 -0.077116154 -0.06076256 0.04996187 -0.069872044 -0.05012168 0.050716937
-0.10181464 -0.035149567 -0.0028211595 0.007772499 0.13595046 0.06270361 -0.012263366 -0.06746854
0.12465789 -0.11410513 -0.09613358 -0.006418486 -0.07636631 -0.0022861941 0.0022838954 -0.039024793
0.030736746 0.13116749 0.110520236 0.038388815 0.05585245 -0.05950766 -0.063207716 -0.039199583
00000000: f360 dc3c e16f 223d 0049 2f3d 24cb 6abd
00000010: f8a7 203b 2a69 84bc 7cf7 c63d 8881 8abd
00000020: 3ce3 5ebd f4cd cdbd 5047 76bd e910 14be
00000030: 9cb6 943d e79e 30bd e929 a5bd 53c5 7ebd
00000040: 8947 1abd 1f93 88bd 15cc 3ebe 30b9 d3bd
00000050: 7e94 13bd a346 1b3d 461b 203c b673 8f3d
00000060: 498d 2bbd 3b3e 04bd a5ed d3bc 9220 7dbd
00000070: 5922 a23d c02d 033e 3fac 84bd 4545 24be
00000080: 41d1 20be 6f94 e6bc 5462 393d 30c5 b33c
00000090: 1784 693d 2c51 9d3d 349a dabd 0b7c 9cbc
000000a0: c04d 8c3c 3976 b53b 35f1 90bc e39a 8abc
000000b0: b695 c63c b720 c63d 6195 3e3d f963 c1bc
000000c0: d4d7 40bd 64a0 44bd a66f f1bc dee0 e6bd
000000d0: 2e88 90bc d3a4 c93d d083 4a3d e167 ec3d
000000e0: 2e4b e83d a980 97bc 9b2f 23be 205e 27be
000000f0: 0e66 25bd 4741 c1bd a864 a43d eb61 82bd
00000100: 1eb5 90bd 1061 a1bd 7f0c 82bc c760 03be
00000110: 4224 9ebd e8d8 fbbd dce4 1c3d b556 8d3d
00000120: a664 76bd e1ae 953d 8867 ec3d f12b 423d
00000130: 36f7 423c 4aa2 0abd 51e1 3fbd fcca 9e3d
00000140: 03b4 6bbc caed ae3d b9fc 903d 08e2 77bc
00000150: ec01 6abd 59fe a6bd 4d5b 723d c003 933c
00000160: e087 adbd f736 b1bd e3fd 78bd 805b 3bbd
00000170: 551f f6bc 2f2d 95bd 5c3f e3bd a69c 05be
00000180: f265 6cbd 28c6 89bd 3281 89bd 58af 74bd
00000190: c69a 99bd 3448 e9bd 8bdc 5b3d b5d9 19be
000001a0: 65a8 123d 85c0 83bb f698 b9bd 5de7 81bd
000001b0: 9147 6e3d e77c 973d 2f23 9cba f07c c33d
000001c0: ac9f e93d 087e 67bd f6df 16be a996 02bd
000001d0: 02c3 34bd a81a 0f3d b68c c7bd a997 8bbd
000001e0: e169 41bd f36c 5cbd c545 d0bc 20c4 323d
000001f0: 077b 1b3e 6095 9c3d dd49 e0bc 5a83 4e3c
00000200: 3e1b 8b3d e7ff ab3d cf39 b33d ba1d 483d
00000210: a3f0 ac3d c344 5cbd dcf1 1abe 0033 28be
00000220: c0ed a9bd 9a81 22be 8b51 983d 3598 af3d
00000230: 20a4 453d 4462 02be 0608 993d 125e 05bd
00000240: 2d2e c2bd dd49 c5bd 7a1a 1cbe c9c9 05bc
00000250: 8269 b33a 4382 5d3d d177 863b 6fc7 8c3d
00000260: 19c6 c03d 4388 8a3c 3867 c4bc 5625 623d
00000270: 725a 4d3e 6bff 033e d48f 0d3e 5bc5 00be
00000280: 9c5b f9bb d1e1 14bd a4d0 a03d 7b3a 33bd
00000290: 35a5 3a3d 4d46 163b 812b 5cbd 715e 213d
000002a0: 1207 5fbd 6009 13bc 6af7 683d 9d1f 60bc
000002b0: 72d9 3bbd 82ac 0cbe 0546 563d df6b 3cbc
000002c0: 7483 933d 9fa2 93bc 3720 01ba c91d 2f3d
000002d0: a053 17bd ca97 873d 7727 4cbd 02d7 ab3d
000002e0: 0699 4dbc 4dfb d13c 10b1 2ebd bb60 24bd
000002f0: 724c 1dbe d6ad f6bc 04c3 9dbd 6254 ddbd
00000300: 377d d43c f8fe 84bb 63d9 ebbd 4ffe b5bd
00000310: 1390 2e3d 8146 cdbc 18e7 973d 04c7 993d
00000320: abd9 b8bd ad4e b23d 0e8c 513d 0c87 59bd
00000330: 053b 0e3d 2fbe 21bd 8430 41bd 6177 d83c
00000340: 309d e8bd 420b 14be a9c5 ba3c 649b a2bd
00000350: 46c8 95bc 9d7f 163c 5213 90bd ca7e 47bc
00000360: cca4 37bd eb25 50bd 57ac 0bbe d84a 523d
00000370: be22 ecbd 2603 f8bc be3f 0d3e 9415 6b3d
00000380: ff1e dd3d 6ef5 12bc 13ef 9dbd 2ae2 78bd
00000390: d1a4 4c3d 1319 8fbd 644c 4dbd 90bc 4f3d
000003a0: 3284 d0bd fef8 0fbd 34e3 38bb 73b0 fe3b
000003b0: 9936 0b3e c06a 803d 49ec 48bc f22c 8abd
000003c0: a34c ff3d f3af e9bd afe1 c4bd 2a52 d2bb
000003d0: f165 9cbd f9d3 15bb 68ad 153b 76d8 1fbd
000003e0: a1cb fb3c c550 063e 6f58 e23d 973d 1d3d
000003f0: 8ac5 643d 4ebe 73bd 0c73 81bd be8f 20bd

bias f4 [64]
-0.00038110497 -0.002923026 0.00087804504 -0.00035098003 3.894281e-05 -0.0002392948 -4.2769316e-05 -0.00086728163
-0.0021906563 0.0031393361 -0.004749449 -0.0025126718 -0.00471872 -0.0030445615 -0.0035988006 -0.000106360516
-0.002998793 0.0002957128 0.00083579426 -0.0029012633 -0.0024892278 0.003638448 -0.0021741653 -0.002127701
-0.00080321316 0.00013212224 -0.00028067324 6.724519e-05 -0.0008389934 0.0017184217 -0.00018059846 6.442483e-05
-0.0006140396 9.14502e-05 0.00020882436 0.00030397053 -0.0030013095 -0.002519132 6.7059926e-05 -0.0038035605
0.001056195 -0.0020943347 -0.0026550053 -2.228922e-05 -0.002914021 -5.1203457e-05 -0.0035731765 -0.00092542183
0.00017336512 -0.0010210206 -0.0003609833 0.0009453557 6.954179e-06 -0.0040655225 -0.0027092588 -0.0045485864
-0.00036198317 0.00061292376 0.000577081 0.00041374366 0.0001244286 -0.00060390873 -0.00036914117 0.00033824568
00000000: 0bcf c7b9 3d90 3fbb 9b2c 663a be03 b8b9
00000010: 8656 2338 35eb 7ab9 3463 33b8 495a 63ba
00000020: 1d91 0fbb 52bd 4d3b 44a1 9bbb a3ab 24bb
00000030: 7e9f 9abb 4487 47bb dbd9 6bbb de0d dfb8
00000040: 6687 44bb e609 9b39 3419 5b3a 1f23 3ebb
00000050: 5022 23bb 0773 6e3b 717c 0ebb e670 0bbb
00000060: b98e 52ba 4b8a 0a39 5327 93b9 fd05 8d38
00000070: e5ef 5bba aa3c e13a 085f 3db9 d11b 8738
00000080: 80f7 20ba f4c8 bf38 ddf7 5a39 3c5e 9f39
00000090: 9eb1 44bb 0618 25bb 86a2 8c38 2845 79bb
000000a0: 0670 8a3a 1b41 09bb 99ff 2dbb bcf9 bab7
000000b0: 29f9 3ebb 4bc3 56b8 f42b 6abb 0298 72ba
000000c0: 58c9 3539 c4d3 85ba 5c42 bdb9 bfd1 773a
000000d0: f157 e936 1338 85bb d28d 31bb 4f0c 95bb
000000e0: 8fc8 bdb9 9eac 203a 4047 173a bceb d839
000000f0: 0c79 0239 a14f 1eba 4a89 c1b9 9156 b139

weight f4 [64]
1.0818342 0.93112946 0.84931034 0.86860716 0.9150462 0.8879166 0.9990953 0.95264375
0.9765276 0.9055665 0.9713574 0.9971657 0.9332868 0.96049756 0.9221096 0.90482366
0.939237 0.9302927 0.90768594 1.0565277 0.9346298 0.97801644 0.972341 0.942441
0.9064015 0.97751683 1.0241864 0.9627041 0.9389068 0.9526695 0.88211983 0.91771024
0.90389615 0.9376396 0.935815 0.93692577 0.92454207 0.92082757 1.0827423 0.9782254
0.96894026 0.92325616 0.98228943 0.91256475 0.92109925 0.9307565 0.9491786 0.9484639
0.97272897 0.91684157 0.9600101 0.8990797 0.95395935 0.98842615 0.9985744 0.910601
0.8931683 0.9220903 0.9054431 1.0010374 0.9029071 0.9158353 0.93262744 0.975992
00000000: 8b79 8a3f 805e 6e3f 676c 593f 0a5d 5e3f
00000010: 7840 6a3f 814e 633f b6c4 7f3f 76e0 733f
00000020: b6fd 793f 35d3 673f e1aa 783f 4046 7f3f
00000030: e2eb 6e3f 2be3 753f 600f 6c3f 86a2 673f
00000040: d671 703f aa27 6e3f 1b5e 683f 4d3c 873f
00000050: e643 6f3f 495f 7a3f 57eb 783f d043 713f
00000060: ee09 683f 8b3e 7a3f 8a18 833f c773 763f
00000070: 325c 703f 26e2 733f 9bd2 613f 0fef 6a3f
00000080: bd65 673f 2609 703f 9291 6f3f 5eda 6f3f
00000090: caae 6c3f 5bbb 6b3f 4d97 8a3f fb6c 7a3f
000000a0: 780c 783f 845a 6c3f 5277 7b3f d89d 693f
000000b0: 29cd 6b3f 0f46 6e3f 5efd 723f 88ce 723f
000000c0: c404 793f 21b6 6a3f 39c3 753f 162a 663f
000000d0: ae36 743f 7f09 7d3f 92a2 7f3f 261d 693f
000000e0: ada6 643f 1c0e 6c3f 1ecb 673f fe21 803f
000000f0: eb24 673f 2f74 6a3f acc0 6e3f 9dda 793f

bias f4 [64]
0.0530887 -0.07534173 -0.114098914 -0.066234045 -0.083041154 -0.083481334 0.032307196 -0.063294254
-0.06462144 -0.06961806 -0.052848414 0.034125354 -0.039145358 0.0020114249 -0.07857554 -0.061053015
-0.051156342 -0.106426895 -0.094830394 0.0075721922 -0.06575076 -0.045990825 -0.04517134 -0.085071996
-0.06773822 0.041856103 -0.056596052 -0.06959595 -0.038071185 -0.031894755 -0.06940456 -0.044672623
-0.10990651 -0.074542366 -0.052994777 -0.037654355 -0.059320286 -0.058843825 -0.026654555 0.010749952
-0.10565195 -0.02692743 -0.0069605205 -0.03632281 -0.061991468 -0.06990234 -0.062742814 0.0055194725
-0.060898878 -0.12081242 -0.054606125 -0.082158774 -0.055988412 -0.078973725 -0.012623176 -0.07234922
-0.103937306 -0.10494327 -0.096153855 -0.07164531 -0.118857205 -0.11310115 -0.069333516 -0.08880322
00000000: 8973 593d c44c 9abd b1ac e9bd b7a5 87bd
00000010: 7b11 aabd 43f8 aabd 8d54 043d 6ba0 81bd
00000020: 3f58 84bd ea93 8ebd 9477 58bd 07c7 0b3d
00000030: e256 20bd 1cd2 033b 36ec a0bd ba12 7abd
00000040: 5089 51bd 58f6 d9bd 7036 c2bd 2720 f83b
00000050: 56a8 86bd e060 3cbd 9505 39bd 3a3a aebd
00000060: 56ba 8abd 4e71 2b3d 43d1 67bd 5288 8ebd
00000070: 88f0 1bbd 13a4 02bd fa23 8ebd a4fa 36bd
00000080: aa16 e1bd aba9 98bd 0d11 59bd 743b 1abd
00000090: d4f9 72bd 3906 71bd a75a dabc 9120 303c
000000a0: 0d60 d8bd ea96 dcbc 1415 e4bb 3ac7 14bd
000000b0: c4ea 7dbd f528 8fbd 4e7f 80bd b1dc b43b
000000c0: 1a71 79bd 816c f7bd acaa 5fbd dc42 a8bd
000000d0: 1b54 65bd fabc a1bd 70d1 4ebc d42b 94bd
000000e0: 15dd d4bd 7fec d6bd 50ec c4bd c7ba 92bd
000000f0: 686b f3bd 93a1 e7bd bbfe 8dbd 76de b5bd

running_mean f4 [64]
-1.4259498 -1.5582798 1.2781358 -2.6908312 1.1601324 3.3309948 -0.5491799 -0.6296713
1.4986745 -3.3803353 2.5459342 0.40958214 -1.5027642 -1.4869262 -2.0908105 -1.9940951
-3.674773 -0.82924575 -3.1645765 -1.2238688 1.7725494 -0.9071764 -1.9739804 -0.009721952
-3.8127155 0.6093779 1.1567444 0.6808911 1.8041284 -1.942481 1.4257865 -2.7978053
-2.3821619 -0.12968265 -3.8816707 -4.1775475 -4.7305036 -1.977258 -0.012547774 1.2346973
-0.80537724 -3.2741063 -1.98035 -2.026851 -1.682715 -3.2621017 -2.854936 -2.701344
1.8354969 2.4208357 -3.1153615 -2.7001376 -3.24501 -1.0133225 0.37045512 -2.1628456
-2.71434 0.19904964 -1.691677 2.7792482 -1.2638974 -3.5323977 -2.429399 -1.8743641
00000000: 8685 b6bf b675 c7bf f499 a33f 9436 2cc0
00000010: 387f 943f 052f 5540 0e97 0cbf 2332 21bf
00000020: 91d4 bf3f 6a57 58c0 96f0 2240 c0b4 d13e
00000030: 945a c0bf 9953 bebf d7cf 05c0 823e ffbf
00000040: 7b2f 6bc0 7349 54bf 6c88 4ac0 bca7 9cbf
00000050: e6e2 e23f b63c 68bf 64ab fcbf d248 1fbc
00000060: 8803 74c0 3100 1c3f 3310 943f e14e 2e3f
00000070: aeed e63f 38a3 f8bf 2c80 b63f 3e0f 33c0
00000080: 5775 18c0 87cb 04be 4b6d 78c0 78ae 85c0
00000090: 4960 97c0 ca16 fdbf 2e95 4dbc 900a 9e3f
000000a0: 342d 4ebf f58a 51c0 1c7c fdbf edb7 01c0
000000b0: 3563 d7bf 46c6 50c0 45b7 36c0 d2e2 2cc0
000000c0: 90f1 ea3f f9ee 1a40 1562 47c0 0ecf 2cc0
000000d0: 3eae 4fc0 8db4 81bf 4bac bd3e 106c 0ac0
000000e0: bfb7 2dc0 abd3 4b3e df88 d8bf 34df 3140
000000f0: 64c7 a1bf ce12 62c0 467b 1bc0 2aeb efbf

running_var f4 [64]
2.675038 5.32394 3.225077 6.497539 1.1803479 1.9539059 2.5678935 2.0563972
2.1176853 3.3555672 2.4562883 1.682927 1.8973143 2.1170692 6.4657707 5.037145
5.1712584 0.88671166 4.163785 2.304346 6.141112 1.269106 3.1353436 1.3557357
6.4940434 2.3275986 1.378147 2.438615 1.973023 1.348722 4.4399996 5.986941
4.4288917 2.2833147 7.014524 3.9090695 6.9679785 3.9651546 1.9814005 0.50686437
1.6254952 8.196278 1.4198561 5.8712206 3.0812478 13.970109 1.8122058 2.53664
1.3354837 1.5208563 5.195555 7.8970275 2.9406378 2.1281605 2.70234 6.2720923
6.94686 2.5432808 4.4126277 1.6743637 1.718899 6.045467 6.735294 2.0387168
00000000: d333 2b40 b75d aa40 a967 4e40 d7eb cf40
00000010: a415 973f 9719 fa3f 5e58 2440 039c 0340
00000020: 2888 0740 9dc1 5640 d433 1d40 276a d73f
00000030: 32db f23f 107e 0740 98e7 ce40 4b30 a140
00000040: f37a a540 89ff 623f ba3d 8540 687a 1340
00000050: fd83 c440 1172 a23f 78a9 4840 bf88 ad3f
00000060: 34cf cf40 60f7 1440 1f67 b03f 4512 1c40
00000070: 058c fc3f eca2 ac3f 7a14 8e40 0595 bf40
00000080: 7bb9 8d40 d421 1240 fb76 e040 322e 7a40
00000090: aef9 de40 18c5 7d40 889e fd3f ddc1 013f
000000a0: 3a10 d03f f423 0341 d8bd b53f 0ae1 bb40
000000b0: 2a33 4540 9185 5f41 5cf6 e73f 4f58 2240
000000c0: 21f1 aa3f 6bab c23f fd41 a640 73b4 fc40
000000d0: 6933 3c40 c833 0840 23f3 2c40 fbb4 c840
000000e0: ad4c de40 1dc5 2240 3f34 8d40 8d51 d63f
000000f0: e204 dc3f 7774 c140 8787 d740 567a 0240
