eindcode/voicerecognition/model.pt (torch, 120779 bytes, 26 tensors)

weight f4 [32, 1, 80]
00000000: 2086 033e a270 4bbe 6021 5abe 2296 a0be
00000010: 2066 8dbe 9f4c cbbd 71cf 87bc 12de ab3d
00000020: 6c08 bf3d a924 e93d e986 163e 3d75 8d3e
00000030: 7e3d 053e ba1a 243e f5d9 013e fdf2 4ebd
00000040: e20d febd 2480 5dbd 156f 0bbe be2c 32be
00000050: a250 bdbe c312 69be 6ea6 9cbe f56c 12be
00000060: dda1 b33d 5abd 793d f801 ca3d 7060 f23d
00000070: f101 8abb b530 babc 4b77 d83c 419a 4b3e
00000080: 879a 7e3e 241e 693d 6905 6d3e eb3b 93bd
00000090: 4a5d eabd ce5d 1dbe d594 2ebd 33f5 cebd
000000a0: 786e 0bbd b273 64bd 5562 283b b7f5 1d3d
000000b0: 5076 f2bc c451 19bd bbdd 513c 4e66 03bc
000000c0: 5a41 67bd e6fe d0bd 0bc1 25be 2316 42be
000000d0: 828a 96be c0b3 b4bd 21c6 1ebc f2ad a0bd
000000e0: 13c3 853b 7573 553d 81b9 c03e 4fb3 be3e
000000f0: 5704 9b3e 51ef 9a3e 74b3 a83e 9c6e a23e
00000100: 5a1b 713d c650 4fbe d0c5 8cbe 803c 98be
00000110: 8fe2 e1be 74ce 06bf b3e4 a2be 18bc 96be
00000120: 75a3 e1bd 3f9f f43d 62f1 ef3d 4215 8a3e
00000130: d3f2 353e ff12 7d3e 31a5 a93e feae 443e
00000140: 365e ffbd 51f5 b63d e4be 483e 810c 573e
00000150: 28bb 7d3e fc0e 353e badb 1c3e 2254 e33c
00000160: a08b eabd f530 debd 4950 76be e642 55be
00000170: deb5 82be 165b 47be d50d 93be a042 7ebe
00000180: 1147 633d b44f 973e 0999 a63e e890 a03e
00000190: 8f30 e93e 2641 d43e 2c1b 9a3e 3216 463e
000001a0: 79ed 263c 9c5c 9bbc 9329 69be 002f 04bf
000001b0: fd49 e5be cd2a 05bf a2d3 a5be 4bd6 b8be
000001c0: 4f50 dabd 9817 a93d a024 c83e 6f9c d93e
000001d0: 978b ba3e 9228 c93e 7182 6f3e e4d0 ae3e
000001e0: 792b cb3c 4a87 b1bd 2710 25be 6b14 10be
000001f0: b8d7 b7be 0ade e1be 278c fdbe d3ed 7ebe
00000200: b8f5 46be 4652 70bd cb38 093e 7b91 873e
00000210: 6154 bb3e 924a 483e 0efd e33d 51ff a03e
00000220: 3112 4d3e 1057 7c3d cc20 a5bd 11db adbd
00000230: dd47 433d 63f8 7dbe d0a1 d6bd 4e24 71be
00000240: b0bc 09be 1bd0 4dbe 0cc1 efbd 89f3 4c3d
00000250: 76b9 023e 52a6 ba3d 053c 863e 48dd 3c3e
00000260: bc68 9a3d 637a 99bc c8af 853c 49b0 e63d
00000270: 171a f2bd d485 243d 59f0 45bd 34ed 81be
00000280: 1904 213f 97c7 493e 282f 203f 4c8d 1f3e
00000290: 7b0a a73e 9f29 4dbe 2716 87bd 6cdd fc3d
000002a0: 146d 153e b7c9 4f3e 5711 563e 4c31 07be
000002b0: 3379 0fbe 33c8 66bb b371 1b3e 64d9 7d3d
000002c0: 2d50 813e 6950 2b3e 85f4 843d a935 a43c
000002d0: 172f 0f3d 69d0 6ebd 4823 a23d 8297 383e
000002e0: 31fd 743e 44ea 7d3e f5f5 113d 52b9 543d
000002f0: fb26 0cbc 0fa8 923d 1430 be3c 1247 c13e
00000300: 71ab 083e 5654 773e 1819 483d e487 c23b
00000310: 624f 6dbd 2384 a23d 26d2 d83d 0b06 e93c
00000320: 5981 f03b 7416 3c3d 769e 9a3d c37a cc3d
00000330: 222d c6be 18f4 c9bd a9af 21be 3efc b83e
00000340: 5e5f de3e 7843 d63e edae 083e bdc9 023d
00000350: c939 233e 2959 c53d b811 abbd acea 603e
00000360: 28fd 283c 32f8 393d fa31 073e a23a 95bd
00000370: fc81 9d3d ae84 3cbe 2f94 8a3e 0706 bd3d
00000380: 7573 983e b2c5 83bc d9c5 303e 8a45 3f3d
00000390: 7d06 153d 3662 9ebb 415f 943e dc10 843d
000003a0: fff7 c73d 7eb4 833d e06f d73b 0f76 8abe
000003b0: 9399 03be 5c88 e8bd b93c 60bd beea 023e
000003c0: 3653 753c 0473 0d3e 9410 e43d d572 9c3d
000003d0: 8a0b 9c3d 1d14 4e3e 3885 3d3d 7776 8abd
000003e0: 31d0 1ebe 5dbe 70be 816a febe f96f 43be
000003f0: 6516 3fbe ad45 54bd 826b a7bc 477a 093e
0.12844133 -0.19867185 -0.21301794 -0.31364542 -0.27616978 -0.09926724 -0.016578408 0.08391966
0.09327778 0.113839455 0.14699902 0.27628508 0.13011739 0.1602582 0.126808 -0.0505247
-0.12404992 -0.054077283 -0.13616593 -0.1739988 -0.3697558 -0.22761063 -0.30595726 -0.14299376
0.08771107 0.060971595 0.09863657 0.118348 -0.004211657 -0.022728303 0.02642407 0.19883062
0.24863635 0.05691351 0.23146595 -0.07189163 -0.11443575 -0.15367815 -0.042622406 -0.10105362
-0.034040898 -0.0557744 0.0025693376 0.03856441 -0.029597431 -0.037431493 0.012809212 -0.008019997
-0.05645881 -0.10204868 -0.16186921 -0.18953757 -0.29402548 -0.08823347 -0.009690792 -0.078456774
0.0040820925 0.05211206 0.37641528 0.37246177 0.3027675 0.3026071 0.32949412 0.31725013
0.058863975 -0.20245656 -0.2749467 -0.29733658 -0.44118163 -0.5265877 -0.3181511 -0.2944038
-0.11017505 0.11944436 0.11715962 0.26969343 0.17768411 0.24714278 0.33133844 0.19207379
-0.12469141 0.08933509 0.19604069 0.21000864 0.24778426 0.17681497 0.15318194 0.027750079
-0.114524126 -0.108491816 -0.24054064 -0.20826301 -0.2552938 -0.1946834 -0.2872149 -0.24830103
0.055487696 0.29552996 0.32538632 0.31360555 0.4554486 0.41455954 0.30098855 0.19344404
0.010188454 -0.018965058 -0.22769766 -0.51634216 -0.4478301 -0.52018434 -0.32388026 -0.36100993
-0.10659849 0.08256453 0.39090443 0.42502162 0.36434624 0.39288765 0.23389603 0.34143746
0.024801003 -0.086683825 -0.16119443 -0.14070289 -0.35906768 -0.44114715 -0.4952099 -0.2489541
-0.19429672 -0.058672212 0.13400571 0.2647818 0.36587813 0.19559696 0.11132251 0.3144479
0.2002647 0.061606467 -0.08062896 -0.08489049 0.047675956 -0.24801783 -0.10480082 -0.23549005
-0.13450885 -0.20098917 -0.11706743 0.05003694 0.1276606 0.09113754 0.26217666 0.18443787
0.07539508 -0.018735116 0.01631917 0.112640925 -0.118213825 0.04016669 -0.048324917 -0.25376284
0.6289688 0.19705044 0.62571955 0.15581244 0.32625183 -0.20035408 -0.06596022 0.1234692
0.14592391 0.20291792 0.20905052 -0.13202399 -0.14011078 -0.0035214543 0.15180092 0.061974898
0.25256482 0.16729893 0.06491951 0.020045118 0.034957018 -0.058304224 0.079168856 0.18026546
0.2392471 0.24796396 0.035634954 0.051934548 -0.008554216 0.07160961 0.023216285 0.37749535
0.1334665 0.24153265 0.048852056 0.0059366096 -0.057937033 0.07935359 0.10586958 0.028445264
0.007339638 0.04591985 0.07549755 0.099843524 -0.3870631 -0.0986101 -0.15789665 0.36129946
0.43432134 0.4184835 0.13347979 0.031930674 0.15940012 0.096361466 -0.08352989 0.2196452
0.010314263 0.045402713 0.13202658 -0.07286574 0.07690808 -0.18409988 0.2706618 0.09229665
0.29775587 -0.01608548 0.17262973 0.046697177 0.03638314 -0.004833485 0.28978923 0.06448528
0.097640984 0.064309105 0.006574616 -0.27043197 -0.12851553 -0.113541335 -0.05474541 0.1278486
0.014973452 0.13813406 0.111359745 0.0763909 0.076193884 0.2012486 0.046269625 -0.067608766
-0.15509106 -0.23510118 -0.4969063 -0.19085683 -0.18660887 -0.05182426 -0.020437006 0.13425551

bias f4 [32]
00000000: 13f1 f8b9 91c0 0ab9 265f 1bba 19ca 103a
00000010: e940 b3b7 ff9a 0bbb c9c3 30ba 8a2d 6aba
00000020: f3b2 4eba 063b ea39 01fd 8239 fcbf 74ba
00000030: 3f95 0ab9 08bf f139 b659 51ba 71b7 82ba
00000040: efee 2e3a 5167 89b9 a101 39ba 1d55 3b3a
00000050: 01a1 98bb 2c74 a2ba f298 293a bb39 1eba
00000060: 4ed1 023a e012 53ba 733b 1bb9 2225 5cba
00000070: 2c5b aeb8 98c4 003a 7f6e ac39 d6f0 adb9
-0.0004748186 -0.00013232442 -0.0005926959 0.0005523279 -2.1368689e-05 -0.0021302102 -0.00067430414 -0.00089331775
-0.0007884942 0.00044675934 0.00024984035 -0.0009336469 -0.00013216304 0.0004610943 -0.0007986085 -0.0009972883
0.0006673177 -0.00026207653 -0.00070574327 0.0007146167 -0.004657865 -0.0012394241 0.0006469629 -0.0006035824
0.0004990295 -0.0008051824 -0.00014804098 -0.0008397867 -8.313949e-05 0.0004912107 0.00032888722 -0.00033176568

weight f4 [32]
00000000: 464b d43e c0e5 713f f9e2 703e 119b 8d3f
00000010: 9b61 7c3f c90e 973f 63eb 233f c57c 773e
00000020: f187 683f 0c20 703f be2a 1f3f c86a a63f
00000030: 52a8 633f c457 293f 2252 753f 1c65 d53f
00000040: 0908 283f f708 243f bd98 ea3e a74c ff3e
00000050: 7395 b53f b7d1 8b3f 7673 143f 4b3a 2c3f
00000060: e110 4d3f 7289 703e fb08 c83e 1b32 2e3f
00000070: 911a 353f 90e9 4c3f afaa 883f 9b8a 683f
0.4146368 0.94491196 0.23524083 1.1062948 0.98586434 1.1801387 0.64031047 0.2416869
0.9083243 0.937989 0.62174594 1.3001337 0.8892871 0.66149545 0.9582845 1.6671481
0.6563726 0.6407618 0.45819655 0.4986317 1.4186233 1.0923375 0.5798868 0.6727645
0.8010388 0.23489931 0.39069352 0.68045205 0.7074366 0.8004389 1.0677088 0.90836495

bias f4 [32]
00000000: bd50 b53b ffaa ca3c 6874 8c3c b40b e1bb
00000010: cedf 58bc 790c a33c 8ab5 0a3c c1b6 c03d
00000020: 8f1f 0e3d 7f5a 3d3d cede 5fbc 9976 88ba
00000030: 4c44 efbb 8c1a 823d 1d4f f0bc fc5b 213d
00000040: f0b6 d13d d16e 11bf ff36 09bd 1a20 663d
00000050: 33be 303d fe72 b4bc 05f7 533d 1c82 29bc
00000060: c489 313c ba9d e8ba 8147 023e 1888 0a3e
00000070: e7b6 173d ac26 653c a2a8 fe3d c351 d73d
0.0055333064 0.02473974 0.01714535 -0.00686785 -0.013236953 0.019903408 0.008466134 0.094098575
0.034698065 0.046228882 -0.013663961 -0.0010411321 -0.007301843 0.0635272 -0.0293346 0.039394364
0.10239971 -0.5680972 -0.033499714 0.05618296 0.043150138 -0.022027489 0.051749248 -0.010345962
0.010836069 -0.0017747201 0.12722589 0.13528478 0.037039664 0.013986271 0.12434508 0.10513642

running_mean f4 [32]
00000000: 79c2 deb9 105a 87b9 0769 92ba 319f 0f3a
00000010: a005 c4b7 e2c4 6cbb 6607 23ba 33e7 3fba
00000020: e26f 34ba f529 003a b76c 9b38 e5f0 13ba
00000030: 69fa b8b9 6fa8 0239 0b02 0eba 43a6 49ba
00000040: 9042 f739 b2c8 8cb9 61fe 30ba 9b6b 333a
00000050: 2924 86bb 7fab 84ba 2966 283a 97fa 35ba
00000060: 41b5 123a 3743 de38 40f2 a538 abe7 29ba
00000070: 4486 2eb7 b963 dd39 01fc 0139 2273 c7b9
-0.00042488033 -0.00025816308 -0.0011170217 0.00054787385 -2.336764e-05 -0.0036128093 -0.0006219059 -0.0007320523
-0.0006883127 0.00048890646 7.411226e-05 -0.0005643501 -0.00035281785 0.00012460513 -0.00054171745 -0.00076923164
0.00047161104 -0.0002685241 -0.00067517726 0.00068443426 -0.004093666 -0.0010121911 0.00064239145 -0.0006941943
0.0005596467 0.00010598305 7.912936e-05 -0.00064813596 -1.0402469e-05 0.00042226704 0.00012396277 -0.00038042018

running_var f4 [32]
00000000: 3aa8 b03d 89b1 1b3e c266 0c3d 331f 533e
00000010: beb5 383e 399b 013b 1b0d c93d 0704 653d
00000020: 5c50 cf3d bc48 c43d 49ae f93d 5ca5 253d
00000030: 0e61 223e 67dd de3d b77a 4c3d 59b1 d83c
00000040: c560 e73d f528 923d cf6b 973d 7599 b73d
00000050: 9063 1c3c a31b 863d 7cde c33d f5fe 133e
00000060: 25c0 143e 0e58 093d 7ef2 493d f57e d43d
00000070: 1a05 f63b 8871 0f3e de70 2d3e 65d0 063e
0.08625837 0.15204443 0.034277685 0.2061737 0.18038079 0.0019776358 0.09816953 0.055912044
0.10122749 0.095841855 0.121914454 0.040440902 0.15857336 0.10882073 0.049921717 0.026451753
0.11297754 0.07136718 0.0739361 0.089648165 0.009545222 0.0654824 0.0956392 0.14452727
0.14526422 0.03353124 0.049303524 0.10375778 0.0075079324 0.14008152 0.16937587 0.13165434

weight f4 [32, 32, 3]
00000000: 10d3 cb3c 26b6 083d 87d0 bb3d 0d6a 42be
00000010: ae78 e03c 7333 833c 874e 30be dc60 febd
00000020: 9d42 d0bd 11b1 263d 2b1d 983d c95e e13c
00000030: 523a ea3d c5ec 84bc ad1f 9f3e 5b08 1abf
00000040: 4fbc 0dbf 8b01 16bf 558b d23c af76 063d
00000050: aff4 23be d029 363e 9b09 60bd 8901 4abc
00000060: 3d5a 873c 6931 d9bd aff7 9cbd b041 18be
00000070: 8ff7 cdbd d865 c6bd 8982 bebd 6dbe 14bd
00000080: 22da 063e 0e9e e13c 7bdb 42be fa8a b33b
00000090: 0996 d2bd c593 083d 3b30 14bc 799f 3e3d
000000a0: 07c5 5ebd d1b5 d3bc 5517 a8be 1275 92be
000000b0: 78e6 9dbe a6be a63f 27b5 6a3e 94d5 a73f
000000c0: a107 193d 9d4d b53d 38b0 a23d f610 47be
000000d0: f6c0 6abe 2c8f febd 11f0 32be d447 fe3d
000000e0: ecea 79bd 5299 843e 8289 0f3e 5827 4f3c
000000f0: 61be 1e3e 2a9e 093f 2068 043f 1852 e0bd
00000100: 1415 31be 1f3b 14bf 1e9e 72bd 5d8c e73d
00000110: 231e 6cbd 46b5 bebc 99b1 babd ff5b 87bd
00000120: de11 3f3d 2ce2 b1bd fc19 5abd 6f39 65be
00000130: 56ee 23be 620e 89be 08b6 29bd 37b8 2abb
00000140: d11f df3c 6c56 873d aa47 aebd efd3 cb3d
00000150: dd55 62be cc8e 37be 30bb 46bd 0ebb 313e
00000160: f1d1 823d 4952 b1bd 93fd 1b3c abbd 853d
00000170: e078 403d 6a5e 1abd d506 13bd 8b68 20be
00000180: b7f0 eabb d7d8 21be eb1a f03d fa00 f238
00000190: 996c 9fbd e82f aebd f540 913d cb40 84be
000001a0: 0d1f 5a3e 39a2 183e 2c65 b4bd 241a b9bb
000001b0: ef06 f13d 3726 493c db9d 1ebe e05f a0bf
000001c0: 4287 12bf 8c1a 9d3e 513e 7cbd 4815 c2be
000001d0: b516 96bd 588c 513c 68a0 75bd 1d84 8cbe
000001e0: a3d3 1a3d f3ed 093d 5dd9 9c3e 082d 1f3b
000001f0: b138 0e3c 663e a53b 846f 093e eb26 57be
00000200: 6d8a 3a3e 30e5 38be 9c08 39be 0417 043e
00000210: 57f4 b23d 9735 94be 0ecb 313c 0a55 8a3e
00000220: d40f 3c3e 9706 8bbe 5684 f0bd a195 0dbc
00000230: b699 5e3e c6a9 e4be 2311 ccbd 3b0d 043e
00000240: ff7a 0bbd 9f95 d8be 90e3 c3be f70e cd3e
00000250: 7e21 cf3d 9ae0 b5be 6a8c c3bd d250 acbb
00000260: 1b7d 6cbe 27cc 80bd b3b0 cdbe 41d8 7ebe
00000270: e0f6 3bbf 1c7f 9abe 312a 993e 638c 53be
00000280: eee0 18be f5e3 443e 944b 67be cced 6ebe
00000290: 56f1 c4bd dadd 75bd 6b26 d8bd 5db0 953d
000002a0: 3c3b 50be 1c4e edbd 945a 67bd b865 023e
000002b0: e78d 1d3e 4790 3dbc c7dc df3d f25b c2bd
000002c0: 199a f53d 6158 ca3d a730 51be 6948 36bd
000002d0: 28eb d7be 15eb cfbd 234d 763e 084e cfbd
000002e0: 89ab 91bb f6ee 233e 04ea d43d e1c5 93be
000002f0: 07ed e73d b4e7 37be 53ca 83be ad0c 403e
00000300: b8d3 033e fecf 9d3d 9c1d 79bd 4b52 1dbd
00000310: 55b9 823e 3028 243d 7fe1 08bd 67a6 223e
00000320: c03b 983d 860b aa3d 1f54 173e 6a81 a63d
00000330: e0df a13e c5b1 783e 5b6d 0c3d 3c4b 2d3e
00000340: 1c81 aa3e 6162 8a3e 4b8a a53e 2275 ef3c
00000350: 6aeb c13e 82e8 e73c 8e7c 05be a9cf a03d
00000360: 2f2f 073e 943b 023e a2e3 813c b15c 613e
00000370: 7e0a 29bd f3e6 bc3d 3992 38bd aee3 063d
00000380: b948 dd3b dcd8 aabc df1e 13be 356c 62be
00000390: 85fa 913e d30d 573d 8aed 633d 88d7 323f
000003a0: f6e8 0a3f 0692 b03e 7140 e4bd ef55 eabe
000003b0: 1dfe 9abd a0b2 6c3d 1a55 273e d506 cfbd
000003c0: 8e9c 713e e62b e53d e046 363e a36a 29be
000003d0: f446 15be a6c6 7b3c dc04 96bc 8b7b fcbd
000003e0: 647a 0b3c e883 d93d 0b7b c33d ffac 17be
000003f0: ec0f 503e af43 f8bd 391e 803e bfbe 403d
0.024880916 0.033376835 0.09170633 -0.18985768 0.027401295 0.016015744 -0.17217456 -0.12420818
-0.101689555 0.040696207 0.07427438 0.027511017 0.11436905 -0.016226182 0.31078854 -0.60169
-0.5536546 -0.58596104 0.025701204 0.03282803 -0.16011308 0.17789388 -0.05469666 -0.012329468
0.016522521 -0.10605127 -0.076644294 -0.14868808 -0.10056984 -0.09687394 -0.09302241 -0.036314417
0.13169149 0.027541187 -0.19029038 0.005479214 -0.10282523 0.03334405 -0.009044702 0.046538804
-0.05438712 -0.025843533 -0.328303 -0.28604943 -0.30839896 1.3026931 0.22920667 1.3112054
0.03736079 0.08852694 0.07943767 -0.19440064 -0.22925171 -0.124296516 -0.1747439 0.12416044
-0.061015055 0.25898224 0.14017299 0.012643658 0.15502311 0.53756964 0.5172138 -0.10953158
-0.17293197 -0.5790271 -0.059232824 0.11306069 -0.057645928 -0.023279797 -0.09115905 -0.06609344
0.0466479 -0.08685717 -0.053247437 -0.2238519 -0.16008887 -0.26768786 -0.041433364 -0.0026049742
0.027236851 0.066082805 -0.085097626 0.099525325 -0.22103067 -0.17925566 -0.04851836 0.17356512
0.063876994 -0.08658273 0.009520906 0.06530317 0.046990275 -0.037687697 -0.035895187 -0.1566488
-0.0071698087 -0.15805374 0.11723884 0.00011539641 -0.07784385 -0.08505231 0.07092468 -0.25830683
0.21300907 0.14905633 -0.088083595 -0.005648868 0.117689006 0.012277178 -0.15489905 -1.2529259
-0.5723764 0.30684316 -0.061582867 -0.3790686 -0.0732855 0.012789808 -0.05996743 -0.27444544
0.03779949 0.03367419 0.30634585 0.0024288315 0.0086805085 0.005042839 0.13421446 -0.2101094
0.18216868 -0.18056178 -0.1806969 0.12899405 0.087380104 -0.28947136 0.010851635 0.27018005
0.18365413 -0.27153465 -0.11743991 -0.008641631 0.21738324 -0.44660777 -0.09964206 0.12895672
-0.034052845 -0.42301652 -0.38259554 0.4005048 0.1011381 -0.3552292 -0.09548266 -0.005258658
-0.23094599 -0.06288939 -0.40173873 -0.24887182 -0.73423576 -0.30175102 0.29915002 -0.20659022
-0.14929554 0.19227584 -0.22587425 -0.233329 -0.09616344 -0.060026027 -0.10554203 0.07309029
-0.20335096 -0.11587164 -0.056482866 0.12734115 0.15386163 -0.011570043 0.10930782 -0.094901934
0.119922824 0.09880138 -0.20428716 -0.04450265 -0.42171597 -0.1015226 0.24052863 -0.10122305
-0.0044454974 0.16009125 0.103961974 -0.28861907 0.11324506 -0.17959481 -0.257403 0.18754835
0.12873733 0.07705687 -0.060819253 -0.03840856 0.25532022 0.04007739 -0.033418175 0.1588379
0.074332714 0.08302979 0.14778183 0.081301525 0.31616116 0.24286564 0.034283977 0.16923231
0.33301628 0.27028182 0.32332072 0.029230658 0.3787492 0.02830911 -0.13035795 0.07852108
0.13201593 0.1271804 0.015855614 0.22008015 -0.04126977 0.092237376 -0.045061324 0.032931976
0.006753054 -0.02085536 -0.14367245 -0.2211159 0.28511444 0.05250342 0.055646457 0.69860125
0.5426172 0.34486407 -0.11145104 -0.45768687 -0.075679995 0.057787538 0.16341057 -0.10108725
0.23594877 0.111900136 0.17800474 -0.16544585 -0.14577848 0.015367186 -0.018312864 -0.123282515
0.008513067 0.10620862 0.09544953 -0.14812087 0.20318574 -0.121222846 0.25023058 0.04705691

bias f4 [32]
00000000: 179b d4b7 0093 8fb9 7fb2 9739 95ee db38
00000010: c849 3b38 fa60 bc38 6ac0 9cb8 62d4 99b7
00000020: 7872 eeb8 038a 9539 7dd2 deb8 af78 7f39
00000030: e8a8 0eba c6a5 42b9 5f20 27b9 c4bf 5e39
00000040: 94bd f1b7 94f7 acb9 36c4 2837 34c9 7a38
00000050: 0ce0 28b7 04ff 6436 1cc4 ae38 00b4 a7b9
00000060: 73ab 6ab9 10cf deb8 6262 6cb9 7cf3 15b9
00000070: b696 8539 2c8c f237 f8d8 61b9 4403 f8b6
-2.5344589e-05 -0.0002738461 0.00028933954 0.00010487173 4.465299e-05 8.982602e-05 -7.4744996e-05 -1.833792e-05
-0.00011370046 0.0002852232 -0.000106249914 0.00024363653 -0.0005442039 -0.00018563037 -0.0001593842 0.00021243008
-2.8817718e-05 -0.00032990857 1.0059264e-05 5.979203e-05 -1.0065745e-05 3.4123086e-06 8.333495e-05 -0.00031986833
-0.00022379849 -0.00010624353 -0.00022543364 -0.00014300452 0.00025480025 2.891392e-05 -0.000215385 -7.391356e-06

weight f4 [32]
00000000: 40d0 f33e 295f c43f 7b47 c33e 1a1f a83f
00000010: 0472 863f 4356 d93e a1ba 003f 1317 ed3f
00000020: f8ef 0b3f 8bf9 d43f 2305 123f 5387 0340
00000030: 8702 ad3f 2921 b63f bd34 f93f 324c e23e
00000040: be82 683f 1d30 d83e 6128 913f ccda 0440
00000050: 3dd6 383f 5537 4e3f ef58 103f 1233 da3f
00000060: 3464 583f 1d98 483f c33c a03f de01 a83e
00000070: 333e eb3e dc85 b33e 1fb9 d33e d221 fa3f
0.4761982 1.534154 0.38140473 1.3134491 1.0503545 0.42448625 0.50284773 1.8522667
0.5466304 1.6638654 0.5703909 2.0551345 1.3516396 1.422887 1.946922 0.44198757
0.90824497 0.42224208 1.1340448 2.0758543 0.722019 0.8055318 0.563857 1.7046835
0.845279 0.78357106 1.2518543 0.32813925 0.45945892 0.35063064 0.41352174 1.9541571

bias f4 [32]
00000000: 4d8d 303e 992c 15bf 2e27 003e 1064 e63c
00000010: c865 273f a8ce 393e 1cd6 123f 7e4f a8be
00000020: 89bd c03d 0373 16bf 50a5 493e dcf9 adbe
00000030: 74fb c2bd 2e2b 09be 992e 14bf 6ce4 793e
00000040: f0a7 bcbd 2836 343e 8475 b8be 8201 b1be
00000050: 00c0 4f3e 372a 613c fd10 c73e 725e dbbe
00000060: 88a7 763c 882d 7cbc 9182 c7bd 4691 8c3d
00000070: f5d3 8c3e 8cb5 f93d 885c 8d3e b973 54be
0.17241402 -0.58271176 0.12514946 0.028123885 0.6538968 0.1814524 0.57357955 -0.32873148
0.09411151 -0.58769244 0.19691968 -0.3397969 -0.09520617 -0.13395378 -0.578836 0.24403542
-0.09211719 0.17598784 -0.36027157 -0.34571463 0.20288086 0.013742975 0.3888015 -0.42845494
0.015054591 -0.015391715 -0.097417004 0.06863646 0.2750546 0.121928304 0.27609658 -0.2074727

running_mean f4 [32]
00000000: f6f8 3e3f ef01 2fc0 c6ac 5a40 af48 fabf
00000010: a4c3 25c0 21b2 d63f 9ffa bb3e 84f2 50c0
00000020: aaa4 c9bd ed27 6cc0 e1e2 8fbe 174a 68c0
00000030: 4831 0fc0 4f5e 71c0 1fb6 50c0 777f 523f
00000040: 9e1a ebbf 6afb a2bf aad7 bdbf 0bcf 34c0
00000050: 710b 1bbf 2d0e f1bf d06f 6c3d 1211 2ac0
00000060: 11d7 43bf 4ac8 8dbf 9722 fabf f797 1d3f
00000070: a523 d33f 6465 cf3e 9b4a d5be bb0b 29c0
0.74598634 -2.734493 3.4167953 -1.9553431 -2.590066 1.6773111 0.36714646 -3.264802
-0.0984586 -3.6899369 -0.28102782 -3.629522 -2.237383 -3.7713811 -3.2611158 0.82225746
-1.8367498 -1.2732975 -1.483144 -2.825137 -0.60564333 -1.8832451 0.05772382 -2.657292
-0.7650004 -1.1076748 -1.9541806 0.61560005 1.6495253 0.40507042 -0.41658482 -2.641341

running_var f4 [32]
00000000: c6af c041 6b90 e441 9ee0 fc41 0faa 2942
00000010: a9b5 2742 c219 8941 a02d 8641 4fe6 a242
00000020: 6412 4f41 c0bc 1242 9b7e 6c41 41d9 8742
00000030: 6a83 6842 a7fb 4242 51e5 9642 f270 5641
00000040: 8d9d 5e41 aa92 7641 d44d 2c41 ef0d 5c42
00000050: 8e15 d241 e09a de41 b39b 8441 fa52 4f42
00000060: 49fc ec40 19a5 b641 6747 6442 13a4 0c41
00000070: e47b 8641 4804 0c41 a750 5841 9282 b842
24.085827 28.570517 31.609676 42.416073 41.927402 17.137577 16.772278 81.44982
12.94199 36.684326 14.78091 67.924324 58.128334 48.745754 75.44788 13.402575
13.913465 15.410807 10.769001 55.013607 26.260525 27.825623 16.576025 51.83103
7.4057965 22.830614 57.06973 8.790057 16.810493 8.751045 13.5196905 92.25502

weight f4 [64, 32, 3]
00000000: 4161 edbd c586 0f3e bbb2 683d 5b31 ee3d
00000010: 3dd2 5cbc fffc 1cbd b50e 82bc beeb bdbb
00000020: 2d0a 043e e841 073f 80d2 32be c510 23bf
00000030: 45c5 2f3e ff75 083e 5871 b5be 3c99 a9be
00000040: 02e4 bd3e 618c a53d 909a 033f a856 923d
00000050: 67d0 f5be 95dc fb3e 4ac0 78bb 7055 0fbf
00000060: c9cd 21be 923d da3d 2477 57be 6267 e1bd
00000070: c792 e03d dd9f 283e d607 a4be a99b c1be
00000080: 7241 13bf 5056 153e 9db0 4a3d d110 a83c
00000090: 0456 65be 0510 73bd b249 113e 8e77 0fbe
000000a0: dd47 b13d 4fa4 2d3d 38d8 1c3f 6109 f1be
000000b0: f261 09bf d8bd 8abe dccf d13c c9a0 81be
000000c0: d984 b4be 527c f83d b0c8 8a3d 4efb 2dbf
000000d0: bf15 683d 4a3a 0abe f7c3 70be a663 2bbe
000000e0: b50d 90be 0fb2 8dbd 2a55 1f3e c88f 053e
000000f0: 1cf5 8ebe fecf 373e eacd 763c 79ce 6fbe
00000100: 350b 0fbe ecd8 5a3d 4898 04bf 9202 e33d
00000110: 1d9b b9bc eb51 bd3d 986a b8be ec78 a3bd
00000120: dbf6 2cbe 277f a03d 3111 efbe 75bb 573d
00000130: 87c6 a9be 00c9 ce3d 77df 263f d5af 01bf
00000140: ccc6 01bf a6d3 54be b196 353e c9f3 5e3d
00000150: 56b9 cbbe 559e 0f3e 29a2 2d3c 5ec5 00be
00000160: f6be 3f3e 0af8 0abd dc46 23be ef8e 213e
00000170: 4289 19be dfb7 ae3e 6a99 0fbf 95a5 7bbd
00000180: af6f a1be 07bd c9be 6f78 d1bd e497 7bbe
00000190: 2616 70be 0e4a 08be f768 37be e7d6 12bd
000001a0: 8d93 b33d 61db c3bd 9d52 72be 6ce4 f33e
000001b0: f3c6 c43e 842d ec3e 5c85 a0be 58c6 d43d
000001c0: 0068 a5bc 7d82 77bb 1bfb 50be 0c82 90be
000001d0: aa4f 243e 1e92 533d 99d8 293e 587f 053f
000001e0: 660e aebd b5ce 923e 678d a6be 48f7 19be
000001f0: cf10 a03e 9054 d23e 0232 6abe 0866 14bf
00000200: 0044 fd3c 3660 47be a89e 86be d152 56be
00000210: 16a9 e33e 2405 403e ce7f 0f3e 19ff 623e
00000220: 48e2 bd3e a703 debd 102b 1d3e 8a25 4dbe
00000230: 6c1a e7bd 95f7 8cbe 3804 01bf fcf9 153d
00000240: b53d d9be 18a0 cdbe 95b9 3f3d 85b2 47be
00000250: c84d 123e ffa0 523a 6962 95be 1e99 ecbd
00000260: 4f80 2d3e 7c19 53be 7dc6 263e b012 77be
00000270: ae54 87be 2747 9ebe f7ce 5d3e 5314 8abd
00000280: 2421 babc 69dc 59be 48ae 603d 3fd8 3cbe
00000290: 93b2 0dbf e67d 89bd 05ef 69be 9ea5 9cbc
000002a0: f56f 563e b01b 1f3e f7b6 58bf 0ed2 80bd
000002b0: a41d 1a3d 51c2 57bd e192 523e 10f1 67be
000002c0: 60fb a1bc a326 a33e 46f0 18be 84a2 8f3e
000002d0: e7ab 78be 099c a5be 129e 593d 6606 a93d
000002e0: 42f8 5d3e 5005 b5bd 4c88 98be 2dde b33c
000002f0: e5eb 893d 543b 1bbd ddf6 90bd 17c4 1b3e
00000300: 71cb 9ebe 67e4 1dbd cd5a 0fbe e68f 8c3d
00000310: 4db7 833d c801 e43c 381b 3fbc 7f96 713d
00000320: a569 863d daa2 d2be e050 15bf aafa b63c
00000330: de80 ed3e 2702 88be 976c 91bc 18a1 19bd
00000340: 0b7c 34bd 68ff 9fbe 5415 c13d 8f03 8dbe
00000350: cf0c d33d 48cd 80bd 5396 83be 6093 a73e
00000360: db28 8d3e 6936 4cbd b325 25bf dd07 a43e
00000370: d73c ecbd 6c9a b2be 621a af3c 0676 ec3d
00000380: 5eb3 9f3e e68f dc3e 88fc 41be c649 5dbd
00000390: e59e 813d e9da 1e3d 61da 07bd 6dd6 c03e
000003a0: 9690 6ebe 0aed b0be 27c6 2dbe b538 67be
000003b0: 0307 283e a8d2 c13e 5aa3 8a3e 338d 563e
000003c0: 115f d9bc 9697 2cbe 187b 94be 94f0 a2be
000003d0: 1657 cbbd 3daf b7be 50c3 663e 9f01 87bc
000003e0: 5a34 18bf 9283 0abe 4f43 17bf 5c15 2abe
000003f0: d971 303e 22b5 093e 7af9 2b3e 5193 053e
-0.11590815 0.14016254 0.056811076 0.116305076 -0.013477859 -0.038327213 -0.015876153 -0.005795925
0.12894507 0.5283494 -0.17463112 -0.63697463 0.17165096 0.13326262 -0.35438037 -0.3312472
0.3708802 0.08083416 0.5140772 0.071454346 -0.4801056 0.49191728 -0.003795641 -0.5598974
-0.15801157 0.10656275 -0.21041542 -0.11006047 0.109654956 0.16467233 -0.32037228 -0.37814072
-0.57521737 0.14583707 0.049484838 0.020515831 -0.22396094 -0.05934145 0.14188269 -0.1401045
0.08656285 0.042393025 0.61267424 -0.47077468 -0.5366508 -0.27097964 0.02561181 -0.25317982
-0.35257605 0.12133087 0.06776559 -0.67961586 0.056661364 -0.13498798 -0.23512255 -0.16737232
-0.28135458 -0.069187276 0.15559831 0.1304313 -0.2792138 0.17950436 0.015063742 -0.23418607
-0.13969119 0.05342953 -0.5179486 0.110844746 -0.022656972 0.0924414 -0.36018825 -0.079820484
-0.16891043 0.078367524 -0.46692804 0.052669007 -0.33159277 0.100969315 0.6518473 -0.50658923
-0.50693965 -0.20783862 0.17733265 0.05443171 -0.39789838 0.14025243 0.010597744 -0.1257529
0.1872519 -0.033927955 -0.15945 0.15777181 -0.14993766 0.34124658 -0.56093466 -0.06143721
-0.3153052 -0.3940203 -0.10228049 -0.2456966 -0.23445949 -0.133095 -0.17911135 -0.035849478
0.087683775 -0.095633276 -0.23664327 0.4763521 0.38433036 0.46128476 -0.31351745 0.103893936
-0.020191193 -0.0037766986 -0.20408289 -0.28224218 0.16046014 0.05165302 0.16586532 0.52147436
-0.0849884 0.2867333 -0.32529756 -0.15035737 0.31262824 0.4108014 -0.22870639 -0.5796819
0.030916214 -0.19470295 -0.2629292 -0.2093003 0.4446494 0.18751961 0.14013597 0.22167625
0.370867 -0.108405404 0.15348458 -0.20033851 -0.112843364 -0.2753264 -0.5039706 0.036615357
-0.4242989 -0.40161204 0.046807844 -0.19501694 0.14287484 0.00080348545 -0.29176643 -0.11552642
0.16943477 -0.2061519 0.16286655 -0.24128222 -0.26431793 -0.3091366 0.21660982 -0.06742158
-0.02272088 -0.21275486 0.054853708 -0.18441866 -0.5535061 -0.06713466 -0.22845085 -0.019121941
0.20941146 0.15537906 -0.8465418 -0.06290065 0.037625924 -0.05267555 0.20563842 -0.22650552
-0.019773185 0.31865415 -0.14935407 0.28053677 -0.24284326 -0.32345608 0.053129263 0.082531735
0.21676734 -0.08838904 -0.29791486 0.021956528 0.067344464 -0.037898377 -0.070783354 0.15211521
-0.31014588 -0.0385479 -0.13999481 0.06863384 0.06431446 0.02783288 -0.011664204 0.058981415
0.06563119 -0.4113987 -0.5832653 0.022336323 0.4638738 -0.26564142 -0.017751975 -0.037507147
-0.04406361 -0.31249547 0.09427896 -0.27541777 0.103051774 -0.06289154 -0.25700626 0.32729626
0.27570233 -0.049856577 -0.6451065 0.3203725 -0.11535042 -0.3488344 0.021374885 0.11545949
0.31191534 0.43078536 -0.1894399 -0.054025434 0.06329135 0.038782988 -0.033167247 0.37663594
-0.23297343 -0.34555846 -0.1697012 -0.22580226 0.16408925 0.3785603 0.27077752 0.209523
-0.026534589 -0.168547 -0.29000163 -0.31824172 -0.0992872 -0.35875884 0.22535443 -0.016480265
-0.5945488 -0.13526753 -0.5908708 -0.1660971 0.1723093 0.13448003 0.16794387 0.13044478

bias f4 [64]
00000000: a6c3 91b9 bc8b 68b8 80ed 64b8 7b45 67b9
00000010: b5a9 b039 020e c436 e9c5 da38 007a a2b9
00000020: d581 8ab9 d272 a7b9 522d c4b8 9f59 3639
00000030: 818d 8eb9 b1d6 ad39 864e 6ab9 18e3 e538
00000040: d7c0 1839 0caf ad38 ac6d 9f39 600c 1fb9
00000050: 9ba6 07b9 ded8 5eb8 f7eb b1b9 0acf 9739
00000060: 5541 81b6 9115 01b8 2cb9 01b9 487d 83b9
00000070: 4f71 03b7 cac8 6537 8509 0039 8132 5d39
00000080: 1b36 d238 5192 1db9 e2df 7639 540e 9cb7
00000090: 3f10 8db9 b81f 2ab7 b0ea 2738 b740 aab8
000000a0: 9749 5036 8a50 2739 acb9 cab7 0016 98b8
000000b0: 0da6 e5b7 e2c2 d638 de44 7239 79e4 0138
000000c0: 1441 b239 b9b0 9438 1845 5db9 9e0d bab9
000000d0: 9ecd 92b7 dd08 4039 a984 f638 ec99 9539
000000e0: df80 b0b8 64a0 b738 d508 6138 769d 26b9
000000f0: f04a aeb9 3735 2fb9 b107 2039 e1ae 6a39
-0.00027802325 -5.5443248e-05 -5.4580625e-05 -0.0002205576 0.00033695778 5.842886e-06 0.00010431914 -0.00030989945
-0.00026418144 -0.0003193827 -9.35445e-05 0.00017390259 -0.0002718978 0.0003315709 -0.00022345231 0.000109618704
0.00014567688 8.281888e-05 0.00030408555 -0.00015168032 -0.00012936669 -5.3130898e-05 -0.00033935878 0.0002895522
-3.8521052e-06 -3.0776082e-05 -0.0001237138 -0.0002507961 -7.83459e-06 1.36962135e-05 0.00012210578 0.00021095017
0.00010023658 -0.00015027194 0.00023543791 -1.8603321e-05 -0.0002690572 -1.0140175e-05 4.0034472e-05 -8.118286e-05
3.103725e-06 0.00015956364 -2.4166737e-05 -7.2520226e-05 -2.737625e-05 0.00010240615 0.00023104573 3.096878e-05
0.00033999293 7.090107e-05 -0.00021101942 -0.0003548683 -1.7500304e-05 0.00018313849 0.00011754904 0.00028534175
-8.416338e-05 8.755995e-05 5.3652406e-05 -0.00015889652 -0.000332437 -0.00016709125 0.00015261654 0.00022381126

weight f4 [64]
00000000: 7072 623f 148a 913f dd51 3d3f 7c3c 6f3f
00000010: c915 583f 5f5c 8f3f 2a57 ba3f c452 a23f
00000020: 9a58 783f 938a ca3f 16e1 903f aa52 b23f
00000030: 5f4b 8e3f 4f23 ad3f bbb6 9b3f dbdf 103f
00000040: 4c6d c73e 551b 3f3f 19d6 473f bf9b a13f
00000050: c526 9d3f 9ee3 903f 74fd ef3e 1c97 873f
00000060: 8e8b 473f 27f0 383f c3db 643f ebd3 c33f
00000070: 7c7d 8d3f 5376 8b3f 08db 9e3f c3ee 873f
00000080: 8fa9 9e3f 63e9 343f c64b 953f d5e7 a73f
00000090: 4343 623f afaf 533f f8e6 6d3f 4acf a03f
000000a0: 4a25 9a3f b37a 4e3f 3640 b23f 517b 8e3f
000000b0: 87f4 823f a053 883f dfc8 793f ff00 9e3f
000000c0: effe 473f 53fd 823f 779d af3e cd80 b53f
000000d0: 92fb 1f3f e835 603f bd9f 083f d31f 823f
000000e0: d132 433f 854d ce3f ad34 7d3f ab10 b83f
000000f0: 1211 9c3f c010 8b3f bc06 423f 41c0 963f
0.8845587 1.1370263 0.7395304 0.93451667 0.8440824 1.1200064 1.455785 1.2681508
0.97010195 1.582354 1.1318691 1.3931477 1.1116751 1.35264 1.216514 0.56591576
0.38950574 0.7465108 0.7806106 1.2625655 1.2277457 1.1319463 0.46873057 1.059299
0.7794732 0.72241443 0.8939783 1.5299047 1.105392 1.0895485 1.2410593 1.0619739
1.2395495 0.7066862 1.1663749 1.3117625 0.88383883 0.82689947 0.92930555 1.256326
1.204263 0.80655974 1.3925846 1.1131383 1.0230874 1.065052 0.9757213 1.2344054
0.7812337 1.0233558 0.34299824 1.4179932 0.6249324 0.87582254 0.5336874 1.0165962
0.76249415 1.6117407 0.989085 1.4380087 1.219271 1.0864487 0.75791526 1.1777421

bias f4 [64]
00000000: 241f d6be b492 dbbe 6dcc 5fbe bfb2 27be
00000010: e774 9fba 6711 2dbf e379 3ebf 96f9 d4be
00000020: a75e f8be def9 3cbf 3f30 f7be 2d91 d2be
00000030: 7d30 ffbe d42b 0bbf 93c9 d7be 71da 433e
00000040: f41d 02bf b545 e8be f7db a3be d094 8ebe
00000050: 8abc f7be b268 d0be 693b 0b3e 1931 f5be
00000060: b9dc d9be 22a8 2abe bca5 7ebe 0505 dcbe
00000070: 1d9b e6be f91f 76be cc1d a03e 85ce 2cbe
00000080: f1a2 e9be e4f2 80be 8687 e0be 937d 04bf
00000090: 7dde c03b c3b4 08be d962 aabe efdc 27bf
000000a0: 5561 11bf f607 dfbe d5bf 2ebf 3584 32bf
000000b0: 910b 8abe cfa0 9dbe 5806 72be 5fea d0be
000000c0: 3a5c 83be 503b d9be 1e71 d7be 6957 0dbf
000000d0: c91f 79be 5bc1 19be d80d 593e 61fe 2ebe
000000e0: d017 69be db1f 10bf 21d9 bbbe bd96 79bf
000000f0: c05c 0dbe 5343 82bd 86c0 79bd 4981 68be
-0.41820633 -0.42885363 -0.21855326 -0.1637678 -0.0012165577 -0.6760468 -0.74404734 -0.4159667
-0.48509714 -0.7381877 -0.48278996 -0.41126385 -0.4984168 -0.5436375 -0.42145976 0.19126298
-0.50826955 -0.45365682 -0.32003757 -0.2784791 -0.4838603 -0.40704876 0.13596882 -0.4788902
-0.4255121 -0.166657 -0.2486791 -0.4297258 -0.45040217 -0.24035634 0.31272733 -0.16875656
-0.45632127 -0.2518531 -0.43853396 -0.5175411 0.0058858977 -0.13350205 -0.3327854 -0.6557149
-0.5678914 -0.4356076 -0.6826146 -0.6973298 -0.2696195 -0.3078675 -0.23635232 -0.4080381
-0.256563 -0.42428064 -0.4207849 -0.552115 -0.24328531 -0.15015166 0.21196687 -0.17089225
-0.2276299 -0.5629861 -0.36689094 -0.97495633 -0.13804913 -0.06360497 -0.06097462 -0.22705568

running_mean f4 [64]
00000000: 3c09 e1bf 610d a7bf b93c e2bf fa1f ffbf
00000010: 1a71 b7bf 8f2d 6dbf b400 01bf f7e3 0abf
00000020: 9fad 01c0 8cab d3bc 33ba c0bf 65d7 b4bf
00000030: d568 a8bf d4a3 e1bf faee b7bf 4fe5 e2be
00000040: c20b fb3f 1d24 45bf e365 d1bf b0b3 fabf
00000050: c005 97bf 9d2c 80bf 2c21 1ec0 bf31 febe
00000060: 8f98 99bf 1b36 38bf 06a1 ccbf a72f f2bf
00000070: 23a9 03c0 dc28 cabf afe9 fcbd 01d1 cbbf
00000080: c73d 97bf 0c17 0bc0 caec 8dbf 2b7c 83bf
00000090: 114e 39c0 2af4 9bbf 6387 8fbf 8ddf 67be
000000a0: bab0 d9be c8ae 4cbf 79ee 1dbf 16ea 5c3f
000000b0: 3e00 41bf 5a6a edbf 4e20 d2bf 1469 38bf
000000c0: 15da 57bf 1150 cbbf dddf 3fbf 85f0 93bf
000000d0: 05af c8bf 6f1e 3bbf 829d 11c0 97e7 bfbf
000000e0: 9d2b dcbf 325e afbf 3d75 e2bf 691d 953f
000000f0: a1a1 f1bf 5e99 dabf acd1 10c0 3753 48bf
-1.7580943 -1.3050958 -1.7674781 -1.9931633 -1.4331391 -0.9264764 -0.503917 -0.54254097
-2.026222 -0.025838636 -1.5056823 -1.4128233 -1.3156992 -1.7628121 -1.4369805 -0.44315574
1.9612963 -0.7700823 -1.6359218 -1.9586086 -1.179863 -1.0013615 -2.4707747 -0.49647328
-1.1999682 -0.7195756 -1.598664 -1.8920792 -2.0571983 -1.5793719 -0.12349259 -1.5923158
-1.1815728 -2.1732817 -1.1087887 -1.0272268 -2.8953898 -1.2183888 -1.1213192 -0.22643872
-0.42517644 -0.79954195 -0.61692005 0.86294687 -0.75390995 -1.8548081 -1.6416109 -0.72035336
-0.8431714 -1.5883809 -0.74950963 -1.1557776 -1.5678412 -0.7309331 -2.2752385 -1.4992551
-1.720081 -1.3700621 -1.7692028 1.16496 -1.887745 -1.7078054 -2.2627974 -0.78251976

running_var f4 [64]
00000000: 28f7 9e3f c168 2840 f78e 0740 1006 0c40
00000010: cd6e f73f b5cf ae3f df74 873f 40b9 0040
00000020: 7a55 d33f e579 513f 0786 2940 7add 5440
00000030: 2bda f23f 513d 5140 cc78 2f40 d303 d53f
00000040: af58 ed3f ecf7 cf3f 6464 a93f f26c 1040
00000050: d651 0c40 b68d e43f 1f09 0b40 b830 db3f
00000060: 391b 973f 7d8a 993f 0c90 d33f 5bff ac40
00000070: 6eb4 df3f a132 5240 9bf4 2540 25bd 0d40
00000080: 519b 0040 f62d c33f 4f6f 1740 d84a 0940
00000090: 6119 0240 b9db 1340 37a5 a13f 9321 583f
000000a0: 84b5 0840 8ba1 b13f ef51 0340 3411 3940
000000b0: 760f ef3f 880b 0e40 70ed 2540 916b 0e40
000000c0: e5dd bf3f a853 2b40 6fc0 543f f2ad 1e40
000000d0: f028 873f f0bc 933f 00c9 1a40 9140 1e40
000000e0: 07b4 0740 c98e 7d40 0100 1340 dc13 bc3f
000000f0: 5c8a 3f40 a0fe 2040 154d 2640 e369 0240
1.2419176 2.6313937 2.118101 2.18787 1.9330689 1.3657137 1.0582541 2.0113068
1.651046 0.8182662 2.6488054 3.3260179 1.897283 3.2693675 2.7417479 1.6641792
1.8542689 1.6247535 1.3233762 2.2566495 2.1924949 1.7855747 2.1724317 1.7124243
1.1805183 1.1995388 1.6528335 5.4061713 1.7476938 3.2843401 2.5930545 2.2146695
2.0094798 1.5248401 2.3661687 2.145193 2.032799 2.3102858 1.2628545 0.8442623
2.1360788 1.3877424 2.0518758 2.891675 1.8676593 2.2194538 2.592617 2.2253153
1.4989592 2.676981 0.8310613 2.4793668 1.0559368 1.1542034 2.418518 2.4726908
2.120363 3.96184 2.2968752 1.4693561 2.9928198 2.515541 2.5984547 2.0377128

weight f4 [64, 64, 3]
00000000: 89f9 17be 5415 0cbc 3949 9bbd e10e 503e
00000010: 67cf 12bc f76d c7bd 898d 013f b53b c23d
00000020: 3b23 c83d 52eb 90bc 7808 b53d 8817 ec3d
00000030: efbe 9a3e a28a 87bd 85b6 c23d c40d 8f3d
00000040: ccd9 f83c 78fb db3e 5209 1bbe 3b8b 90be
00000050: d3b6 d7bd 343a 033e e5cb a33e 9db8 b53e
00000060: e003 853d 9722 bb3e ea09 c83e 68e9 c0bd
00000070: 416e 5e3e b8c5 a4bd bc6a 1a3e 8a3d cdbd
00000080: 94ba fa3d 0015 a6be 998f d2be 4873 d6be
00000090: 0f94 a63d 8edd e93d 42ea cf3d 881f 653d
000000a0: ef84 75be a2aa 40bd ba5a 09be f560 1abe
000000b0: 7f1d 14bf 0c95 01be f5f9 603e 822c 563e
000000c0: b100 febd 78fc a3be 1c2e d2be 942f 273e
000000d0: d549 3fbe abf9 b13e cc5d a53c ca5b 9c3e
000000e0: 603b e53d 9bb5 bf3c 3a22 6fbd a5ce 93be
000000f0: 288a eb3d 183f 68be a902 ba3e f84e 183e
00000100: 2d97 ad3e f49b 823c 39b3 fcbd dc87 123e
00000110: 814c 293e 79ec f13c 6b9f fb3c f395 6e3e
00000120: 9298 5bbd fd15 3f3e debc 133d a334 9f3e
00000130: c273 903e 10ac ecbd a60c 083f 5fc2 00be
00000140: cad7 b23e b32d 813d a017 103e 2611 b43e
00000150: 3e0d 193f f8af cb3e 9df9 073e 14d2 133e
00000160: cc75 da3b f9c2 1fbc 78f2 493e b447 073f
00000170: 97ef aa3e 69e2 023e 06d3 dfbe 73fb 0dbe
00000180: 188f d53d fc43 4a3d 1f3a 023f bf41 b73e
00000190: ce54 873e d7d4 623e f362 c8bd e193 133e
000001a0: cc53 193e ecb1 f43d 7bb3 953e 6841 1bbe
000001b0: b5a3 56be df4b 9d3c f308 fcbc c307 013e
000001c0: da31 823d 5ce9 09be 4785 bebb 3f51 9ebc
000001d0: 71ef a33c 0414 0fbb 1843 3abd c061 ec3d
000001e0: e888 b2bd 4769 b83c 498b 0cbd 9078 5dbd
000001f0: a566 213e 8acc b93e c263 acbc a599 b2bd
00000200: ffd9 8dbd 4ee4 2bbe b677 1d3e c625 df3e
00000210: e24c 0bbe 8825 7f3e f718 2b3d f8e8 383e
00000220: b1da 253e 49dc 02be 33b7 223e f5c4 373e
00000230: 3381 bd3e 4ad6 01be c1fa 5a3e 3b57 fd3d
00000240: b42f abbd f608 193c 1265 c23c 456e 8d3e
00000250: 29b5 be3e 4b28 f33d 828c 5fbe ee2b a4bd
00000260: 42d2 01be d4dc 1abb 2aef 5f3d e8e4 80be
00000270: 9039 e4be aba3 cfbd 8bc9 2fbe 0e06 87bd
00000280: 52f6 3fbd b1bd c6bc 2407 acbe 59c9 00be
00000290: 6dad 0ebf f905 0d3c cfa1 f4bc c7af 093e
000002a0: e52f 043f 538b 2b3e f5ce ed3e d05d d63d
000002b0: 9af4 e9bd 08b2 4ebe 5076 c5bd 4474 dcbd
000002c0: e7d6 b2be 254d 7a3c cba4 a3be d3be ddbe
000002d0: 3254 303d e561 743e 6ff4 7bbe f833 d4be
000002e0: 2e4f 20be ebb5 54be 9669 7cbd 7c12 913e
000002f0: e2bf 213e c946 8abe 7763 64be 2846 24be
00000300: 86fd 75be 5219 75be 0496 863e 7aaf 88bc
00000310: b17f fe3d 4072 f7be b8d0 823e 4335 a2bc
00000320: 3f3a 9c3d c878 c53d ca87 85bd fe8e 55be
00000330: 562a 11bc 1c7f 9bbe 2f74 8dbd 90ac f73e
00000340: 13be a93e c825 013f 8594 77be 719f ebbd
00000350: c165 353e d70a 1ebe 679a a13d 370a 5b3d
00000360: e273 523d fecc 9f3d 2df1 463e 3425 b63d
00000370: 4e04 443c 700f 033d 6745 103f 1465 de3d
00000380: 275a af3e 29de 713e 1edc 1fbe 70aa 68be
00000390: d844 90bd 7303 fe3b b29b b2bd 2655 753d
000003a0: 17d6 8b3e 368d 2abe 8212 fd3c 12ae 6fbe
000003b0: ecd1 f93d 4e6a 923e 1c70 debb 1516 27be
000003c0: 6c01 2e3e 0aa8 083e f824 53bd 5457 bcbe
000003d0: fdb0 d1be c498 00be 8177 0a3f 0b1b 31be
000003e0: 9e5a 2f3f 848d 17be 588a 35ba 5b71 323f
000003f0: 8b2d 4abc 3f63 42be e73a 40be 0542 80be
-0.14841284 -0.008550007 -0.075823255 0.20318176 -0.008960581 -0.09737771 0.5060659 0.094840445
0.09772345 -0.017690334 0.08839506 0.11527926 0.30223796 -0.06618239 0.09507469 0.069850475
0.030377291 0.42965293 -0.15140274 -0.28231224 -0.10532918 0.12815171 0.31991497 0.3549241
0.0649488 0.36549827 0.39070064 -0.09419519 0.21721746 -0.08045524 0.15079778 -0.10021503
0.12242618 -0.32437897 -0.4112518 -0.41884828 0.08133709 0.11419211 0.10152103 0.055938274
-0.23976491 -0.047037728 -0.13413516 -0.15076049 -0.5785751 -0.12654513 0.21970351 0.20915416
-0.124024756 -0.32028556 -0.41050804 0.16326743 -0.18680508 0.34760794 0.020186327 0.3053878
0.111929655 0.023402026 -0.05838225 -0.28868595 0.115009606 -0.22680318 0.36330155 0.14873874
0.339044 0.015943505 -0.123388715 0.14309639 0.1653309 0.029531704 0.030715665 0.23299389
-0.0536123 0.18660732 0.03606879 0.31094846 0.28213316 -0.11556256 0.531443 -0.12574147
0.3493026 0.063075446 0.14071512 0.35169333 0.5978583 0.3978269 0.13278814 0.14435607
0.0066668745 -0.009751075 0.197214 0.52843785 0.33385918 0.12781681 -0.43715686 -0.13865452
0.104276836 0.04938124 0.50869936 0.35792348 0.26431888 0.22151504 -0.09784498 0.1441188
0.14973372 0.119479984 0.29238495 -0.15161669 -0.20960887 0.019201217 -0.030765986 0.12600617
0.06357165 -0.13467926 -0.0058142277 -0.01932585 0.020011635 -0.0021831999 -0.04547414 0.11542082
-0.08717519 0.022511138 -0.03431252 -0.054070055 0.15761812 0.36288863 -0.021043662 -0.087207116
-0.06926345 -0.1678631 0.15377697 0.43583506 -0.13603547 0.24916661 0.041771855 0.1805762
0.16196705 -0.12779345 0.15890197 0.17946227 0.37012634 -0.12679401 0.21384718 0.123701535
-0.08358708 0.009340515 0.023729835 0.2762319 0.3724759 0.1187292 -0.21830943 -0.080161914
-0.12677863 -0.002363016 0.054671444 -0.25174642 -0.44575167 -0.10138639 -0.17166726 -0.06592952
-0.04686577 -0.024260374 -0.33599198 -0.12576808 -0.55733377 0.008607381 -0.029862313 0.1344596
0.5163558 0.16752367 0.46446958 0.10467112 -0.11423607 -0.20185101 -0.09641707 -0.107643634
-0.34929582 0.015277182 -0.31961665 -0.4330965 0.043049045 0.23865469 -0.24604963 -0.414459
-0.15655205 -0.20772521 -0.061624132 0.28334415 0.15795854 -0.2700713 -0.22303568 -0.16042387
-0.24022493 -0.2393544 0.26286328 -0.016685236 0.12426699 -0.48329353 0.25549865 -0.019800788
0.07628297 0.09642178 -0.0652004 -0.20855328 -0.008860191 -0.30370414 -0.06906926 0.48373842
0.33152828 0.50448275 -0.2417775 -0.115050204 0.17714597 -0.15433823 0.07890778 0.05347654
0.051380046 0.07802771 0.19427939 0.08893815 0.011963917 0.031997144 0.563559 0.10859123
0.34248468 0.23619904 -0.15611312 -0.22721267 -0.07044381 0.007751876 -0.08721103 0.059895657
0.27311775 -0.1665543 0.030892614 -0.23406246 0.121982425 0.2859673 -0.006788267 -0.16317017
0.1699273 0.13345352 -0.051548928 -0.36785376 -0.40955344 -0.12558275 0.540886 -0.17295472
0.68497646 -0.14800078 -0.0006925217 0.69704217 -0.01233996 -0.18983172 -0.1877247 -0.2505037

bias f4 [64]
00000000: d29f 81b8 63cc 0b39 369b efb8 b8e0 cf38
00000010: f1f6 e7b8 c890 77b7 d340 afb9 c224 fe38
00000020: 98e3 3039 abdb 1238 81d6 3db9 a21e 4639
00000030: dbd5 0039 dd03 7839 e7cc 4c39 27b0 00b9
00000040: 6a71 4fb9 b517 2338 36b4 ef38 46eb 72b9
00000050: b58e c938 df47 f4b8 2737 a8b8 194e 92b7
00000060: ce01 e936 04c5 ec38 eed6 a539 ca7a 90b9
00000070: 777d 9538 9ec4 23b9 8349 9f39 b2db a2b8
00000080: cd58 6039 3e74 3839 6c74 3c39 627e 3fb9
00000090: b203 5439 05ae c3b8 f60f 7d39 368c 3238
000000a0: 7ba1 a739 86ba 6639 25d0 8339 bc47 a9b8
000000b0: ac21 59b9 fd9e 3139 5bff aa38 4490 9538
000000c0: 6cc6 0d39 f135 2ab8 ae98 54b7 74a4 4db9
000000d0: 8399 e3b8 d77d 95b9 0f6f dab7 e9dc c238
000000e0: c0e8 9539 16e1 4ab8 1484 63b9 80dd 7bb8
000000f0: 6a59 9e39 fb6e 35b8 79df 8b38 8bad 06b9
-6.180968e-05 0.00013332213 -0.000114253184 9.912386e-05 -0.00011060935 -1.4756057e-05 -0.000334269 0.000121185105
0.00016869453 3.5013694e-05 -0.00018104354 0.00018894163 0.00012286699 0.00023652562 0.00019531288 -0.00012272653
-0.00019783308 3.8884307e-05 0.00011429975 -0.00023166565 9.611008e-05 -0.00011648214 -8.021137e-05 -1.7440923e-05
6.944151e-06 0.00011290054 0.00031631388 -0.00027557305 7.128243e-05 -0.00015618137 0.00030381614 -7.7656834e-05
0.00021395386 0.00017590911 0.00017972448 -0.0001826226 0.00020219272 -9.330738e-05 0.00024133906 4.256909e-05
0.00031973034 0.00022003995 0.00025141347 -8.0719095e-05 -0.00020707276 0.00016939263 8.153795e-05 7.131745e-05
0.00013520726 -4.0581395e-05 -1.2671733e-05 -0.00019611587 -0.00010852797 -0.00028513253 -2.603934e-05 9.2917886e-05
0.00028592907 -4.837018e-05 -0.0002169761 -6.004935e-05 0.00030202727 -4.325712e-05 6.6696615e-05 -0.00012843886

weight f4 [64]
00000000: dab5 cb3f 8189 b33f ac48 e23f 91a9 ba3f
00000010: ae1e bc3f 7793 ac3f 3fd7 d63f 5da1 ae3f
00000020: fb9a b23f 1d5f d03f e843 ca3f 6d33 c13f
00000030: 8833 cf3f 13ee be3f 8b30 ba3f faf6 cf3f
00000040: 1759 dd3f 89da b73f da01 d63f e046 dc3f
00000050: 9226 b63f 2b21 b13f 9fae 0540 6c8b a53f
00000060: 473e d93f f195 ce3f 6344 da3f 6bab d43f
00000070: b2e8 a13f 846e d43f f0e1 d53f 40e8 ec3f
00000080: 701c d63f 8c45 d53f a2ae c23f efe4 953f
00000090: cae9 c83f 1190 b13f 0a13 ac3f e4d7 ad3f
000000a0: 14a0 c73f 11bc c83f fc90 c83f 17fc a53f
000000b0: 387f d73f c8ef ca3f f51c c03f 4ba4 a33f
000000c0: 7d25 ab3f adf2 b13f 6a98 c43f dc5f b03f
000000d0: bbb7 cb3f fd9e bf3f 86da b03f de1c ef3f
000000e0: 8c85 d43f b518 e93f b190 d33f a184 b73f
000000f0: b169 c83f a7cf aa3f f5d5 f13f 006c dc3f
1.5914872 1.4026338 1.7678428 1.4582998 1.4696863 1.3482503 1.6784438 1.3642994
1.3953546 1.6279026 1.5801973 1.5093819 1.6187601 1.4916404 1.4546064 1.6247246
1.7292813 1.4363567 1.6719315 1.7209129 1.4230521 1.3838247 2.088783 1.2933173
1.697213 1.6139508 1.705212 1.6614813 1.2649138 1.6596227 1.6709576 1.8508377
1.6727428 1.6661849 1.5209544 1.171049 1.5696347 1.387209 1.344331 1.358151
1.5595727 1.5682393 1.5669246 1.2967557 1.6835699 1.5854425 1.5008837 1.2784513
1.3370816 1.3902184 1.5359013 1.3779254 1.5915445 1.4970394 1.3816688 1.8680685
1.6603255 1.8210665 1.6528531 1.433735 1.5657254 1.334462 1.889342 1.7220459

bias f4 [64]
00000000: 725f 6c3e 9977 76be 1739 21bf 3898 ecbe
00000010: 9716 17bf daae 75be 5983 a53d a80f 0cbe
00000020: d7e8 113e 4858 2d3d a910 7cbe 4146 9fbe
00000030: 706f 9dbe eb82 e0be c002 d7be 8951 e73d
00000040: 29e0 733e bd13 11bf 2ab9 18bf 113a 45bf
00000050: 6844 19bf a0c3 c0bd 56e6 28bd 64b4 b8be
00000060: 5d1c 90be a26c 98bc f6f6 0bbf b3c7 0fbf
00000070: 214d 093e 76aa b8be fc04 25bf 6c1a 35bf
00000080: 64b3 84bf de7b 983e 8572 b3bc 6f1b 22bf
00000090: aaa8 73bd 6f57 0ebf 02bd e4be 9ac0 16bf
000000a0: c1df 22be 50ee 0bbf 7372 4bbf 3ded e4be
000000b0: b05c e6be d8f1 03bf d8dd cfbe 789c b6be
000000c0: 1fac 0abf 473a 80be 8d2f ddbe 2180 18bf
000000d0: 904b 21bf e33d 8e3e 6af5 0bbf 3a84 1ebf
000000e0: d89c 1bbf 7546 5fbe 310b 2abf 5679 16be
000000f0: ea79 09bf fc91 be3d 5e92 563e 8f1d 83be
0.23083284 -0.2406906 -0.6297774 -0.46209884 -0.59018844 -0.23992482 0.08081693 -0.13677847
0.14248978 0.04232052 -0.2461573 -0.31108287 -0.30749083 -0.43849882 -0.41994286 0.112948485
0.23815979 -0.56670743 -0.5965754 -0.7704173 -0.59870005 -0.094123125 -0.04123529 -0.36075127
-0.2814664 -0.018606488 -0.5467371 -0.5616409 0.13408329 -0.3606755 -0.6446073 -0.7074344
-1.0367246 0.29782003 -0.021905193 -0.6332311 -0.059487022 -0.55602163 -0.44675452 -0.58887637
-0.15905668 -0.5466051 -0.7947151 -0.44712248 -0.4499259 -0.515409 -0.4059894 -0.3566625
-0.54168886 -0.25044462 -0.4320034 -0.5957051 -0.63005924 0.2778159 -0.5467135 -0.6192051
-0.607862 -0.21804221 -0.66423327 -0.14694723 -0.5370165 0.09305188 0.20954272 -0.2560849

running_mean f4 [64]
00000000: 9a5c b93f 8896 bc3d 9362 f93e 5719 1e3f
00000010: b443 6cbf c52d 4fbe 4c69 d93f 56f9 223e
00000020: f5bc 873f e91c 4e3f cdf2 173f 5dec 99be
00000030: 1420 e7bd 310c 8cbe 5a08 1940 6334 5b3f
00000040: c81d 2b3f 0bff 1d3f 6ae1 093f 0118 623f
00000050: e095 c43f db4f cb3f 3c41 a23f 8368 a23d
00000060: d995 a13f a6e5 973f f3a9 2b3d 0b9c 1abf
00000070: d11f 8f3d f253 09bc ab50 253f b791 e2be
00000080: 80fc 4c3f 70fd 313e 281d 923f cee0 e23d
00000090: 2180 713f 7a5c 27bf 0d4d 7f3f 5491 4abe
000000a0: c95f 4bbf 4bae d2bd 0474 ca3f 2842 063f
000000b0: 1f49 883f 274e 773f 6600 bf3f 91c9 71bf
000000c0: 0589 cbbe 2e5c f9bd 8d70 683e 9323 2e3f
000000d0: 931f 0ebf 3c9e cb3f 14bd 103f 4268 813e
000000e0: c140 01bf 51d2 2e3d 7652 83be a63b ae3e
000000f0: 716d b93f cd4e 663f bc0c e43f 5eb5 ce3f
1.4481385 0.09208399 0.4870802 0.61757416 -0.92290807 -0.20232303 1.6985259 0.15915427
1.060454 0.80512863 0.5935486 -0.30063143 -0.11285415 -0.2735305 2.3911347 0.8562681
0.6684232 0.6171729 0.5385958 0.8831788 1.5358238 1.5883745 1.2676158 0.0793009
1.2623855 1.1866958 0.041910123 -0.6039435 0.069884904 -0.0083818305 0.64576215 -0.44251797
0.80072784 0.17381835 1.1415148 0.11078034 0.94336134 -0.65375483 0.99726945 -0.19782001
-0.7944303 -0.1028715 1.5816655 0.52444696 1.0647315 0.96603626 1.4921997 -0.9444819
-0.39752975 -0.12175785 0.22699185 0.6802303 -0.5551693 1.5907664 0.5653851 0.25274855
-0.5048943 0.042681042 -0.2564885 0.34029883 1.4486524 0.8996399 1.7816386 1.6149099

running_var f4 [64]
00000000: 9167 0f40 5979 b33f 2f06 f23f 2acc 0f40
00000010: 2bdd a13f 7c33 f13f adcd af3f 7147 dc3f
00000020: ba64 d33f d28d 0a40 2aa3 0a40 77ff d23f
00000030: 9ec6 2440 cbbf dc3f 6f0a fb3f 42ea 1f40
00000040: d696 ee3f 61ae 0140 087f 0540 2787 2740
00000050: 243e d53f 182c d03f 7a1f 1c40 dd7a d83f
00000060: 3aae 2140 7b24 e83f 6ef6 2540 c36d 1040
00000070: c8a6 d13f fbaf d33f e119 2840 2140 e53f
00000080: a464 1140 834d fb3f e529 0340 ef33 a13f
00000090: 3aed 0940 1b5e c63f 6241 ca3f aea3 ba3f
000000a0: 9691 4140 aff0 c13f 2068 1440 ea09 963f
000000b0: 89ed fd3f f178 0e40 a6db e63f c244 be3f
000000c0: 9fcd b63f c186 0840 136d ff3f e08f e83f
000000d0: 8b44 ef3f 11b9 fc3f e87c e03f 04e7 2f40
000000e0: df76 f63f ee9b 4640 918c e63f 6d7c f33f
000000f0: 9fcc 2740 0d46 d13f ea53 3240 a73d 1a40
2.2406962 1.4021407 1.8908137 2.2468362 1.264562 1.8843837 1.3734642 1.7209302
1.6515114 2.164906 2.1662087 1.6484212 2.5746226 1.724603 1.9612559 2.498673
1.8639781 2.0262682 2.0858784 2.617624 1.6659589 1.6263456 2.4394212 1.6912495
2.526259 1.8136133 2.5931659 2.2566993 1.6379023 1.653808 2.6265795 1.7910196
2.2717676 1.963303 2.049432 1.2593974 2.1551042 1.5497469 1.5801203 1.4581201
3.0245109 1.5151576 2.3188553 1.1721776 1.9838115 2.2261317 1.8035781 1.4864733
1.42815 2.1332247 1.9955162 1.8168907 1.8692793 1.9743978 1.7538118 2.748475
1.9255027 3.1032672 1.8011647 1.9022347 2.621864 1.6349503 2.7863717 2.410013
