eindcode/voicerecognition/model1024(80%).pt (torch, 120779 bytes, 26 tensors)

weight f4 [32, 1, 80]
0	0xbdcbbe69	-0.09948427
1	0x3b92ec10	0.0044837072
2	0x3d064902	0.03278447
3	0x3d714e43	0.058912527
4	0x3d1d067c	0.038336262
5	0xbcd202bc	-0.02563607
6	0xbe063ad7	-0.13108383
7	0xbe3ad15d	-0.18243928
8	0xbc9bd264	-0.01902122
9	0x3d1464f2	0.03622908
10	0x3e4b9589	0.19881262
11	0x3e104d70	0.1409204
12	0x3d9a4719	0.07533092
13	0xbe38a11e	-0.18030211
14	0xbe005d4d	-0.12535591
15	0xbe12853f	-0.14308642
16	0x3d9e5691	0.07731355
17	0x3e1b129d	0.15143819
18	0x3dec7449	0.11545617
19	0xbc5c43f2	-0.013443934
20	0xbdeff48e	-0.11716567
21	0xbcb4df31	-0.022079082
22	0x3d6f5f01	0.058440212
23	0x3e09d7b4	0.1346119
24	0x3bcef7bd	0.006316154
25	0xbe1825b8	-0.14858139
26	0xbe8085b4	-0.25102007
27	0xbe3d0d9a	-0.1846222
28	0xbd05d95c	-0.032677993
29	0x3e4109c2	0.18851379
30	0x3eb3b065	0.35095516
31	0x3ed76b7e	0.42074198
32	0x3e188e39	0.14898004
33	0xbe82db0b	-0.25557742
34	0xbf06d1c8	-0.5266385
35	0xbec4fa62	-0.38472277
36	0xbe72e7fd	-0.23721309
37	0x3e8ac94c	0.27106702
38	0x3f11c72d	0.56944543
39	0x3f1c3ec8	0.61033297
40	0x3e645e4d	0.22301598
41	0xbea773df	-0.3270559
42	0xbf30822d	-0.6894863
43	0xbf1460b6	-0.5796007
44	0xbe6f66e9	-0.23379101
45	0x3e53f1cc	0.20697707
46	0x3ecfee12	0.4061132
47	0x3ebe7240	0.3719654
48	0x3ea0b704	0.3138963
49	0x3c891f5a	0.016738582
50	0xbe6868f6	-0.2269629
51	0xbea869bf	-0.32893178
52	0xbe594f65	-0.21221693
53	0xbe80548b	-0.250645
54	0xbdc80d5d	-0.09768174
55	0x3e8c4e62	0.2740355
56	0x3f02639b	0.50933236
57	0x3f001e13	0.5004589
58	0x3e6190da	0.22027913
59	0xbe75a839	-0.23989953
60	0xbf0da5a2	-0.5533086
61	0xbf05f52e	-0.5232724
62	0xbe8094ea	-0.25113612
63	0x3e1f7948	0.15573609
64	0x3f0f596d	0.5599583
65	0x3f2c590f	0.6732339
66	0x3e8a2063	0.26977834
67	0xbe92a483	-0.28641137
68	0xbf4396a9	-0.76401764
69	0xbf0f59a0	-0.5599613
70	0xbe3b3448	-0.18281662
71	0x3ed27142	0.41102034
72	0x3f000211	0.50003153
73	0x3ea564be	0.32303423
74	0xbdaad334	-0.08341065
75	0xbe217724	-0.15768105
76	0xbeb3bb22	-0.35103709
77	0xbdd5cd16	-0.10439508
78	0x3cfea86b	0.031086167
79	0x3e49605c	0.19665664
80	0x3dd39bcd	0.10332451
81	0x3e984e8d	0.2974743
82	0x3e3ad216	0.18244204
83	0x3d2c4c06	0.04206469
84	0xbcc21da8	-0.023695782
85	0xbcbacba9	-0.02280219
86	0xbe0cdc9d	-0.13756032
87	0xbc1f9dc1	-0.009742201
88	0xbd928584	-0.07154372
89	0xbc951f2c	-0.01820334
90	0xbbccf7f1	-0.006255143
91	0xbe845fe3	-0.25854406
92	0xbd1c9094	-0.038223818
93	0xbe09e195	-0.13464959
94	0xbe809d50	-0.2512002
95	0xbd85c3ae	-0.065314636
96	0x3e0ae71e	0.13564727
97	0x3e015943	0.12631707
98	0x3e75a6a3	0.23989348
99	0x3ecbadb5	0.39780965
100	0x3f17685e	0.59143627
101	0x3e3353d4	0.17512447
102	0x3d09fd9b	0.033689123
103	0x3e6fecc5	0.23430164
104	0x3df06d88	0.117396414
105	0xbe1118fe	-0.1416969
106	0xbe519c24	-0.20469719
107	0xbda2b2d5	-0.07944266
108	0xbe93c5ca	-0.2886184
109	0xbeb8a091	-0.36060002
110	0xbe0bb435	-0.13642962
111	0xbeaa1e84	-0.33226407
112	0xbeb3d9e8	-0.35127187
113	0xbde3b7cb	-0.1111904
114	0x3e3e1d7f	0.1856594
115	0x3d23800c	0.039917037
116	0xbcf81d44	-0.030287392
117	0x3e34064f	0.17580532
118	0x3e9088c2	0.28229338
119	0x3eedfdf7	0.46482822
120	0x3ee8f5b8	0.4549997
121	0x3eee8896	0.46588582
122	0x3ea45cb3	0.32101974
123	0x3d8c055f	0.06836962
124	0xbe38f7b3	-0.1806324
125	0xbe694bfa	-0.22782889
126	0xbe5e2b41	-0.21696188
127	0xbf369df8	-0.7133479
128	0xbf20416e	-0.6259984
129	0xbf05276a	-0.52013266
130	0xbe4a7a2e	-0.1977317
131	0xbea7ca0b	-0.32771334
132	0xbe0a8b07	-0.13529597
133	0x3e2e11f9	0.16999044
134	0x3e8b70cb	0.27234492
135	0x3ee54007	0.4477541
136	0x3f2122ce	0.6294373
137	0x3f0e926b	0.55692166
138	0x3efeeff9	0.4979246
139	0x3e733d0f	0.23753761
140	0x3d91cdb4	0.07119313
141	0x3d0cede5	0.03440656
142	0xbeb6962b	-0.35661444
143	0xbed0c808	-0.40777612
144	0xbe971dc2	-0.2951489
145	0xbeb85ac4	-0.3600675
146	0xbefe29d8	-0.496413
147	0xbdf93bb5	-0.12169591
148	0xbe74587f	-0.23861884
149	0xbe69dabf	-0.22837351
150	0x3de9ef42	0.11422588
151	0x3e10a9fe	0.14127347
152	0x3e4518cc	0.1924774
153	0x3ecaba59	0.39595297
154	0x3e0a4769	0.13503803
155	0x3e2d589d	0.16928335
156	0x3d9007fb	0.07032772
157	0x3e0c6a2c	0.13712376
158	0xbdbf863d	-0.09351776
159	0xbe2a6177	-0.16638742
160	0x3c87f1c4	0.016594775
161	0x3d8e4b5e	0.06947969
162	0xbd2793a9	-0.040912304
163	0xbd45002d	-0.04809587
164	0x3e39a08b	0.18127649
165	0x3e808dd7	0.25108215
166	0x3d1bf9f2	0.038080163
167	0xbd83c232	-0.06433524
168	0xbcea0a3c	-0.028569333
169	0x3e1a5b94	0.15073997
170	0x3c7baa9d	0.015360502
171	0xbd8ee3ef	-0.06977069
172	0xbd16cf4d	-0.03681879
173	0x3d192ac4	0.0373943
174	0x3cfd495d	0.030918771
175	0x3e7e9a15	0.24863465
176	0x3e50b931	0.20383145
177	0x3d8feb6a	0.070273235
178	0x3db0f31b	0.08640119
179	0x3dd200ce	0.1025406
180	0x3dcb79fe	0.099353775
181	0x3e87e5ae	0.2654242
182	0x3e9df0a6	0.30847663
183	0x3e25fcf2	0.16209772
184	0x3e85b1ff	0.26112363
185	0x3edd2f4e	0.43200153
186	0x3eecebdd	0.462737
187	0x3e99c4bf	0.30032918
188	0x3de56e0b	0.1120263
189	0x3ece5d0b	0.4030536
190	0x3f1e6a58	0.6188102
191	0x3f00b4b0	0.5027571
192	0x3edc21d8	0.4299457
193	0x3e3cbf82	0.1843243
194	0x3de03070	0.10946739
195	0x3e37d136	0.17950901
196	0x3e97793b	0.2958468
197	0x3e1e4316	0.15455279
198	0x3e0abc6a	0.13548437
199	0xbe062acd	-0.13102265
200	0xbc95d4d7	-0.018289967
201	0xbdac7d80	-0.08422375
202	0xbea49e7d	-0.32152167
203	0xbf0720a6	-0.5278419
204	0xbe6795ae	-0.22615692
205	0xbe8af77e	-0.27141947
206	0xbe8abc23	-0.27096662
207	0xbdf50c58	-0.11965245
208	0xbe9a14ec	-0.30094087
209	0xbe907aa0	-0.28218555
210	0xbf13d279	-0.5774303
211	0xbef96add	-0.48714343
212	0xbe9395f0	-0.2882533
213	0xbf050c2a	-0.51971686
214	0xbeaaa9d3	-0.3333269
215	0xbed96f73	-0.42467842
216	0xbde60e2d	-0.112331726
217	0xbe510a7d	-0.20414157
218	0xbdfb4800	-0.12269592
219	0xbe5c0e3a	-0.21489802
220	0xbe277583	-0.16353421
221	0xbe3b9752	-0.18319443
222	0xbdbbdf7e	-0.09173487
223	0x3d2472c7	0.040148523
224	0x3d0c05c6	0.034185193
225	0xbcc7cf45	-0.024390826
226	0xbd3fab42	-0.046794184
227	0x3e31ddd3	0.17369775
228	0x3e20d923	0.15707831
229	0x3e95ffa1	0.29296592
230	0x3eb06f1d	0.34459773
231	0x3e0fd825	0.14047296
232	0x3c8de43f	0.01732075
233	0x3e529467	0.20564424
234	0x3eb4fe26	0.3535015
235	0x3ea12f3e	0.31481355
236	0x3e8d13c9	0.27554157
237	0x3e8ffe5c	0.28123748
238	0x3f030b69	0.51189286
239	0x3f190e7f	0.59787744
240	0x3d8c288e	0.06843673
241	0x3bca3af6	0.0061715795
242	0xbd8b681f	-0.06806969
243	0xbdad0196	-0.08447568
244	0x3de51aa5	0.11186723
245	0x3d8cb746	0.06870894
246	0xbb9a9af9	-0.004718181
247	0xbdf02660	-0.117260695
248	0xbd89b172	-0.06723298
249	0xbc45471d	-0.0120408805
250	0x3d9c570e	0.07633792
251	0x3deb45c4	0.11487916
252	0x3d81cffb	0.06338497
253	0x3d673129	0.056443367
254	0x3dbbc123	0.09167697
255	0xbb5a3d18	-0.0033300575

bias f4 [32]
0	0xb91a1935	-0.00014695975
1	0x37d85f25	2.5793512e-05
2	0x395f1214	0.00021273672
3	0xb9d62275	-0.00040842933
4	0x35c479f7	1.4638634e-06
5	0xb8c45800	-9.3623996e-05
6	0x3b690ba9	0.0035559929
7	0xb79b2f8f	-1.8499586e-05
8	0xb8c7fcb7	-9.536131e-05
9	0x38dfdf9a	0.00010675118
10	0xb88393ce	-6.2740975e-05
11	0x3959d0a8	0.00020772463
12	0xb990c5a7	-0.00027613083
13	0x396268c4	0.00021592068
14	0xb7d9c84e	-2.596169e-05
15	0xb8cc032d	-9.7280696e-05
16	0xb9520bde	-0.00020031582
17	0x38f9434b	0.000118857795
18	0x375b5cf6	1.3075061e-05
19	0x39ae6851	0.00033265588
20	0xb6c53405	-5.8771134e-06
21	0x38496212	4.801347e-05
22	0x394b11d6	0.00019366233
23	0x3835edd6	4.3375265e-05
24	0x39163a93	0.00014326935
25	0xb7d7d695	-2.572992e-05
26	0x39cd237b	0.00039127082
27	0xb85cd4fa	-5.2650437e-05
28	0xb9ec6077	-0.000450853
29	0x3a78d063	0.0009491501
30	0xb87e803a	-6.067774e-05
31	0xb91bb97c	-0.0001485105

weight f4 [32]
0	0x3f988b95	1.1917597
1	0x3f55f9e1	0.8358441
2	0x3f404a58	0.7511344
3	0x3f73aa2a	0.95181525
4	0x3e6f0cbe	0.23344705
5	0x3f477c87	0.7792439
6	0x3fd4a03d	1.6611401
7	0x3e2bade0	0.16765547
8	0x3edf45bd	0.43607894
9	0x3f3eca31	0.7452727
10	0x3ee1f81d	0.44134608
11	0x3f5b563c	0.8567846
12	0x3ee3ac37	0.44467327
13	0x3f45b1db	0.7722451
14	0x3f84aec7	1.0365838
15	0x3f3400c0	0.70313644
16	0x3f300dca	0.6877104
17	0x3f49f8d5	0.7889531
18	0x3ec4b08a	0.3841594
19	0x3f681bbd	0.90667325
20	0x3f6365a4	0.88826966
21	0x3e89d060	0.2691679
22	0x3f9dd06c	1.232923
23	0x3f0ebc0c	0.55755687
24	0x3f668b88	0.9005666
25	0x3ecbb89a	0.39789277
26	0x3fa770e3	1.3081325
27	0x3f01f1d1	0.5075961
28	0x3f47c257	0.78030914
29	0x3ff553ed	1.9166237
30	0x3e1762ee	0.14783832
31	0x3f7b9d02	0.9828645

bias f4 [32]
0	0xbbbc44cf	-0.0057455073
1	0xbcc02131	-0.023453327
2	0x3d4a6d39	0.04942057
3	0x3d98a3c7	0.07453113
4	0x3d11861a	0.03552828
5	0x3bfd3460	0.007727191
6	0x3b654157	0.0034981573
7	0x3e37638d	0.1790907
8	0x3d926221	0.07147623
9	0x3c660fa2	0.014041813
10	0xbee76025	-0.4519054
11	0xbcfac2df	-0.0306105
12	0x3e17147c	0.14753908
13	0x3d890061	0.066895254
14	0x3d3061c0	0.04306197
15	0x3e6da72a	0.232083
16	0xbceae057	-0.028671427
17	0xbb048703	-0.0020222075
18	0xbef6cea5	-0.48204532
19	0x3d4b8990	0.049691737
20	0xbc8f96a1	-0.01752788
21	0x3d1cec36	0.038311206
22	0xb9304c47	-0.00016813083
23	0x3e159d5a	0.14610806
24	0x3cde05a3	0.027102297
25	0x3daeb206	0.08530049
26	0xbd3143e0	-0.04327762
27	0xbf2978f0	-0.6620016
28	0x3d7da20e	0.061922126
29	0x3cac5ddc	0.02104085
30	0xbdd7e5cd	-0.10541878
31	0x3b9f5161	0.004861996

running_mean f4 [32]
0	0xb9ab06b4	-0.00032620656
1	0x384d3a79	4.8930266e-05
2	0x3885ebf7	6.385886e-05
3	0xb9f1f4d2	-0.00046149507
4	0x39c07d61	0.00036714508
5	0xb8257335	-3.944636e-05
6	0x3b69e56d	0.0035689727
7	0xb6e1c699	-6.7286423e-06
8	0xb8ecbff2	-0.000112891095
9	0x38bb0aac	8.918843e-05
10	0xb98043b4	-0.00024464505
11	0xb916a0f4	-0.00014365074
12	0xb968dafb	-0.0002220682
13	0x396df844	0.00022694567
14	0xb919717d	-0.00014633495
15	0xb8244d87	-3.917285e-05
16	0xb9ee5035	-0.00045454656
17	0x3937a573	0.00017513875
18	0x38e2319e	0.00010785762
19	0x39ce6671	0.00039367707
20	0x386a26d1	5.5826098e-05
21	0xb9bdb644	-0.00036184688
22	0x3a0b3fec	0.00053119543
23	0xb7912327	-1.7301716e-05
24	0x377f42a3	1.52146995e-05
25	0xb81325e0	-3.5082805e-05
26	0x3a36aacb	0.0006968199
27	0x3795a5cc	1.783939e-05
28	0xb9f195bf	-0.00046078672
29	0x3a7b1ef5	0.0009579503
30	0xb910d346	-0.00013811616
31	0xb921807d	-0.00015402022

running_var f4 [32]
0	0x3d8b0f86	0.0679007
1	0x3e45d6d5	0.19320233
2	0x3e15351d	0.14571042
3	0x3ddbc659	0.10731191
4	0x3d48a63e	0.048986666
5	0x3bc2c66b	0.0059440634
6	0x3c07eb1e	0.008295802
7	0x3d2d25f1	0.042272512
8	0x3db9e524	0.09076908
9	0x3e13c2e4	0.14429814
10	0x3d916f7a	0.071013406
11	0x3e3d3465	0.18477018
12	0x3dd45875	0.10368434
13	0x3e21f807	0.15817271
14	0x3e58f7aa	0.21188226
15	0x3e02ad0f	0.12761329
16	0x3e1df037	0.15423666
17	0x3e1aec1f	0.15129136
18	0x3d535fa9	0.0516049
19	0x3e0a1bda	0.13487187
20	0x3e2a295d	0.16617341
21	0x3cedd097	0.029030127
22	0x3e4fe4f5	0.20302184
23	0x3e01a297	0.1265968
24	0x3e17acee	0.14812061
25	0x3db48ddf	0.08816122
26	0x3d6dd8a7	0.058067944
27	0x3d9ab217	0.07553499
28	0x3e2a52ec	0.16633195
29	0x3d10171b	0.035178285
30	0x3d25f735	0.040518958
31	0x3e2fd710	0.17171884

weight f4 [32, 32, 3]
0	0xbe72599f	-0.23667
1	0x3d49227a	0.049105145
2	0x3e0f77ed	0.14010592
3	0xbf0cec78	-0.5504832
4	0x3bcf0e43	0.006318839
5	0x3e4b7801	0.19869997
6	0xbeb54841	-0.35406688
7	0x3e891c94	0.26779616
8	0x3e9ce63c	0.30644405
9	0xbd2e4768	-0.042548567
10	0xbe444005	-0.19165047
11	0x3dfd7c0a	0.12377174
12	0xbdd8a3f2	-0.10578145
13	0x3e11fcac	0.14256543
14	0x3ec398a3	0.3820239
15	0xbb08333c	-0.0020782491
16	0xbe71f82a	-0.23629823
17	0x3d2f031f	0.042727586
18	0xbd80d354	-0.06290308
19	0xbda990be	-0.082795605
20	0x3c734f9b	0.014850522
21	0xbee024b5	-0.43778005
22	0x3da34cfb	0.07973667
23	0x3cdbd017	0.026832623
24	0xbf2815fc	-0.65658545
25	0x3d8999d4	0.067187935
26	0x3e6ebaaf	0.23313402
27	0xbe65912c	-0.2241866
28	0x3ba0c4b7	0.0049062627
29	0x3e80cbdc	0.25155532
30	0xbe524208	-0.20533001
31	0x3d6008da	0.05469594
32	0x3ceedd69	0.029158311
33	0xbee11c2c	-0.43966806
34	0xbe3b745b	-0.18306105
35	0x3e1c3fc8	0.15258706
36	0xbf15350e	-0.5828408
37	0xbe2ca5ff	-0.16860197
38	0x3eaf65a7	0.34257242
39	0xbd8d85b6	-0.06910269
40	0xbcc74342	-0.024324063
41	0x3d5b710d	0.05357461
42	0xbf61e44c	-0.8823898
43	0xbe24e895	-0.16104348
44	0x3e010576	0.1259974
45	0xbf154301	-0.58305365
46	0xbca269e6	-0.019825887
47	0x3ecca123	0.39966688
48	0xbe9e0f9e	-0.3087129
49	0xbe164e19	-0.1467823
50	0x3ec53830	0.3851943
51	0xbf23f913	-0.6405193
52	0xbdfd5267	-0.123692326
53	0x3d9a4066	0.07531814
54	0xbd944049	-0.07238824
55	0x3cd0b28a	0.025475759
56	0xbe94db4c	-0.2907356
57	0xbf3f7229	-0.7478357
58	0x3dbfefc6	0.09371905
59	0x3e82da93	0.25557384
60	0xbea1e7e7	-0.3162224
61	0xbe8c7aa2	-0.2743731
62	0x3eaff629	0.34367493
63	0x3e17c34a	0.1482059
64	0xbe0ef85b	-0.13961928
65	0x3e555316	0.20832476
66	0xbeba55aa	-0.36393481
67	0xbe63ea27	-0.22257291
68	0x3ea2c4c8	0.31790757
69	0xbf0ecdf9	-0.5578304
70	0x3cc68f37	0.024238212
71	0x3eb895ad	0.36051694
72	0x3d6dbc8e	0.058041148
73	0xbe24ec57	-0.16105781
74	0x3e282bf2	0.16423014
75	0xbf1c5cf1	-0.6107932
76	0x3e28de1e	0.16490981
77	0x3e303398	0.17207181
78	0xbe36b8d4	-0.17843944
79	0x3c9a2add	0.018819267
80	0x3dde330e	0.10849582
81	0x3ef216d3	0.47283038
82	0x3c767c0e	0.015044225
83	0xbe93b559	-0.28849295
84	0xbe9ed2dc	-0.31020248
85	0x3e45770d	0.19283696
86	0x3e94e102	0.29077917
87	0xbc222fba	-0.009899074
88	0xbdd90acf	-0.10597765
89	0x3d639633	0.055563163
90	0xbdb83257	-0.089939766
91	0xbe2a820b	-0.1665117
92	0x3e4549f8	0.19266498
93	0xbc1260ec	-0.008934241
94	0xbde94682	-0.113904014
95	0x3e4f7cd8	0.20262468
96	0xbdea245f	-0.114327185
97	0xbeba608a	-0.36401778
98	0xbdae469b	-0.08509561
99	0xbe7e0450	-0.24806333
100	0xbebca62f	-0.36845538
101	0xbd4e9cf6	-0.05044266
102	0x3eb42343	0.35183153
103	0x3e93541a	0.28775102
104	0x3e682aa7	0.2267252
105	0xbe3b586e	-0.18295452
106	0xbda942a2	-0.08264662
107	0x3e9331c6	0.28748912
108	0xbe29632a	-0.16541734
109	0xbe8d5ecc	-0.27611387
110	0xbc413f99	-0.011794948
111	0xbea6c9bd	-0.3257579
112	0xbed2802b	-0.4111341
113	0xbe904a25	-0.28181568
114	0xbf2eaf13	-0.6823589
115	0xbf2cfb4d	-0.67570955
116	0xbe6c2c1a	-0.23063698
117	0x3ba44d25	0.005014079
118	0xbdd6ec8e	-0.10494338
119	0xbeee4af8	-0.46541572
120	0xbe088ccf	-0.13334964
121	0xbdce11fd	-0.10062025
122	0x3d59d5fe	0.053182594
123	0xbe211af8	-0.15732944
124	0x3de8c119	0.113649555
125	0x3e5b1d25	0.21397837
126	0xbe30a97d	-0.17252155
127	0xbe83f95d	-0.25776187
128	0xbd461d9f	-0.048368093
129	0xbd51ce92	-0.05122239
130	0x3cad42e2	0.021150056
131	0x3eac54b4	0.33658373
132	0xbe96165b	-0.2931393
133	0x3e0259b6	0.12729535
134	0xbdc48b04	-0.095968276
135	0xbe3074c5	-0.17232044
136	0x3ee9180e	0.45526165
137	0x3e64483c	0.2229318
138	0x3db5d9af	0.088794105
139	0x3e7024c5	0.23451526
140	0x3e6dc818	0.23220861
141	0x3d865380	0.06558895
142	0xbddbf05e	-0.10739206
143	0xbd75a91a	-0.05997572
144	0xbec340a9	-0.3813527
145	0x3ad242d9	0.0016041651
146	0x3e1e1102	0.15436175
147	0x3c43723f	0.011929094
148	0xbe1392a9	-0.14411415
149	0xbe0c7fcb	-0.13720624
150	0xbe4f3796	-0.20236048
151	0xbeb38690	-0.350636
152	0xbe8d05e9	-0.27543572
153	0x3e1cce0a	0.15312973
154	0x3e2daf59	0.16961421
155	0x3eac6c28	0.33676267
156	0x3db85939	0.09001393
157	0x3d3e2cae	0.04642933
158	0x3db1266f	0.08649909
159	0xbdd583fa	-0.10425563
160	0xbd8601ca	-0.0654331
161	0x3d89747f	0.06711673
162	0x3c099122	0.008396419
163	0x3d755c34	0.059902385
164	0x3ef40aab	0.4766439
165	0x3d355391	0.04426915
166	0xbe0b2180	-0.13586998
167	0xbd86a344	-0.06574109
168	0xbda12b11	-0.078695424
169	0x3dde20a7	0.10846072
170	0x3e9effd5	0.3105456
171	0xbe3075ca	-0.17232433
172	0xbea61381	-0.32436755
173	0xbd3d280d	-0.046180774
174	0x3ed6389a	0.4184006
175	0x3e4b8773	0.19875889
176	0x3e637998	0.22214353
177	0xbe0b2918	-0.13589895
178	0xbec513b9	-0.3849161
179	0xbe9c18ac	-0.30487573
180	0xbe7da881	-0.2477131
181	0xbdca2540	-0.09870386
182	0xbe2a1a22	-0.16611531
183	0x3ee448ff	0.44586942
184	0x3f19e83c	0.60119987
185	0x3f500623	0.81259364
186	0x3d6620fd	0.056183804
187	0xbbd878fa	-0.0066062184
188	0xbe2948e9	-0.1653172
189	0x3e44a09d	0.19201894
190	0xbe647bed	-0.22312899
191	0x3f58bb58	0.84660864
192	0x3e2f6706	0.17129144
193	0xbd543ec9	-0.05181769
194	0x3c362a92	0.011118548
195	0xbd9f397d	-0.07774637
196	0x3cf6f34b	0.030145308
197	0xbdc77f72	-0.09741105
198	0x3d80ddd7	0.062923126
199	0xbdd12c66	-0.102135465
200	0x3e03b337	0.12861334
201	0x3e01f781	0.12692071
202	0x3e7556de	0.23958918
203	0x3dcf067b	0.10108658
204	0xbe0cd4d8	-0.13753068
205	0xbde249c8	-0.11049229
206	0xbd75d3e7	-0.06001654
207	0xbecf499d	-0.4048585
208	0xbf01f3cd	-0.50762635
209	0xbf2b6163	-0.66945475
210	0xbf9073c9	-1.1285335
211	0xbfb2cb0e	-1.3968217
212	0xbfaab30f	-1.3335894
213	0xbd384307	-0.044985797
214	0x3c935fd5	0.017990032
215	0xbdba0d23	-0.09084537
216	0x3d65a616	0.056066595
217	0x3d95fb59	0.073233314
218	0xbe383a9b	-0.17991106
219	0x3be0b0f5	0.0068570324
220	0xbd04a608	-0.032384902
221	0xbdb27f62	-0.087157026
222	0xbed01fac	-0.40649164
223	0xbe98a5bf	-0.29813954
224	0xbea87cc0	-0.32907677
225	0xbc86d8e8	-0.01646085
226	0xbe9e3361	-0.30898574
227	0x3c9f9743	0.019481307
228	0xbeac880b	-0.33697543
229	0xbbdd761f	-0.006758466
230	0x3e973a10	0.29536486
231	0x3d9748eb	0.07386955
232	0x3c1bbc06	0.0095052775
233	0xbdcefca4	-0.10106781
234	0x3df7cccb	0.12099608
235	0xbd248804	-0.040168777
236	0x3d84bf93	0.064818524
237	0x3eace82e	0.3377089
238	0xbe858bf4	-0.26083338
239	0xbde71d23	-0.11284854
240	0x3dbee6fb	0.093214
241	0xbd899783	-0.06718352
242	0xbe59fbb3	-0.21287422
243	0x3c72383d	0.014783916
244	0xbd6807a5	-0.056647915
245	0x3cf76d65	0.03020353
246	0xbe37288d	-0.17886563
247	0xbe0eb03f	-0.1393442
248	0xbdb267c5	-0.08711199
249	0x3e600b00	0.21879196
250	0x3d8a42df	0.06751036
251	0xbe03f941	-0.12888052
252	0xbdb33d20	-0.08751893
253	0x3d7c00b9	0.061524127
254	0xbe2a5b31	-0.1663635
255	0x3e0a0265	0.13477476

bias f4 [32]
0	0xb8460433	-4.721079e-05
1	0x3795f03a	1.7874048e-05
2	0x37e64ef1	2.7454897e-05
3	0xb73f7944	-1.14127215e-05
4	0xb888f395	-6.530356e-05
5	0xb5a8399d	-1.2533743e-06
6	0x3885ec73	6.385976e-05
7	0x3885d514	6.381623e-05
8	0x37b53991	2.1603688e-05
9	0x387edf25	6.076614e-05
10	0x387dd1cd	6.0515293e-05
11	0x38837a75	6.269376e-05
12	0x38506a32	4.9689967e-05
13	0x38652837	5.4635308e-05
14	0x387500c9	5.8413283e-05
15	0x36afd030	5.2396426e-06
16	0x38713eba	5.7517296e-05
17	0xb8758981	-5.8540612e-05
18	0xb879022d	-5.9368253e-05
19	0x3776580b	1.4683242e-05
20	0x3710cf0a	8.631274e-06
21	0x38861033	6.392635e-05
22	0xb8090b57	-3.2673906e-05
23	0xb812de3e	-3.501609e-05
24	0xb8072b30	-3.222673e-05
25	0x383d4741	4.5127472e-05
26	0xb8bd9ee8	-9.041821e-05
27	0xb90490cf	-0.00012642446
28	0xb80f000f	-3.409391e-05
29	0xb8a27b27	-7.747701e-05
30	0x33fa59fe	1.1657902e-07
31	0xb8851033	-6.3449515e-05

weight f4 [32]
0	0x3f92cd72	1.1468947
1	0x3eb6984a	0.35663062
2	0x4002d6d7	2.0443628
3	0x3eb24e37	0.34825298
4	0x3f571e4d	0.8403061
5	0x3fa3839f	1.2774543
6	0x3f79343d	0.97345334
7	0x3ff447d8	1.9084425
8	0x3fbb12ba	1.461509
9	0x3fe121e3	1.7588466
10	0x3ee2608b	0.4421428
11	0x3fe97d17	1.8241299
12	0x3e85ec4c	0.26156843
13	0x3f4ba8fc	0.79554725
14	0x3f3e68bd	0.7437857
15	0x3e90f288	0.28310037
16	0x3e96ce68	0.2945435
17	0x3f1e537b	0.6184613
18	0x40051831	2.0796015
19	0x3eb8fd6e	0.36130852
20	0x3ed472fb	0.41493973
21	0x3e89e58f	0.26932952
22	0x3f9858d4	1.1902108
23	0x3f4ba197	0.7954344
24	0x3ecf72aa	0.4051717
25	0x3f7ab2e0	0.9792919
26	0x3fdfd291	1.7486135
27	0x3ffb9b2b	1.9656729
28	0x3f0c2196	0.5473875
29	0x3fcc529f	1.5962714
30	0x3f054547	0.52058834
31	0x3f688f2c	0.9084346

bias f4 [32]
0	0xbeb8a125	-0.36060444
1	0x3e06a455	0.13148625
2	0xbedeb69a	-0.4349869
3	0xbf7b9eba	-0.9828907
4	0x3f03947b	0.5139844
5	0xbee82d52	-0.45347077
6	0xbe6eb9cd	-0.23313065
7	0xbf04ebfa	-0.5192257
8	0xbd8bcbc9	-0.06825978
9	0xbe781de8	-0.24230158
10	0x3de2ceaa	0.11074574
11	0xbd5bfbbc	-0.05370687
12	0x3e43fc31	0.19139172
13	0x3f1c1265	0.6096557
14	0x3dc57d1d	0.09643004
15	0x3e583d27	0.21117078
16	0x3e6a218d	0.22864361
17	0x3e8d9fe8	0.2766106
18	0xbf20eff4	-0.6286614
19	0x3e15d540	0.1463213
20	0x3e7ec96d	0.24881525
21	0x3e38d414	0.18049651
22	0xbe8d6503	-0.27616128
23	0x3d983b96	0.0743324
24	0x3e31906a	0.17340246
25	0xbe1d54ff	-0.15364455
26	0xbe63f360	-0.22260809
27	0xbf0d4574	-0.551841
28	0x3e0c60a9	0.13708748
29	0xbedc7421	-0.4305735
30	0x3d842ed4	0.06454244
31	0x3e0007a1	0.1250291

running_mean f4 [32]
0	0xbfdbab8e	-1.7161729
1	0x3f0d33ec	0.5515735
2	0xc051221d	-3.267707
3	0x3e73a0a8	0.23791754
4	0xc043e34c	-3.060748
5	0xc07475f9	-3.8197005
6	0xbfc7a350	-1.5596714
7	0xc0315e90	-2.7713966
8	0xbfe159cd	-1.760553
9	0xc02eb109	-2.7295554
10	0xbf0e1638	-0.55502653
11	0xc07724a9	-3.8616126
12	0xbe1721c3	-0.14758973
13	0xbf921a4b	-1.1414274
14	0xbf58be61	-0.84665495
15	0x3f90309d	1.1264836
16	0xbf2bc42d	-0.67096215
17	0xbf891cf4	-1.0711961
18	0xc0907cee	-4.51525
19	0x405fa0bf	3.4941862
20	0x3ffb6959	1.9641525
21	0xbec19105	-0.37805954
22	0xc087f7b1	-4.248986
23	0xbf0ac9a4	-0.5421393
24	0x406a7af1	3.6637537
25	0xbfaf777d	-1.370834
26	0xc05b23e6	-3.424066
27	0xc089873d	-4.2977586
28	0xbd8366d5	-0.06416098
29	0xc06f8e32	-3.743054
30	0xbcf43daa	-0.02981456
31	0xc0720ae8	-3.7819157

running_var f4 [32]
0	0x414ca068	12.789162
1	0x4186e367	16.861036
2	0x42a30588	81.5108
3	0x413c4e1c	11.76907
4	0x4242082f	48.50799
5	0x420d337c	35.300278
6	0x414d758e	12.8412
7	0x425d2ead	55.29558
8	0x42882e79	68.09077
9	0x42a413d4	82.03873
10	0x4134699a	11.275782
11	0x429ebae2	79.365005
12	0x40fcda19	7.9016232
13	0x4223b11d	40.922962
14	0x415890a3	13.535312
15	0x41cd7224	25.680733
16	0x4130e332	11.055468
17	0x4175bbf9	15.358392
18	0x42c2861c	97.26193
19	0x421449ea	37.07218
20	0x41c0792c	24.059166
21	0x413fefb5	11.996022
22	0x42595a95	54.33846
23	0x41a1e037	20.23448
24	0x4217d732	37.96015
25	0x4212414b	36.563763
26	0x42e36900	113.70508
27	0x42ebc578	117.88568
28	0x41ac1df6	21.51463
29	0x4274c314	61.190506
30	0x418da04d	17.703272
31	0x4236d43a	45.707253

weight f4 [64, 32, 3]
0	0xbde76679	-0.11298842
1	0xbe741064	-0.23834378
2	0xbedaa824	-0.42706406
3	0xbd32cd08	-0.043652564
4	0xbee30af0	-0.44344282
5	0xbf2ded77	-0.6794047
6	0xbeb34f86	-0.3502161
7	0xbe87d10b	-0.26526675
8	0xbe54115b	-0.20709746
9	0xbbbecc5c	-0.0058227014
10	0xbeb2ae81	-0.3489876
11	0xbe33ffc5	-0.17578037
12	0xbe67216d	-0.22571345
13	0xbde67442	-0.11252643
14	0xbd953bbf	-0.07286786
15	0xbee16d74	-0.4402882
16	0x3d8d554b	0.06901034
17	0xbe8e70e9	-0.2782052
18	0xbd894f50	-0.06704581
19	0xbe27406b	-0.16333167
20	0xbe39a5af	-0.1812961
21	0xbeb4bd15	-0.35300508
22	0xbec61e45	-0.3869497
23	0xbe8a8013	-0.27050838
24	0x3a15d7c1	0.0005716049
25	0x3e46ad23	0.19401984
26	0x3f084f8a	0.53246367
27	0xbef6922d	-0.48158398
28	0xbede7c49	-0.43454197
29	0x3d6d95b7	0.058004107
30	0x3de80f9c	0.11331102
31	0x3e4bf378	0.19917095
32	0x3e25053f	0.16115282
33	0xbe4fbb0a	-0.20286193
34	0x3e62660f	0.22109245
35	0x3e8819ce	0.26582187
36	0xbe0cd58c	-0.13753337
37	0xbe69776c	-0.22799462
38	0xbe56edc2	-0.20989135
39	0x3d4e0146	0.050294183
40	0x3d70d3c5	0.05879571
41	0x3e4f10c0	0.20221233
42	0xbdd12efb	-0.10214039
43	0x3de78be2	0.113059774
44	0xbe758311	-0.23975779
45	0x3e2d951a	0.16951409
46	0xbd225bbc	-0.039638266
47	0xbd7ed4f4	-0.062214807
48	0x3dfac172	0.12243928
49	0xbd8c3d1d	-0.06847594
50	0xbeb57b79	-0.35445765
51	0xbdb5994f	-0.08867132
52	0xbe7173c8	-0.23579323
53	0x3d0e2670	0.034704626
54	0xbecf51b3	-0.4049202
55	0xbe8c1896	-0.27362508
56	0xbe0e7cee	-0.13914844
57	0x3e21358c	0.15743083
58	0xbb27cf2a	-0.0025605657
59	0xbd53565f	-0.05159604
60	0x3da3e8d1	0.080033906
61	0x3d4bb872	0.049736448
62	0xbe2a42a5	-0.16626985
63	0xbdc1c00c	-0.09460458
64	0xbf21b6c9	-0.63169533
65	0xbf4d1adb	-0.80119103
66	0x3ce1261b	0.02748399
67	0xbecaf5d4	-0.39640677
68	0xbf26f2cc	-0.6521423
69	0x3e66f201	0.22553255
70	0x3dcd81aa	0.10034497
71	0x3ea424dc	0.3205937
72	0x3cbd79ce	0.02312937
73	0xbcc5c3c9	-0.02414121
74	0xbb20e1ba	-0.0024548606
75	0xbe6c63fa	-0.23085013
76	0x3dc28cb3	0.094994925
77	0x3e6c887a	0.23098937
78	0xbddad553	-0.106852196
79	0x3ecb6919	0.3972862
80	0x3ebeb177	0.3724477
81	0xbdd381da	-0.103275016
82	0x3e794a3d	0.24344726
83	0x3f2ff421	0.68731886
84	0x3cdb3543	0.026758796
85	0x3e5b4a85	0.21415146
86	0x3e63ca9a	0.22245255
87	0xbe8d9fa1	-0.2766085
88	0xbf376c97	-0.7165007
89	0xbf42869f	-0.75986665
90	0x3ec0e469	0.37674263
91	0xbe44e094	-0.19226295
92	0xbf225872	-0.63416207
93	0xbec244f6	-0.37943238
94	0xbebe001c	-0.37109458
95	0xbe767edc	-0.2407183
96	0xbdf9e2fd	-0.12201498
97	0xbe568990	-0.20950913
98	0xbde435fb	-0.111431085
99	0xbcb5a8bc	-0.022175185
100	0x3e182d49	0.14861025
101	0xbddff40b	-0.109352194
102	0xbdab6361	-0.083685644
103	0xbdf4d335	-0.11954347
104	0xbeab54b1	-0.33463052
105	0x3d99a7fb	0.07502743
106	0x3de6f878	0.112778604
107	0x3d9bbe8a	0.07604702
108	0x3de4308b	0.11142071
109	0x3e96dbf3	0.29464683
110	0x3ef329c6	0.47492808
111	0xbe091525	-0.13386972
112	0x3e1d5ed8	0.15368211
113	0xbc7350e9	-0.014850833
114	0x3d897c39	0.06713147
115	0xbdd58ba1	-0.10427023
116	0xbdb07cfd	-0.086175896
117	0x3ec5fde2	0.3867026
118	0xbe5de662	-0.21669915
119	0xbe9bde30	-0.30442953
120	0x3d8fa50c	0.07013902
121	0xbebfc934	-0.37458193
122	0xbf62df34	-0.8862183
123	0xbe27870e	-0.16360113
124	0xbeaa4200	-0.3325348
125	0x3d566dcc	0.052350804
126	0xbe9db370	-0.30800962
127	0xbe75d26c	-0.24006051
128	0x3decce5a	0.11562796
129	0x3ec226c3	0.37920198
130	0x3ee80eac	0.45323694
131	0x3dfeb2c7	0.12436443
132	0x3e0b8fc4	0.13629061
133	0x3e18b4db	0.14912741
134	0xbeadfedf	-0.33983514
135	0x3e9828c9	0.29718617
136	0x3edeadc1	0.4349194
137	0x3e266694	0.16250068
138	0x3dd3667a	0.1032228
139	0x3df88924	0.121355325
140	0xbd8b0b3b	-0.067892514
141	0xbeae301f	-0.34021088
142	0xbdd43b1a	-0.10362835
143	0x3d831a32	0.06401481
144	0xbef0ff91	-0.47069982
145	0xb8b7204c	-8.732136e-05
146	0xbc149e66	-0.009070968
147	0xbc6b9ca8	-0.0143806115
148	0xbbe12f18	-0.006872069
149	0xbe971a56	-0.2951228
150	0xbe8edb99	-0.27901915
151	0xbe3dac53	-0.18522768
152	0xbe37aaaf	-0.17936204
153	0xbe480b19	-0.19535483
154	0xbd449b1d	-0.04799949
155	0xbd05eb54	-0.03269513
156	0x3ddf06fb	0.10890003
157	0xbe4fe3c8	-0.20301735
158	0xbe87d54e	-0.26529926
159	0xbe554796	-0.20828089
160	0x3d15ef58	0.03660521
161	0x3de93775	0.11387531
162	0xbe092487	-0.1339284
163	0x3ee16beb	0.44027647
164	0x3ef9ad7d	0.48765174
165	0xbe8e8016	-0.27832097
166	0x3da63cab	0.0811704
167	0x3e46b95a	0.19406644
168	0xbdb27a9c	-0.08714792
169	0xbd39229a	-0.045199014
170	0x3d1fc69e	0.039007775
171	0xbdd63739	-0.10459752
172	0xbef861ea	-0.48512203
173	0xbdf63436	-0.12021677
174	0x3edbb0a1	0.42908195
175	0x3ed22bb5	0.4104897
176	0xbd9f7205	-0.077854194
177	0x3ec9c174	0.39405406
178	0x3ea2f9fc	0.31831348
179	0xbdb0194f	-0.08598577
180	0xbdbac44b	-0.09119471
181	0xbe0118d1	-0.12607123
182	0xbe852aca	-0.26009208
183	0xbd31e953	-0.043435406
184	0x3ed339c6	0.41255015
185	0x3e1da702	0.1539574
186	0xbe96ffa6	-0.2949192
187	0x3de65b34	0.11247864
188	0x3c6ab72e	0.0143259
189	0xbd9657f9	-0.07340998
190	0xbe54b7ac	-0.2077319
191	0xbe0711a2	-0.1319032
192	0x3d59c213	0.0531636
193	0x3daadfc7	0.083434634
194	0xbd0626ee	-0.03275197
195	0x3d6343b0	0.055484474
196	0x3e6b84d2	0.22999886
197	0x3edef92b	0.43549475
198	0xbe4cb45a	-0.19990674
199	0xbbea6e29	-0.0071542454
200	0xbdca1738	-0.0986771
201	0xbc98e231	-0.018662544
202	0x3c615ba9	0.013754764
203	0xbe4219a4	-0.18955094
204	0x3c6506e2	0.013978692
205	0x3c9dca17	0.019261403
206	0x3d685519	0.05672178
207	0x3dd50e1f	0.10403084
208	0xbe37df03	-0.17956166
209	0xbe241a61	-0.16025688
210	0xbc7aa7bc	-0.01529878
211	0xbe8dea23	-0.27717695
212	0xbec2a21c	-0.38014305
213	0xbe72d409	-0.23713697
214	0xbd06677c	-0.032813534
215	0xbe2e2ead	-0.17009993
216	0x3e34a8da	0.17642537
217	0xbde54a6b	-0.11195835
218	0xbe8e49f6	-0.27790803
219	0xbdef2611	-0.116771825
220	0xbd0069f8	-0.03135106
221	0x3e52bbad	0.20579405
222	0xbf0783b3	-0.5293533
223	0xbed3b11b	-0.41346058
224	0xbf04f7e5	-0.5194076
225	0x3d5c5b6a	0.053798117
226	0xbe2765b8	-0.16347396
227	0xbea5ba85	-0.32368866
228	0xbedaa2e1	-0.42702392
229	0xbdfdd12d	-0.12393413
230	0xbef43ec4	-0.47704136
231	0xbdce6d1f	-0.10079407
232	0xbdb1b123	-0.08676364
233	0xbed69349	-0.41909245
234	0xbe7d42cc	-0.24732512
235	0xbe1c01b1	-0.1523502
236	0xbddfb4b1	-0.10923136
237	0x3e165c45	0.14683636
238	0xbe290efd	-0.16509624
239	0x3b3dd7af	0.0028967669
240	0x3e0cf727	0.13766156
241	0xbe0175c5	-0.12642582
242	0xbe859017	-0.26086494
243	0xbeea86b3	-0.45805892
244	0xbde89fe4	-0.11358622
245	0xbf040522	-0.5157033
246	0xbe5ff627	-0.21871243
247	0xbe66dd77	-0.2254542
248	0xbe98873e	-0.29790682
249	0x3ca54ae9	0.020177322
250	0x3d6c8879	0.057747338
251	0x3d90aac8	0.07063824
252	0x3cfbf076	0.03075431
253	0x3e257241	0.16156866
254	0x3ee28590	0.44242525
255	0x3e3c913d	0.18414779

bias f4 [64]
0	0x3868acff	5.5474226e-05
1	0x388e6d2f	6.791425e-05
2	0x3853dc2a	5.0511364e-05
3	0xb88582e8	-6.3663174e-05
4	0xb826ce9b	-3.97699e-05
5	0x38896a7d	6.552504e-05
6	0x386ab9bc	5.5962926e-05
7	0x3862c589	5.4066568e-05
8	0xb86b13d9	-5.604685e-05
9	0x37f85404	2.9603027e-05
10	0xb8620589	-5.3887754e-05
11	0xb871f474	-5.7686542e-05
12	0xb84cc665	-4.882216e-05
13	0xb880e476	-6.14607e-05
14	0x3829a821	4.0449322e-05
15	0x3894364b	7.067303e-05
16	0xb86b8531	-5.615241e-05
17	0x37ecad08	2.8213966e-05
18	0xb857643e	-5.1353352e-05
19	0xb854dfbc	-5.0753108e-05
20	0xb840b258	-4.5942463e-05
21	0xb7fec11f	-3.0369089e-05
22	0xb879a7c7	-5.952248e-05
23	0x384e74f7	4.922316e-05
24	0x361db891	2.3502255e-06
25	0x3880246f	6.110302e-05
26	0xb807bd62	-3.2362885e-05
27	0x387b0e0e	5.9856153e-05
28	0x37fb0447	2.9923523e-05
29	0x3879bddb	5.9543043e-05
30	0x368731d6	4.029115e-06
31	0xb7b61693	-2.1706603e-05
32	0xb87a71da	-5.9710677e-05
33	0x37f4434f	2.911841e-05
34	0x38169438	3.5900826e-05
35	0xb866e0a8	-5.50455e-05
36	0xb86ff825	-5.7213143e-05
37	0x38238c42	3.8992854e-05
38	0xb7cd7e91	-2.4496841e-05
39	0xb880d234	-6.142669e-05
40	0xb7a3c7f6	-1.9524228e-05
41	0xb76b47e3	-1.4023829e-05
42	0x384f700f	4.945701e-05
43	0xb62e3f56	-2.5964887e-06
44	0xb8881d31	-6.490423e-05
45	0xb837b794	-4.380157e-05
46	0xb86a99e5	-5.5933273e-05
47	0xb88a236e	-6.586952e-05
48	0x384f2ccd	4.939437e-05
49	0xb6e75158	-6.893806e-06
50	0xb86c57e1	-5.634863e-05
51	0x37d2c855	2.5127238e-05
52	0xb848fb9e	-4.7918053e-05
53	0xb850d409	-4.9788538e-05
54	0x3884cd5c	6.332502e-05
55	0x388ea4b4	6.801766e-05
56	0xb7e7570b	-2.7577878e-05
57	0xb88fe5a4	-6.861545e-05
58	0xb70a126b	-8.229729e-06
59	0x383b9e77	4.4731856e-05
60	0xb87c6c83	-6.018254e-05
61	0xb8a6a8fc	-7.9469726e-05
62	0x386fc502	5.716552e-05
63	0xb792e5b4	-1.751152e-05

weight f4 [64]
0	0x3f5b8e6f	0.8576421
1	0x3fac32c4	1.3452992
2	0x3ee91957	0.45527145
3	0x3f96310e	1.173372
4	0x3f42c4f4	0.76081777
5	0x3f54e143	0.8315622
6	0x3f6d2c83	0.92646044
7	0x3fb1de8d	1.3896042
8	0x3f98cb59	1.1937057
9	0x3f92cb96	1.146838
10	0x3fc76fb4	1.5580964
11	0x3f2fd0f9	0.6867824
12	0x3f9bb2d4	1.2163949
13	0x3fbf888b	1.4963545
14	0x3f7f5685	0.99741393
15	0x3fb4cd0e	1.4125078
16	0x3f439c37	0.7641024
17	0x3faaf079	1.3354636
18	0x3fa38c5c	1.2777209
19	0x3f80c636	1.0060489
20	0x3f5e8728	0.8692498
21	0x3fa9647c	1.323379
22	0x3f08db6b	0.53459805
23	0x3f88dd4d	1.0692536
24	0x3f34032c	0.7031734
25	0x3f977278	1.1831808
26	0x3fb4e34e	1.4131868
27	0x3f7afee9	0.9804521
28	0x3f984963	1.1897396
29	0x3e67af13	0.2262538
30	0x3f99dbd3	1.202021
31	0x3f8bc42e	1.0919244
32	0x3f1fa345	0.62358505
33	0x3f67b680	0.9051285
34	0x3f23b52a	0.6394831
35	0x3f8b6b49	1.0892116
36	0x3f5d3a51	0.8641711
37	0x3f8ea8f8	1.1145315
38	0x3f479dc2	0.77975094
39	0x3faaaa8b	1.3333296
40	0x3f8a7bcc	1.081903
41	0x3f806def	1.0033549
42	0x3f83c571	1.0294629
43	0x3fbb188d	1.4616867
44	0x3f4a3e9c	0.79001784
45	0x3fa54394	1.2911248
46	0x3fb28b70	1.3948803
47	0x3fcc2620	1.5949135
48	0x3f8509b9	1.0393592
49	0x3f693e5f	0.91110796
50	0x3ec33cd2	0.3813234
51	0x3f787e44	0.97067666
52	0x3f681d83	0.9067003
53	0x3f6ad4e2	0.91731083
54	0x3fa476ed	1.2848793
55	0x3fa3ae36	1.278754
56	0x3f810eab	1.0082601
57	0x3f9ebd88	1.240159
58	0x3f2c98f3	0.6742088
59	0x3f809495	1.0045344
60	0x3f7b99bf	0.9828147
61	0x3f816c29	1.0111133
62	0x3f4d3592	0.80159867
63	0x3fac9f4d	1.3486115

bias f4 [64]
0	0x3e088c1d	0.13334699
1	0xbdbca4e6	-0.092111394
2	0xbe5fd89f	-0.21859978
3	0xbefa40d7	-0.48877594
4	0xbeb69a3d	-0.3566455
5	0xbe9019e8	-0.28144765
6	0xbd7eaceb	-0.062176626
7	0xbf60d79d	-0.87829
8	0xbe82254e	-0.25419086
9	0xbeeed30e	-0.46645397
10	0xbe81751e	-0.25284666
11	0xbe5cfbd8	-0.21580446
12	0xbf282b62	-0.65691197
13	0xbefa792c	-0.48920572
14	0xbeab447f	-0.33450696
15	0xbebd4d1e	-0.36972898
16	0xbd97e28f	-0.074162595
17	0xbf3dffe5	-0.7421859
18	0xbedc2da3	-0.43003568
19	0xbeaf3209	-0.3421786
20	0xbf2cd0a8	-0.67505884
21	0xbf107a68	-0.5643678
22	0x3e13f696	0.14449534
23	0xbea80c56	-0.32821912
24	0xbe0a0579	-0.1347865
25	0xbf2f546e	-0.68488204
26	0xbf267bdb	-0.6503274
27	0xbea1fbca	-0.31637412
28	0xbedfa219	-0.43678358
29	0xbbe4527c	-0.0069678407
30	0xbf139fba	-0.576656
31	0xbf0cd04d	-0.5500534
32	0xbe16afdb	-0.14715521
33	0xbec63683	-0.38713464
34	0xbdc189f2	-0.09450139
35	0xbe72ee5e	-0.23723742
36	0xbe84a658	-0.2590816
37	0xbec5acd3	-0.38608417
38	0xbe6bea6e	-0.23038647
39	0xbf5f6129	-0.8725763
40	0xbde3c3f5	-0.1112136
41	0xbe660eab	-0.22466533
42	0xbe7a7873	-0.2446001
43	0xbecfbd67	-0.4057419
44	0xbe5b6700	-0.2142601
45	0xbedc6199	-0.4304321
46	0xbecceb95	-0.40023485
47	0xbf0b1fe7	-0.54345554
48	0xbe708910	-0.23489785
49	0xbe65c3aa	-0.22437921
50	0xbf1677d6	-0.58776605
51	0xbe956ac2	-0.29183012
52	0xbebc4b75	-0.3677632
53	0x3e7fd00e	0.2498171
54	0xbe24099d	-0.16019292
55	0xbea57452	-0.32315308
56	0xbecdc1a7	-0.40186808
57	0xbe7a3775	-0.24435218
58	0xbe5203cf	-0.20509265
59	0xbeda0bec	-0.4258722
60	0xbe7cdad0	-0.24692845
61	0xbe8e8066	-0.27832335
62	0xbe6a682a	-0.22891298
63	0xbed03004	-0.40661633

running_mean f4 [64]
0	0xbfe83c41	-1.8143388
1	0x3f04dc88	0.51899004
2	0xc01be32e	-2.435741
3	0x3f301dcc	0.68795466
4	0xbf243e10	-0.641572
5	0xbf91fc27	-1.1405076
6	0xbed34e19	-0.4127052
7	0x3e1ed5ad	0.15511198
8	0xbe23b43d	-0.15986724
9	0xbf295931	-0.6615172
10	0xbf7dde5d	-0.99167424
11	0xbfc0345d	-1.501598
12	0x3f86abea	1.0521214
13	0xbfe372be	-1.7769392
14	0xbfa0a959	-1.2551681
15	0xbf9907ae	-1.1955469
16	0xbf703046	-0.9382366
17	0x3f24ca1b	0.6437089
18	0x3f3bc269	0.7334352
19	0xbe88a1b8	-0.26685882
20	0xbf5296dc	-0.82261443
21	0x3eac768a	0.33684188
22	0xc0364b5e	-2.84835
23	0xc006f6c6	-2.1088119
24	0xbfc1814e	-1.5117586
25	0xbea27a53	-0.3173395
26	0xbecb8f4b	-0.3975776
27	0xbf7b473c	-0.9815557
28	0xbfee7e40	-1.8632278
29	0xbf514083	-0.8173906
30	0xbe8a631e	-0.27028745
31	0xbf0ad4a0	-0.5423069
32	0xc016811a	-2.3516297
33	0xbf8d2bdc	-1.102901
34	0xbf727888	-0.94715166
35	0xbfbaf518	-1.4606047
36	0xbf4ca73b	-0.79942673
37	0xbf966afd	-1.17514
38	0xbe8545ac	-0.26029718
39	0x3ead1222	0.33802897
40	0xbe987cea	-0.29782802
41	0xc043888b	-3.055209
42	0xc003a370	-2.0568504
43	0xbfcc323f	-1.5952834
44	0xbeef4901	-0.46735385
45	0x3f38c4e6	0.72175443
46	0xbfcdd417	-1.608035
47	0xbf6b5b6a	-0.9193636
48	0xbffb083e	-1.961189
49	0xbec77ba2	-0.38961512
50	0x402e043b	2.7190082
51	0xbfa7bbf2	-1.3104231
52	0xbfbccfd1	-1.475092
53	0xbf8d263a	-1.1027291
54	0xbfb7762c	-1.4332938
55	0xbfd7ae10	-1.6849995
56	0xbf60f7d7	-0.87878174
57	0xbfbbe590	-1.4679432
58	0xc010713e	-2.2569118
59	0x3e8b13ff	0.27163693
60	0xbf0f2d91	-0.55928904
61	0xbfbc8f24	-1.4731183
62	0xbd43c7e8	-0.047798067
63	0xbf5e4595	-0.86824924

running_var f4 [64]
0	0x4009e25b	2.1544406
1	0x3fd378a8	1.6521196
2	0x3f52b304	0.82304406
3	0x3fd0577b	1.6276697
4	0x3f9415b3	1.1569122
5	0x3fdfdcb2	1.7489226
6	0x3fc8e1e8	1.5693941
7	0x3fb6d697	1.4284238
8	0x3fd47a84	1.6599889
9	0x3fe1dbd5	1.7645212
10	0x4007d5f5	2.122434
11	0x3f75fb5c	0.9608667
12	0x3f6617f9	0.8988033
13	0x4015a0c8	2.3379383
14	0x3fa537ec	1.2907691
15	0x4018f2ab	2.3898113
16	0x3fb8fbd8	1.4451857
17	0x3f80ac9c	1.0052676
18	0x3fbf1172	1.4927199
19	0x3fbd6cfb	1.4798883
20	0x3f2e1628	0.6800256
21	0x3fd80cca	1.6878903
22	0x3ff49f62	1.911114
23	0x3fdfaa56	1.7473857
24	0x3f9b9f1f	1.2157935
25	0x3ff1ff27	1.8905991
26	0x3f9ee7dd	1.2414509
27	0x3fdc5138	1.7212286
28	0x3fbd48aa	1.47878
29	0x3f94726c	1.1597419
30	0x3f52a668	0.82285166
31	0x3fcd069e	1.6017644
32	0x3faf3d11	1.3690511
33	0x3f74cc16	0.9562391
34	0x3fd53c67	1.6659058
35	0x3ff2a2bc	1.8955913
36	0x3fa309ae	1.2737329
37	0x3f969dc7	1.17669
38	0x3f9862b3	1.1905121
39	0x3fbb190f	1.4617022
40	0x3fc5ecb6	1.5462863
41	0x3ff9e131	1.9521848
42	0x402a952c	2.6653547
43	0x3fd49f20	1.6611061
44	0x3fa35752	1.2761023
45	0x3f7c04c8	0.98444796
46	0x4062cbe5	3.5436947
47	0x3feb24c8	1.83706
48	0x400d34ab	2.2063396
49	0x3f87de33	1.0614685
50	0x3f204307	0.62602276
51	0x3fc45c8f	1.5340747
52	0x4022b91c	2.5425482
53	0x3fb75498	1.4322691
54	0x40181cde	2.376762
55	0x40132a80	2.299469
56	0x3fa1003e	1.2578199
57	0x40451726	3.0795379
58	0x3fa1a089	1.2627116
59	0x3fb2c20f	1.3965472
60	0x3f971f1e	1.1806371
61	0x402f3c2b	2.7380474
62	0x3f48e89b	0.7847993
63	0x3fcbc7cc	1.5920348

weight f4 [64, 64, 3]
0	0x3d731478	0.059345692
1	0xbe4dedf0	-0.20110297
2	0xbdd34813	-0.103164814
3	0xbe22eac1	-0.15909864
4	0xbe81fe38	-0.25389266
5	0x3e41e0b3	0.18933372
6	0xbd6e7777	-0.0582194
7	0x3ed6456f	0.4184985
8	0xbe019480	-0.12654305
9	0xbc98806b	-0.018615922
10	0xbe4f3cac	-0.20237988
11	0x3d78321d	0.060594667
12	0x3e0b9888	0.13632405
13	0x3ede22ef	0.43386027
14	0xbd7a6001	-0.061126713
15	0x3eb67357	0.35634872
16	0x3ea91259	0.3302181
17	0xbe1782e7	-0.14796029
18	0xbe08df77	-0.13366495
19	0xbd55606a	-0.0520939
20	0x3e165eca	0.14684597
21	0xbe373b22	-0.17893651
22	0xbe8ffe8f	-0.281239
23	0x3c9b7ca8	0.01898034
24	0xbe8e844b	-0.27835307
25	0x3e827982	0.25483328
26	0xbe45b8ee	-0.19308826
27	0xba8f79dd	-0.0010946352
28	0x3e360ae8	0.17777598
29	0xbcf32fab	-0.029685816
30	0xbdfa3a5b	-0.12218162
31	0x3dd68851	0.10475219
32	0x3ecb1053	0.39660892
33	0xbb4009ea	-0.0029302784
34	0xbc970bc2	-0.018438224
35	0xbe70f37a	-0.23530379
36	0x3ded3b0f	0.1158353
37	0xbd76ba9a	-0.06023655
38	0xbe859d9d	-0.26096812
39	0x3e658431	0.22413708
40	0xbdc3dd3a	-0.0956368
41	0x3e3bd138	0.1834153
42	0xbe80fa2d	-0.2519087
43	0xbe1ed39b	-0.15510409
44	0x3e6f0dd2	0.23345116
45	0xbe0180bf	-0.12646769
46	0xbcefa863	-0.029255098
47	0x3ef935de	0.4867391
48	0xbd25656b	-0.040379923
49	0x3c6f84f0	0.014619097
50	0x3b906c42	0.0044074366
51	0x3e98fe4c	0.29881513
52	0x3d44e651	0.04807121
53	0xbe8cab12	-0.27474266
54	0x3d2c2663	0.042028796
55	0x3e470f19	0.19439353
56	0x3ee9a60e	0.45634502
57	0x3d98d564	0.07462576
58	0xbe2a4628	-0.16628325
59	0xbe4ad0e6	-0.19806251
60	0x3f074a3d	0.52847654
61	0x3dbe97d8	0.09306306
62	0xbe9f1a22	-0.31074625
63	0x3c29d987	0.010366804
64	0xbecb3115	-0.39685884
65	0xbef01f0c	-0.46898687
66	0x3d45fc16	0.04833611
67	0x3ee7cfa9	0.4527562
68	0xbdd44380	-0.10364437
69	0x3e4bfac1	0.19919874
70	0xbdf0c4fa	-0.1175632
71	0xbdf3a85c	-0.118973464
72	0xbe32bb7c	-0.17454332
73	0xbd8a7b34	-0.067617804
74	0xbe51d45c	-0.20491165
75	0x3e732173	0.23743229
76	0x3e5d242b	0.21595828
77	0x3d78fdfa	0.060789086
78	0x3d47570f	0.04866701
79	0xbcfd00f4	-0.030884244
80	0x3ea0d078	0.3140905
81	0x3e5d0307	0.21583186
82	0x3a501319	0.0007937416
83	0xbf1d6f34	-0.6149781
84	0xbe50573b	-0.20345776
85	0x3ebb38c1	0.36566737
86	0x3edec7a9	0.43511704
87	0x3db9e98a	0.09077747
88	0xbe6d3b68	-0.23167193
89	0xbee8c1a4	-0.45460236
90	0x3ebc7f0b	0.36815676
91	0xbeb64a4a	-0.35603553
92	0xbe36f28b	-0.1786596
93	0x3f2b24aa	0.6685282
94	0x3ec1b0f3	0.37830314
95	0xbed57ae5	-0.41695324
96	0x3e86a512	0.26297814
97	0x3e7364e6	0.23768958
98	0xbeab6a94	-0.3347975
99	0x3f27f181	0.6560288
100	0x3edfdc66	0.43722838
101	0xbebb45b3	-0.36576614
102	0x3dc99669	0.098431416
103	0xbe0519a0	-0.12998056
104	0xbf2602b6	-0.64847887
105	0x3b137bbd	0.0022504174
106	0x3cc1d68b	0.023661872
107	0xbeee06bc	-0.46489513
108	0xbe4ed7dc	-0.20199531
109	0xbd913995	-0.07091061
110	0x3e21fd50	0.15819287
111	0x3d9eae36	0.07748072
112	0x3d3654ce	0.04451447
113	0x3d4bcf15	0.049758036
114	0xbd9981ec	-0.07495484
115	0xbd8d74e6	-0.06907062
116	0x3cd5ab8f	0.026082782
117	0x3df2f93e	0.118639454
118	0xbc89f138	-0.016838655
119	0x3de46e24	0.1115382
120	0x3e19951b	0.14998285
121	0x3dff7395	0.124732174
122	0x3ce8fca4	0.028440781
123	0x3e00ba5f	0.12571095
124	0x3d404028	0.046936184
125	0xbdc71e62	-0.09722592
126	0x3d4a83e6	0.049442194
127	0x3d10b30d	0.035327006
128	0x3e3e4799	0.18582
129	0x3dae3b19	0.08507366
130	0x3dfcc4ed	0.12342248
131	0x3e131dd7	0.14366852
132	0xbdf6405a	-0.12023993
133	0x3e56620a	0.20935836
134	0x3e4fe0c3	0.20300584
135	0x3d26a2cd	0.040682603
136	0x3e627592	0.22115162
137	0xbeabd2a0	-0.33559132
138	0xbdb76b0d	-0.08955965
139	0x3d8c9be5	0.06865672
140	0xbdd98c81	-0.10622502
141	0xbded57ba	-0.11588998
142	0xbe29848a	-0.16554466
143	0x3d8d11e7	0.0688818
144	0x3d501152	0.050797768
145	0x3dfdb89d	0.12388728
146	0x3d780e56	0.060560547
147	0xbedf29c9	-0.43586567
148	0xbe1596ec	-0.14608353
149	0xbe2dec97	-0.16984783
150	0xbe99481a	-0.29937822
151	0xbeaaac47	-0.33334562
152	0xbd2c7119	-0.042100046
153	0x3ecb7c96	0.3974349
154	0xbe0381a3	-0.12842421
155	0xbecc887c	-0.3994788
156	0xbe0703e2	-0.13185075
157	0x3d423bfe	0.047420494
158	0xbda756cd	-0.08170853
159	0x3e272142	0.1632128
160	0x3d44dcdd	0.048062194
161	0x3eaf38ae	0.3422293
162	0xbcf5a1a4	-0.029984303
163	0x3e3f8375	0.1870249
164	0x3e8d1aa1	0.2755938
165	0xbe9ddaf9	-0.30831125
166	0xbc9a7a63	-0.018857187
167	0x3d79ea2b	0.061014336
168	0x3dc2ab97	0.095053844
169	0xbec16678	-0.3777349
170	0xbc67550a	-0.014119396
171	0x3db850c3	0.08999779
172	0xbcb2ca4c	-0.021824978
173	0xbd8aaa2c	-0.06770739
174	0xbdd5aa60	-0.10432887
175	0xbea94525	-0.33060566
176	0xbf3ab276	-0.7292856
177	0x3e9cfe47	0.30662748
178	0x3ebc433a	0.3677004
179	0xbe9566c0	-0.29179955
180	0x3dec9439	0.11551709
181	0x3dc08cfe	0.09401892
182	0xbe9499f4	-0.29023707
183	0xbed3aa49	-0.41340855
184	0xbe6408f8	-0.22269046
185	0x3ca5052c	0.020144068
186	0x3e7eacde	0.24870631
187	0xbd997f4a	-0.074949816
188	0xbf31c783	-0.69445056
189	0xbed2c67b	-0.41167054
190	0xbec29372	-0.38003117
191	0x3df830d8	0.12118691
192	0x3e137aa4	0.14402252
193	0xbe0327c7	-0.12808143
194	0xbeb66aa6	-0.3562824
195	0xbe1cc146	-0.15308103
196	0xbe76d456	-0.24104437
197	0x3ec27555	0.37980142
198	0x3c4e6505	0.012597327
199	0x3e23cadc	0.15995353
200	0xbe6525df	-0.22377728
201	0xbc4f8598	-0.012666129
202	0xbe38abb9	-0.18034257
203	0xbe03be3c	-0.12865537
204	0xbd2bae94	-0.041914538
205	0xbe95d477	-0.2926366
206	0xbd8a2200	-0.06744766
207	0xbe4f94a1	-0.20271541
208	0xbdf7236f	-0.12067305
209	0xbf15078a	-0.5821463
210	0xbe42e0cb	-0.19031064
211	0xbe06d4fc	-0.13167185
212	0x3e43896d	0.19095393
213	0xbe77e5c7	-0.24208747
214	0xbedae2d2	-0.42751175
215	0xbf8d8247	-1.1055382
216	0x3c0c7af0	0.008574232
217	0x3d092c63	0.033489596
218	0xbe9981ab	-0.2998174
219	0xbe902149	-0.28150395
220	0xbdd5f1f9	-0.10446543
221	0x3e1354a2	0.14387754
222	0xbd9f4056	-0.07775943
223	0x3db43e62	0.08800961
224	0x3dedd2c9	0.1161247
225	0xbdabaf8a	-0.08383091
226	0xbd9cc939	-0.07655568
227	0xbe1adfd7	-0.1512445
228	0xbd4c3627	-0.04985633
229	0xbe7ac0ec	-0.24487656
230	0xbf45d15d	-0.7727259
231	0x3ed10414	0.40823424
232	0x3da6f5e9	0.081523724
233	0xbf236200	-0.6382141
234	0x3e1e2222	0.15442708
235	0xbe4da602	-0.20082858
236	0xbe8fb3a8	-0.28066754
237	0xbedadf98	-0.42748713
238	0x3e58b07c	0.21161073
239	0x3f5fb71f	0.87388796
240	0x3e43059f	0.19045113
241	0xbd03ce86	-0.032179378
242	0xbe6fdb17	-0.2342342
243	0x3ec7a32c	0.38991678
244	0x3d5daa46	0.054117464
245	0x3ea9dc65	0.3317596
246	0x3eabca63	0.33552846
247	0x3e83ac57	0.25717422
248	0x3f4c0528	0.7969537
249	0xbeae2ebc	-0.3402003
250	0xbdbb6ce6	-0.0915163
251	0x3f12aad7	0.5729193
252	0xbc23a932	-0.00998907
253	0x3d52db0a	0.051478423
254	0x3e0ca5f9	0.13735189
255	0x3dde939f	0.10868

bias f4 [64]
0	0xb8188e89	-3.637237e-05
1	0x381c0815	3.7200825e-05
2	0x369f746d	4.752123e-06
3	0xb7939bc5	-1.7596301e-05
4	0xb881c23a	-6.187377e-05
5	0x383de73f	4.5276476e-05
6	0xb8460a74	-4.7216614e-05
7	0x387f6391	6.0889466e-05
8	0x378b3c68	1.659822e-05
9	0xb765cf53	-1.3697735e-05
10	0x386d40a3	5.65654e-05
11	0x387b2ef6	5.98868e-05
12	0x38751685	5.8433525e-05
13	0x386b0e0f	5.604146e-05
14	0x3895e493	7.147449e-05
15	0xb87b9ad8	-5.9987273e-05
16	0x3858edb8	5.1719806e-05
17	0x3830094b	4.1970325e-05
18	0xb889fab4	-6.579366e-05
19	0xb8693146	-5.559742e-05
20	0xb85326a4	-5.0342307e-05
21	0x3741e82f	1.1557756e-05
22	0xb87136df	-5.750998e-05
23	0x3857194e	5.128356e-05
24	0x386ec6fc	5.692894e-05
25	0x370f24ed	8.532062e-06
26	0x38473ff1	4.7504847e-05
27	0xb8813f0d	-6.1629435e-05
28	0xb88c0013	-6.675734e-05
29	0x37f01c1d	2.862332e-05
30	0xb86f7fe3	-5.7101144e-05
31	0x38791359	5.9384245e-05
32	0xb88793e4	-6.4648484e-05
33	0x37a2acab	1.939231e-05
34	0xb879a4aa	-5.951958e-05
35	0xb882399d	-6.2096144e-05
36	0xb81d5eda	-3.7520054e-05
37	0x386c3b22	5.6321856e-05
38	0x38910251	6.91457e-05
39	0x37b0e293	2.1086342e-05
40	0x3880726b	6.1248276e-05
41	0xb70402e4	-7.868486e-06
42	0xb881e1b9	-6.1932435e-05
43	0x3836aba8	4.355205e-05
44	0xb6e30f3f	-6.766902e-06
45	0x38020ed7	3.1008236e-05
46	0x389dff86	7.533938e-05
47	0xb8073278	-3.223351e-05
48	0x36e5747f	6.8382938e-06
49	0xb878efcb	-5.9351132e-05
50	0x385ee804	5.3145006e-05
51	0xb881933b	-6.178623e-05
52	0x386328e4	5.41591e-05
53	0x387a772d	5.9715636e-05
54	0xb77ab45f	-1.4943157e-05
55	0x382c4a30	4.1077088e-05
56	0x387c724f	6.018794e-05
57	0xb81fc72b	-3.8094044e-05
58	0x38806d93	6.1239254e-05
59	0x3882c9b7	6.2364554e-05
60	0x380e2858	3.389301e-05
61	0x3835ffd1	4.339201e-05
62	0xb77b661c	-1.498454e-05
63	0xb8353766	-4.3205357e-05

weight f4 [64]
0	0x3fcb0297	1.5860165
1	0x3fb8f2fb	1.4449152
2	0x3fbee839	1.4914619
3	0x3f96be73	1.177687
4	0x3fcdc0a5	1.6074415
5	0x3f8f8181	1.1211396
6	0x3fd69314	1.6763635
7	0x3fc4a567	1.5362977
8	0x3fa5f8a6	1.2966506
9	0x3fcdee40	1.6088333
10	0x3fb6b297	1.4273251
11	0x3f88b269	1.0679446
12	0x3fa7b7b4	1.3102937
13	0x3fdb01b0	1.710989
14	0x3fb5ce34	1.4203553
15	0x3fc53d0d	1.5409256
16	0x3f94008c	1.1562667
17	0x3f894759	1.0724899
18	0x3facdd9c	1.350513
19	0x3fbe1ed1	1.4853154
20	0x3fb8ec3e	1.4447095
21	0x3fc63f94	1.5488153
22	0x3fa719ee	1.3054788
23	0x3fd3575f	1.6511039
24	0x3fb6a471	1.4268934
25	0x3fb351a3	1.4009289
26	0x3fd87c66	1.6912963
27	0x3fbe0e89	1.4848186
28	0x3fa5a910	1.2942219
29	0x3fca8ea9	1.5824786
30	0x3fe03fe1	1.7519494
31	0x3fa1da10	1.2644672
32	0x3fcf354d	1.6188141
33	0x3f9027dc	1.1262164
34	0x3fae62d3	1.3623909
35	0x3fba85b8	1.4572058
36	0x3faaea2e	1.3352716
37	0x3faafa61	1.335766
38	0x3fba16fd	1.4538265
39	0x3fa475f4	1.2848496
40	0x3fae71d3	1.3628486
41	0x3fc75bf3	1.5574936
42	0x3fad7b54	1.3553262
43	0x3fb14990	1.3850574
44	0x3fb3f397	1.4058713
45	0x3fbd344b	1.4781584
46	0x3fa31560	1.2740898
47	0x3fa4f40e	1.288698
48	0x3fa3d0cf	1.2798098
49	0x3fb5d498	1.4205503
50	0x3f9a797a	1.2068322
51	0x3fb848ca	1.4397213
52	0x3fb132ad	1.384359
53	0x3fb6a401	1.42688
54	0x3fbbacf5	1.4662157
55	0x3f8573d4	1.0425973
56	0x3fb6504f	1.4243258
57	0x3fbe27a2	1.4855845
58	0x3f934121	1.1504251
59	0x3fb9eaf3	1.4524826
60	0x3fa3e13d	1.2803112
61	0x3fa8c18f	1.3184069
62	0x3fa17972	1.2615187
63	0x3fb76152	1.4326575

bias f4 [64]
0	0xbf4d679b	-0.80236214
1	0xbf3d8e97	-0.740457
2	0xbe956d57	-0.29184982
3	0xbddabe08	-0.10680777
4	0xbb113693	-0.0022157773
5	0xbe7b2c9d	-0.24528737
6	0xbf1635b6	-0.58675706
7	0xbf100dde	-0.5627116
8	0xbf2d8b18	-0.67790365
9	0xbf04c2cd	-0.5185974
10	0x3c89cac3	0.016820317
11	0xbee63a1c	-0.4496621
12	0xbd8ff49c	-0.070290774
13	0xbdc95c7f	-0.09832095
14	0xbf4d0146	-0.8008007
15	0xbec313e7	-0.38101122
16	0xbf1cad84	-0.61202264
17	0xbeda37ae	-0.42620605
18	0xbe579fea	-0.21057096
19	0xbdbe0fb6	-0.092803404
20	0xbeeb58bf	-0.45966145
21	0xbe915062	-0.2838164
22	0xbf2607d3	-0.6485569
23	0xbea2dced	-0.31809178
24	0xbec56e6b	-0.38560805
25	0x3dac22b7	0.08405059
26	0x3bee7dad	0.0072781653
27	0x3e1ef607	0.1552354
28	0xbf14c424	-0.58111787
29	0xbe8664f2	-0.2624889
30	0xbeeacac2	-0.45857817
31	0xbf0a74a3	-0.54084224
32	0x3d8e1db4	0.06939259
33	0xbea909e8	-0.3301537
34	0xbeac88ae	-0.33698028
35	0xbef434d0	-0.47696543
36	0xbedfb56b	-0.43693098
37	0xbe2da802	-0.16958621
38	0xbea10047	-0.31445524
39	0xbee3ce47	-0.44493315
40	0xbef281f1	-0.47364762
41	0xbf42e32a	-0.76127875
42	0x3ef3cfda	0.47619516
43	0xbf12d6e9	-0.57359177
44	0xbee4cd4d	-0.44687882
45	0xbeadc14c	-0.33936536
46	0xbf25fa20	-0.64834785
47	0xbecf1b37	-0.4045045
48	0xbeb72dd2	-0.35777146
49	0x3d9fa5c2	0.07795288
50	0xbef565f8	-0.47929358
51	0xbf227a5e	-0.6346797
52	0xbecb4081	-0.3969765
53	0xbeccc791	-0.39996007
54	0xbf3c425c	-0.73538756
55	0xbe2561c4	-0.16150576
56	0xbf2833ef	-0.65704244
57	0xbef81c9b	-0.48459324
58	0xbe888b0c	-0.26668584
59	0xbe6ff757	-0.23434196
60	0xbed46996	-0.41486806
61	0xbf02ee05	-0.5114444
62	0xbf19e282	-0.6011125
63	0xbf2dcd42	-0.67891324

running_mean f4 [64]
0	0x3e044006	0.12915048
1	0x3efca9b1	0.49348214
2	0x3f87465d	1.0568348
3	0x3ff2639d	1.893665
4	0x3f3f23c8	0.7466397
5	0xbfa4123b	-1.2818063
6	0xbbef2bce	-0.007298923
7	0xbdf1125b	-0.11771079
8	0xbd9607a0	-0.07325673
9	0x3feaa3cc	1.8331237
10	0x3fa1d14c	1.2641997
11	0x3cf00930	0.029301256
12	0x3f475a40	0.77872086
13	0x3fef94e9	1.8717319
14	0x3f696875	0.91175014
15	0x3d8d6d0c	0.06905565
16	0xbe0c7026	-0.13714656
17	0x3f906b16	1.128268
18	0x3e292ed8	0.16521776
19	0x3f4efd24	0.8085501
20	0x3e4a6a08	0.1976701
21	0x40221a05	2.532838
22	0x3f43aacc	0.7643249
23	0xbe01d906	-0.12680444
24	0xbec2c7c0	-0.38043022
25	0x3ff7d54b	1.9361967
26	0x40203638	2.5033092
27	0x3fbb9d36	1.4657352
28	0x3e4ad487	0.19807635
29	0x3f4260b1	0.7592879
30	0x3fb6cc12	1.4281027
31	0xbdd515f8	-0.10404581
32	0x3f860fa9	1.0473529
33	0x40257eb9	2.5858595
34	0xbf1b8978	-0.60756636
35	0x3ee79a94	0.4523512
36	0x3f63e029	0.89013916
37	0x3f28cb70	0.6593542
38	0x3f49484f	0.7862596
39	0x4016f7c3	2.3588722
40	0x3e82d7b7	0.25555202
41	0x3e0469d6	0.12930998
42	0x40463e93	3.0975692
43	0xbfc217b7	-1.5163487
44	0x3d52cff6	0.05146786
45	0x3e8c3a42	0.27388197
46	0xbf4cb161	-0.7995816
47	0xbf8ee502	-1.1163638
48	0x3fc3ef14	1.5307336
49	0x3f0ece3c	0.5578344
50	0x3ee08fc3	0.4385968
51	0x3f61829b	0.88089913
52	0xbfa08619	-1.2540923
53	0xbf55985f	-0.83435625
54	0xbe0ba6a1	-0.13637783
55	0xbea70578	-0.3262136
56	0x3e4ce649	0.20009722
57	0x3fdbedc4	1.7181935
58	0x3ff407f6	1.906493
59	0x3f9cf620	1.2262611
60	0x3f1b9446	0.6077312
61	0xbf01a013	-0.5063488
62	0xbe98aa04	-0.29817212
63	0x3f4f4949	0.809712
