eindcode/voicerecognition/model.pt (torch, 120779 bytes, 26 tensors)

weight f4 [32, 1, 80]
-0.09913645 -0.07511678 -0.038284928 -0.035925046 0.09489015 0.09032813 0.09874137 0.0010511428
0.0923557 -0.10751281 -0.070621714 0.008075051 0.08608472 -0.058735006 0.024442002 0.022154793
0.088470384 0.038096413 0.021579519 0.06500916 -0.094192214 0.04687658 0.07245329 -0.0048269257
0.1099492 0.035865158 0.028384 -0.017132506 0.07038851 -0.01635389 0.07859613 0.069141954
0.020500809 0.086535096 -0.10833465 -0.098139115 0.08728467 -0.04328849 -0.006343439 0.03228244
0.027571797 0.110943675 0.068852216 -0.006070569 0.02907075 -0.059017774 -0.026656471 -0.0855697
0.037462667 0.10524385 0.012836829 -0.0019481033 0.0906637 0.09679133 0.04713899 0.016285658
0.07855238 0.038361028 0.09110513 0.10272281 0.074496835 0.017095596 -0.06658302 0.04053785
-0.062331956 -0.10821688 0.0052158087 -0.062286492 -0.06102113 0.032721356 0.0075272173 0.10379852
-0.04383707 -0.017965563 -0.090325736 0.06552027 -0.028240077 0.049444437 -0.02747184 -0.051747266
-0.09884058 0.016601056 -0.03626106 -0.08669088 -0.06688167 0.060814008 -0.032336086 0.049685806
-0.062422544 -0.06767638 0.03374234 -0.0043818504 0.07975131 -0.062229007 -0.005296573 0.06751737
0.035639465 0.08084482 0.09531975 -0.102908984 0.05973494 0.0900746 0.09949052 -0.070204206
0.060926855 0.0638278 0.012214139 0.067584455 -0.07590528 0.07624912 -0.075021535 -0.10876528
-0.016233139 -0.030115463 0.046678394 0.032347903 -0.081593096 0.103353694 0.022995219 -0.034227565
0.052867875 0.08626285 -0.018088125 0.10560188 -0.06699222 -0.06749874 0.022946954 0.009608194
-0.08330334 -0.07510933 -0.060885426 0.060775205 -0.027038708 0.03974986 0.06225267 0.0044440776
-0.09938897 0.10479854 -0.06514959 0.0612946 0.021600991 -0.052812096 0.09305331 -0.055361755
-0.06756584 -0.0052184165 0.103885114 -0.009763747 -0.011537388 -0.05554147 0.07525715 0.021899894
-0.043396503 -0.05595797 -0.00057566166 -0.011531949 0.0038324967 -0.07145944 -0.036078356 -0.05831267
-0.015465349 0.08228351 0.10620609 0.008059561 0.01602757 0.022926003 0.0035370514 0.09041904
0.071705 -0.09575168 0.055815697 0.107702926 -0.092481285 -0.044312052 -0.11026899 -0.008167721
-0.108573034 -0.06106674 -0.08055581 0.042171493 0.070974275 0.08861898 -0.110614754 -0.01012098
0.09452863 0.07902232 -0.015903197 0.08842124 0.06851131 0.010936469 -0.041306175 0.08816683
0.03451529 0.09523314 0.041023538 -0.013655059 0.093646646 0.07909055 -0.03410139 -0.052625623
-0.028192952 0.10219224 -0.03583742 0.10602634 0.05454491 0.09093456 0.078187704 -0.0010967478
-0.075907156 -0.030438319 -0.008030854 0.0189531 0.014005944 0.0018669441 0.01845719 -0.08594669
-0.066845894 -0.062480975 -0.030429915 0.10514605 -0.077527985 -0.0663504 0.10728058 -0.048713133
0.094323784 -0.08044286 -0.04927127 -0.06797445 0.00075712055 0.05000654 0.087402284 -0.10510458
-0.00809519 0.03991291 0.028406575 -0.08182025 -0.0692752 0.020849064 0.0679339 0.045037523
0.014213964 -0.028796181 0.09229395 -0.045499057 0.11127044 0.06629932 -0.01249291 0.05831921
-0.08167814 0.022268936 0.10564332 -0.08707086 -0.06024715 0.033306837 -0.09019429 -0.043454543
00000000: 0d08 cbbd d4d6 99bd a8d0 1cbd 2426 13bd
00000010: c455 c23d f4fd b83d ea38 ca3d 80c6 893a
00000020: fc24 bd3d ad2f dcbd 1ea2 90bd 384d 043c
00000030: 304d b03d 1e94 70bd 983a c83c f87d b53c
00000040: f62f b53d fc0a 1c3d 88c7 b03c 8623 853d
00000050: d9e7 c0bd a801 403d 6462 943d 302b 9ebb
00000060: 0c2d e13d 58e7 123d 9085 e83c 7859 8cbc
00000070: da27 903d 98f8 85bc 02f7 a03d 4c9a 8d3d
00000080: 50f1 a73c 5039 b13d 8fde ddbd 29fd c8bd
00000090: 4ec2 b23d 464f 31bd a0dc cfbb 983a 043d
000000a0: 40de e13c 7036 e33d 6402 8d3d a0eb c6bb
000000b0: c825 ee3c 9fbc 71bd ac5e dabc 2b3f afbd
000000c0: 7472 193d 168a d73d 9051 523c 8057 ffba
000000d0: e4ad b93d 883a c63d d014 413d 8069 853c
000000e0: 12e0 a03d 7420 1d3d 5495 ba3d 5660 d23d
000000f0: cc91 983d 100c 8c3c ae5c 88bd 040b 263d
00000100: cb4f 7fbd d0a0 ddbd 60e9 aa3b 1f20 7fbd
00000110: 4bf1 79bd d406 063d e0a6 f63b 5294 d43d
00000120: 808e 33bd 842c 93bc b3fc b8bd 7e2f 863d
00000130: bc57 e7bc 4086 4a3d a00c e1bc f1f4 53bd
00000140: ee6c cabd f0fe 873c 7a86 14bd fd8a b1bd
00000150: 42f9 88bd 1c18 793d d872 04bd 5883 4b3d
00000160: c8ae 7fbd ea99 8abd 6835 0a3d a095 8fbb
00000170: a854 a33d d8e3 7ebd e08e adbb 8c46 8a3d
00000180: b0fa 113d f891 a53d 0037 c33d f2c1 d2bd
00000190: a0ac 743d 0879 b83d b0c1 cb3d 39c7 8fbd
000001a0: 708e 793d 26b8 823d d01d 483c b869 8a3d
000001b0: 3a74 9bbd 8028 9c3d e4a4 99bd 55c0 debd
000001c0: 5cfb 84bc b4b4 f6bc d831 3f3d 3c7f 043d
000001d0: 481a a7bd 1aab d33d 7860 bc3c 3432 0cbd
000001e0: fc8b 583d 94aa b03d 8c2d 94bc cc45 d83d
000001f0: 3833 89bd c83c 8abd 40fb bb3c b06b 1d3c
00000200: f19a aabd ecd2 99bd ff62 79bd 6cef 783d
00000210: 4880 ddbc c0d0 223d a8fc 7e3d a09f 913b
00000220: 728c cbbd 9ea0 d63d 266d 85bd 0c10 7b3d
00000230: 90f4 b03c 7f51 58bd bc92 be3d 02c3 62bd
00000240: f65f 8abd 40ff aabb b8c1 d43d 20f8 1fbc
00000250: 5007 3dbc 747f 63bd 6c20 9a3d 6867 b33c
00000260: 88c0 31bd 2f34 65bd 00e8 16ba 80f0 3cbc
00000270: a02a 7b3b 5459 92bd e6c6 13bd 44d9 6ebd
00000280: 6062 7dbc 4284 a83d 9482 d93d 400c 043c
00000290: 404c 833c 50cf bb3c e0cd 673b 9e2d b93d
000002a0: 12da 923d 7519 c4bd 009f 643d 5a93 dc3d
000002b0: d466 bdbd 8e80 35bd b5d4 e1bd e8d1 05bc
000002c0: 8a5b debd 1e21 7abd 72fa a4bd 04bc 2c3d
000002d0: f65a 913d de7d b53d fd89 e2bd 78d2 25bc
000002e0: 3a98 c13d 74d6 a13d 6c47 82bc 3216 b53d
000002f0: a84f 8c3d e02e 333c aa30 29bd d090 b43d
00000300: e85f 0d3d 9809 c33d 4c08 283d 78b9 5fbc
00000310: d0c9 bf3d 3afa a13d e6ad 0bbd f78d 57bd
00000320: e8f4 e6bc 2a4a d13d 42ca 12bd 5624 d93d
00000330: 7c6a 5f3d e63b ba3d e020 a03d c0c0 8fba
00000340: 3675 9bbd c859 f9bc d893 03bc 8843 9b3c
00000350: 3079 653c 40b4 f43a 8833 973c d104 b0bd
00000360: 80e6 88bd 0dec 7fbd 2848 f9bc d056 d73d
00000370: fec6 9ebd b8e2 87bd ecb5 db3d 6c87 47bd
00000380: d42c c13d 3abf a4bd acd0 49bd 3036 8bbd
00000390: 8079 463a a8d3 4c3d f8ff b23d 1241 d7bd
000003a0: b0a1 04bc b87b 233d e8b4 e83c 6091 a7bd
000003b0: 28e0 8dbd a8cb aa3c ee20 8b3d 4479 383d
000003c0: b0e1 683c f8e5 ebbc 9c04 bd3d 385d 3abd
000003d0: c2e1 e33d f0c7 873d 10af 4cbc 20e0 6e3d
000003e0: de46 a7bd 586d b63c 865b d83d 3552 b2bd
000003f0: b7c5 76bd c06c 083d c9b7 b8bd 64fd 31bd

bias f4 [32]
0.005040586 -0.049579747 0.055477172 0.00183741 0.08898921 -0.101015285 -0.08433857 -0.04872264
-0.026679412 0.030677468 -0.041032553 0.07334934 -0.009893633 0.037280813 0.02395171 0.06988229
-0.09088472 0.040413097 -0.10664049 0.09708451 -0.10361349 -0.10113737 -0.07593416 0.0019489378
-0.06552298 -0.019509226 -0.099250205 -0.09372673 -0.056858275 0.101616055 0.10929018 0.061128065
00000000: 802b a53b 2214 4bbd 083c 633d 40d5 f03a
00000010: fa3f b63d 1ae1 cebd b3b9 acbd 6491 47bd
00000020: c88e dabc 504f fb3c c011 28bd 2e38 963d
00000030: e818 22bc c4b3 183d 6036 c43c 721e 8f3d
00000040: c521 babd 3488 253d 5466 dabd 3ed4 c63d
00000050: 4f33 d4bd 1c21 cfbd 5e83 9bbd 8073 ff3a
00000060: ea30 86bd d0d1 9fbc b143 cbbd cdf3 bfbd
00000070: 39e4 68bd 141c d03d 88d3 df3d 6c61 7a3d

weight f4 [32]
1.0 1.0 1.0 1.0 1.0 1.0 1.0 1.0
1.0 1.0 1.0 1.0 1.0 1.0 1.0 1.0
1.0 1.0 1.0 1.0 1.0 1.0 1.0 1.0
1.0 1.0 1.0 1.0 1.0 1.0 1.0 1.0
00000000: 0000 803f 0000 803f 0000 803f 0000 803f
00000010: 0000 803f 0000 803f 0000 803f 0000 803f
00000020: 0000 803f 0000 803f 0000 803f 0000 803f
00000030: 0000 803f 0000 803f 0000 803f 0000 803f
00000040: 0000 803f 0000 803f 0000 803f 0000 803f
00000050: 0000 803f 0000 803f 0000 803f 0000 803f
00000060: 0000 803f 0000 803f 0000 803f 0000 803f
00000070: 0000 803f 0000 803f 0000 803f 0000 803f

bias f4 [32]
0.0 0.0 0.0 0.0 0.0 0.0 0.0 0.0
0.0 0.0 0.0 0.0 0.0 0.0 0.0 0.0
0.0 0.0 0.0 0.0 0.0 0.0 0.0 0.0
0.0 0.0 0.0 0.0 0.0 0.0 0.0 0.0
00000000: 0000 0000 0000 0000 0000 0000 0000 0000
00000010: 0000 0000 0000 0000 0000 0000 0000 0000
00000020: 0000 0000 0000 0000 0000 0000 0000 0000
00000030: 0000 0000 0000 0000 0000 0000 0000 0000
00000040: 0000 0000 0000 0000 0000 0000 0000 0000
00000050: 0000 0000 0000 0000 0000 0000 0000 0000
00000060: 0000 0000 0000 0000 0000 0000 0000 0000
00000070: 0000 0000 0000 0000 0000 0000 0000 0000

running_mean f4 [32]
0.0009032232 -0.009438452 0.010458316 0.00030984887 0.016895365 -0.019438155 -0.016079374 -0.0094833225
-0.00503244 0.005766356 -0.007706512 0.0140398275 -0.0017460743 0.006947786 0.0044613346 0.013121516
-0.017238125 0.007835348 -0.020158695 0.0182557 -0.019638488 -0.019293075 -0.014284473 0.00039197717
-0.012476663 -0.0037940862 -0.018725801 -0.017966514 -0.010858481 0.019071672 0.020790812 0.011700877
00000000: 48c6 6c3a bda3 1abc 5b59 2b3c 3673 a239
00000010: 2668 8a3c c43c 9fbc e4b8 83bc f05f 1bbc
00000020: 2be7 a4bb b3f3 bc3b e986 fcbb 4e07 663c
00000030: 88dc e4ba 41aa e33b 6330 923b a1fb 563c
00000040: f836 8dbc d55f 003c d923 a5bc fa8c 953c
00000050: e5e0 a0bc 830c 9ebc 6c09 6abc 4982 cd39
00000060: eb6a 4cbc 34a6 78bb da66 99bc 832e 93bc
00000070: c5e7 31bc 323c 9c3c 7e51 aa3c 09b5 3f3c

running_var f4 [32]
0.8102473 0.8102025 0.8102724 0.81023484 0.81018716 0.8103456 0.81017566 0.8102672
0.81021667 0.81014574 0.8102684 0.8102039 0.8101914 0.81033033 0.81022066 0.81030184
0.81022793 0.81026006 0.8101379 0.8102689 0.8101929 0.81024456 0.8103252 0.81020564
0.81018305 0.81018615 0.81026363 0.810234 0.8102345 0.8102751 0.81036425 0.810221
00000000: 5e6c 4f3f 6e69 4f3f 036e 4f3f 8d6b 4f3f
00000010: 6d68 4f3f cf72 4f3f ac67 4f3f ac6d 4f3f
00000020: 5c6a 4f3f b665 4f3f c06d 4f3f 8669 4f3f
00000030: b468 4f3f cf71 4f3f 9f6a 4f3f f16f 4f3f
00000040: 196b 4f3f 346d 4f3f 3365 4f3f c86d 4f3f
00000050: cd68 4f3f 306c 4f3f 7971 4f3f a369 4f3f
00000060: 2868 4f3f 5c68 4f3f 706d 4f3f 7f6b 4f3f
00000070: 876b 4f3f 306e 4f3f 0874 4f3f a56a 4f3f

weight f4 [32, 32, 3]
-0.06372465 0.018120907 -0.04468682 -0.07826501 0.049859136 0.069420084 0.02585864 -0.061673377
-0.040582236 -0.013919912 -0.02390717 -0.0054596215 0.08287628 -0.08156838 0.065111265 0.012862213
0.10187684 0.0046837255 -0.0653023 0.025698736 0.099232435 -0.10109651 -0.04945485 0.029836476
0.009298913 -0.0688574 0.007059984 -0.011578701 -0.08091986 0.093639895 0.08643921 0.09077808
-0.014927514 -0.024401352 -0.09456188 -0.010280743 0.03155902 0.062038496 -0.04197932 0.071591064
0.077026054 0.01302588 -0.0072209314 0.06560154 -0.05563597 0.09330249 -0.06459972 -0.065320864
-0.10096041 -0.006617941 0.039627954 -0.08408053 -0.03899113 0.009485148 0.06298457 -0.047420774
-0.040896002 0.0037162006 0.071034566 -0.06680996 -0.06613451 -0.013026036 -0.02540411 0.08400279
-0.079756916 0.044312716 -0.037462376 -0.041426864 -0.029982395 -0.04012687 0.08690083 0.014579423
0.08309212 -0.0043935925 -0.10051686 -0.036920957 0.022508845 0.057161644 0.09917842 -0.06365184
0.03805685 0.03972411 -0.09243786 0.030087084 -0.053437266 -0.067718364 0.070764124 0.08742806
0.020056263 -0.018861257 0.077012 0.100036815 0.052865267 -0.09388768 0.090820104 0.057154685
-0.045602772 -0.038422078 -0.01380574 0.050147325 0.046462134 -0.011786878 0.07469526 0.079758614
-0.02165927 0.04732126 0.098120615 0.07253061 -0.08097178 0.035483792 -0.09183802 0.01720681
0.08430597 0.064017236 0.033401906 0.039101124 -0.006211661 -0.057620864 0.06418331 -0.082627535
-0.06976394 0.011724547 -0.006011702 0.082379594 -0.04479749 -0.07406768 -0.096062265 -0.036315016
-0.041321743 0.025076315 0.051805183 -0.0028472766 -0.044038553 -0.0076073185 0.012840614 -0.018516466
0.04451877 -0.05881341 -0.08826699 -0.08627616 -0.007545978 0.021186508 0.025540605 0.018292911
-0.024839245 0.029890686 -0.08738119 -0.07170913 0.026794776 -0.027322233 -0.046752285 -0.03139177
-0.0755167 0.06465919 0.04688607 -0.032293856 0.005618565 -0.0014682114 0.085024625 -0.05860878
-0.022769317 0.03492838 -0.010727055 0.09165195 -0.042638928 0.002294004 0.07588649 0.06419121
-0.04156368 -0.0033909455 0.055162013 -0.08701813 0.09095092 0.05391413 0.039319947 0.09906988
-0.04923322 -0.05465061 0.035633817 -0.047498994 -0.04213195 0.0136889815 -0.092622966 0.014977045
0.030708462 0.05857505 -0.028869964 0.0643262 0.086444214 0.080182835 0.03906901 -0.07811783
-0.007994428 0.028590098 -0.03920316 0.0141883865 -0.0992651 0.09131135 0.0127609 0.03494753
-0.0891689 -0.053236883 0.006165728 0.021661535 -0.026009463 0.095440716 0.050928473 -0.09554968
0.06511854 0.051400796 0.03014046 -0.0018824413 0.036681935 -0.020172298 -0.08149633 0.0048270077
-0.06322782 -0.06768972 0.052786335 0.02064988 -0.015172459 0.0056044534 0.020799734 0.007334538
0.030981675 -0.085779645 0.0038655326 0.0021986663 -0.053558826 -0.06306558 0.062763765 0.07817434
0.065596 0.030662045 -0.016373254 0.08086775 0.08760743 -0.050942477 -0.036047384 0.0812515
-0.05678608 -0.01870989 -0.017998852 -0.050175775 -0.028150238 -0.018788911 -0.00018966943 -0.016520523
-0.0048576817 0.03894414 -0.05056241 -0.03672243 -0.06057303 0.08594163 -0.09908736 -0.03351958
00000000: 1282 82bd 4c72 943c 8709 37bd 6849 a0bd
00000010: 1839 4c3d 1e2c 8e3d 80d5 d33c 399d 7cbd
00000020: 8f39 26bd 5810 64bc f8d8 c3bc a0e6 b2bb
00000030: 0abb a93d 530d a7bd 0e59 853d 08bc 523c
00000040: cea4 d03d f079 993b 36bd 85bd 2886 d23c
00000050: 603a cb3d b00b cfbd 2b91 4abd a06b f43c
00000060: 785a 183c 1c05 8dbd 7057 e73b 98b4 3dbc
00000070: 50b9 a5bd 46c6 bf3d 0a07 b13d dce9 b93d
00000080: 8892 74bc 58e5 c7bc a9a9 c1bd 9070 28bc
00000090: 0844 013d 141c 7e3d 82f2 2bbd 569e 923d
000000a0: d6bf 9d3d 806a 553c 909d ecbb 1a5a 863d
000000b0: 8be2 63bd 6015 bf3d dc4c 84bd f2c6 85bd
000000c0: 55c4 cebd 50db d8bb ec50 223d 6a32 acbd
000000d0: 2ab5 1fbd 9867 1b3c 0efe 803d 493c 42bd
000000e0: 9182 27bd 808b 733b 927a 913d a9d3 88bd
000000f0: 8871 87bd 286b 55bc 481c d0bc a809 ac3d
00000100: 9857 a3bd 4081 353d 2672 19bd 37af 29bd
00000110: a49d f5bc 135c 24bd 10f9 b13d 88de 6e3c
00000120: 342c aa3d 20f8 8fbb c9db cdbd 6e3a 17bd
00000130: 7864 b83c 5422 6a3d 0e1e cb3d e55b 82bd
00000140: 80e1 1b3d c0b5 223d 1050 bdbd 3079 f63c
00000150: 09e1 5abd edaf 8abd c8ec 903d 7c0d b33d
00000160: 084d a43c ec82 9abc 78b8 9d3d 1ae0 cc3d
00000170: 4089 583d 2f48 c0bd e4ff b93d 081b 6a3d
00000180: f9c9 3abd 7860 1dbd 7831 62bc 4867 4d3d
00000190: 144f 3e3d c01d 41bc d4f9 983d 7c58 a33d
000001a0: c86e b1bc f0d3 413d 76f3 c83d ee8a 943d
000001b0: 88d4 a5bd 7457 113d 9215 bcbd 4cf5 8c3c
000001c0: 9ca8 ac3d 781b 833d 70d0 083d 8028 203d
000001d0: 308b cbbb db03 6cbd 8a72 833d a038 a9bd
000001e0: 66e0 8ebd 5018 403c d0fd c4bb a2b6 a83d
000001f0: 937d 37bd ccb0 97bd 4bbc c4bd 0ebf 14bd
00000200: fd40 29bd d86c cd3c ac31 543d 6099 3abb
00000210: c561 34bd d046 f9bb 7061 523c d8af 97bc
00000220: 5059 363d 55e6 70bd 53c5 b4bd 8eb1 b0bd
00000230: 4044 f7bb 548f ad3c 883a d13c 04db 953c
00000240: ac7b cbbc 50dd f43c e9f4 b2bd 3ddc 92bd
00000250: b880 db3c e0d2 dfbc 537f 3fbd a894 00bd
00000260: 80a8 9abd 0a6c 843d 9c0b 403d 9046 04bd
00000270: f01b b83b 0071 c0ba 6421 ae3d c30f 70bd
00000280: b886 babc 1011 0f3d 88c0 2fbc 04b4 bb3d
00000290: 28a6 2ebd 0057 163b 606a 9b3d ae76 833d
000002a0: ad3e 2abd a03a 5ebb 90f1 613d 9036 b2bd
000002b0: 7a44 ba3d 10d5 5c3d f40d 213d 26e5 ca3d
000002c0: c6a8 49bd 51d9 5fbd c4f4 113d 4e8e 42bd
000002d0: 8d92 2cbd c047 603c 1cb1 bdbd 4862 753c
000002e0: 5090 fb3c 64ec 6f3d b480 ecbc 74bd 833d
000002f0: aa09 b13d e636 a43d d406 203d 3efc 9fbd
00000300: 10fb 02bc c835 ea3c 7e93 20bd 6876 683c
00000310: 804b cbbd 7201 bb3d 1813 513c 2425 0f3d
00000320: 2f9e b6bd eb0e 5abd e009 ca3b 8873 b13c
00000330: cc11 d5bc 6c76 c33d 609a 503d 8daf c3bd
00000340: de5c 853d a489 523d 20e9 f63c 40bc f6ba
00000350: cc3f 163d 6040 a5bc 8ce7 a6bd e02b 9e3b
00000360: 967d 81bd e8a0 8abd 7c36 583d f029 a93c
00000370: e895 78bc 90a5 b73b 3464 aa3c 9056 f03b
00000380: 48cd fd3c 3dad afbd e054 7d3b 8017 103b
00000390: 8060 5bbd 8728 81bd 4a8a 803d de19 a03d
000003a0: 3257 863d f82e fb3c 3421 86bc fe9d a53d
000003b0: 866b b33d 0fa9 50bd 6ca6 13bd 3067 a63d
000003c0: 8598 68bd 7c45 99bc 5472 93bc 1d85 4dbd
000003d0: 549b e6bc 34eb 99bc 00e2 46b9 0c56 87bc
000003e0: 302d 9fbb e483 1f3d 881a 4fbd 426a 16bd
000003f0: 6d1b 78bd 2a02 b03d 50ee cabd d44b 09bd

bias f4 [32]
-0.092254184 -0.07201769 0.017885335 -0.040968675 -0.018790253 0.09933601 -0.037325308 -0.09811015
-0.09733409 -0.060029782 -0.067990474 -0.0231134 -0.047078658 0.0350893 -0.044239864 0.03659922
-0.0012114048 0.022326834 0.05924642 0.011844039 0.090128794 0.07008417 0.07590374 0.056171358
-0.015101559 0.062961966 -0.006290205 -0.086388044 -0.063311264 -0.044767708 0.086003125 0.045257047
00000000: c3ef bcbd 037e 93bd 4484 923c c5ce 27bd
00000010: 04ee 99bc ae70 cb3d 6ce2 18bd f9ed c8bd
00000020: 1857 c7bd cae1 75bd 973e 8bbd 5058 bdbc
00000030: 8dd5 40bd ccb9 0f3d dc34 35bd 10e9 153d
00000040: 00c8 9eba c4e6 b63c 60ac 723d 800d 423c
00000050: 7295 b83d 4a88 8f3d 6c73 9b3d f013 663d
00000060: 886c 77bc 34f2 803d 101e cebb 37ec b0bd
00000070: 56a9 81bd 585e 37bd 6822 b03d 745f 393d

weight f4 [32]
1.0 1.0 1.0 1.0 1.0 1.0 1.0 1.0
1.0 1.0 1.0 1.0 1.0 1.0 1.0 1.0
1.0 1.0 1.0 1.0 1.0 1.0 1.0 1.0
1.0 1.0 1.0 1.0 1.0 1.0 1.0 1.0
00000000: 0000 803f 0000 803f 0000 803f 0000 803f
00000010: 0000 803f 0000 803f 0000 803f 0000 803f
00000020: 0000 803f 0000 803f 0000 803f 0000 803f
00000030: 0000 803f 0000 803f 0000 803f 0000 803f
00000040: 0000 803f 0000 803f 0000 803f 0000 803f
00000050: 0000 803f 0000 803f 0000 803f 0000 803f
00000060: 0000 803f 0000 803f 0000 803f 0000 803f
00000070: 0000 803f 0000 803f 0000 803f 0000 803f

bias f4 [32]
0.0 0.0 0.0 0.0 0.0 0.0 0.0 0.0
0.0 0.0 0.0 0.0 0.0 0.0 0.0 0.0
0.0 0.0 0.0 0.0 0.0 0.0 0.0 0.0
0.0 0.0 0.0 0.0 0.0 0.0 0.0 0.0
00000000: 0000 0000 0000 0000 0000 0000 0000 0000
00000010: 0000 0000 0000 0000 0000 0000 0000 0000
00000020: 0000 0000 0000 0000 0000 0000 0000 0000
00000030: 0000 0000 0000 0000 0000 0000 0000 0000
00000040: 0000 0000 0000 0000 0000 0000 0000 0000
00000050: 0000 0000 0000 0000 0000 0000 0000 0000
00000060: 0000 0000 0000 0000 0000 0000 0000 0000
00000070: 0000 0000 0000 0000 0000 0000 0000 0000

running_mean f4 [32]
0.0061664586 0.0068532582 -0.035651162 0.1627841 -0.029303562 0.03978942 0.095815234 0.062165882
0.073799595 0.07088497 0.0060344962 -0.079547115 0.025228843 -0.0061586145 0.011708559 0.038552273
0.00791971 -0.028280385 0.13791879 0.020994889 0.09061457 -0.059516054 0.08044728 -0.029688548
-0.005870678 0.1263218 0.07311724 -0.1054052 0.032523047 0.13460067 -0.050272144 0.055697985
00000000: 0110 ca3b 4c91 e03b f406 12bd e0b0 263e
00000010: 060e f0bc 3bfa 223d c73a c43d a7a1 7e3d
00000020: 3e24 973d 242c 913d 06bd c53b 99e9 a2bd
00000030: b8ac ce3c 34ce c9bb 41d5 3f3c fde8 1d3d
00000040: acc1 013c 44ac e7bc 953a 0d3e 79fd ab3c
00000050: 2294 b93d 1bc7 73bd 8bc1 a43d 6635 f3bc
00000060: d15e c0bb 805a 013e 7ebe 953d aede d7bd
00000070: e336 053d c2d4 093e 2aea 4dbd 9223 643d

running_var f4 [32]
0.83707416 0.8372854 0.8539561 1.0866812 0.8447631 0.8549062 0.92902106 0.9104957
0.90998995 0.88497865 0.85069543 0.8887804 0.8466421 0.8381733 0.83546805 0.8474164
0.82945573 0.8372876 0.9810285 0.8373815 0.8770008 0.8719359 0.87474567 0.8610522
0.83396286 0.94689465 0.8734476 0.8942118 0.850941 1.0304799 0.87203157 0.8527112
00000000: 7e4a 563f 5658 563f de9c 5a3f 5f18 8b3f
00000010: 6542 583f 22db 5a3f 53d4 6d3f 3f16 693f
00000020: 1af5 683f f68d 623f 2dc7 593f 1d87 633f
00000030: 89bd 583f 8692 563f 3ce1 553f 48f0 583f
00000040: 3657 543f 7b58 563f af24 7b3f a25e 563f
00000050: 2083 603f 3137 5f3f 55ef 5f3f eb6d 5c3f
00000060: 977e 553f b067 723f 439a 5f3f 11eb 643f
00000070: 45d7 593f c4e6 833f 763d 5f3f 484b 5a3f

weight f4 [64, 32, 3]
0.09168118 0.071270496 -0.05567223 0.07259323 0.019025438 0.07069509 -0.024862446 -0.08372444
-0.013432756 0.061721593 0.0056968704 -0.08038979 0.05277969 -0.001628302 -0.024406023 0.050352424
-0.0083391145 0.025955424 -0.062347304 0.008331351 0.00042330474 -0.024950862 -0.022669986 0.022574887
-0.09257452 0.04256308 0.07235588 0.045690462 -0.0044725463 0.057265088 -0.009363674 -0.03283014
0.01993554 -0.028405048 0.09208344 -0.030729033 -0.020050071 -0.033079915 0.043740973 -0.04200685
0.05667916 -0.078307964 -0.05258483 0.02140271 -0.09157102 0.083790004 -0.07708254 -0.10157824
0.04632838 -0.071063854 0.016096033 -0.0056449845 0.08121671 -0.07874675 0.050203055 -0.04894477
-0.08093701 0.06453486 -0.068781406 -0.08847902 -0.013258189 0.051725954 -0.033486567 0.06429124
-0.08931476 -0.0039321557 0.0590031 -0.059911035 -0.003961444 0.093541205 -0.04157504 0.031281188
0.051615164 0.04759541 -0.031896517 -0.088478185 0.07214968 -0.020064868 -0.09120076 -0.09426786
-0.077630006 -0.033578098 -0.050745144 0.036423624 0.049485847 -0.028944902 0.029480278 -0.03629253
0.03622803 -0.0050955415 0.051465884 -0.095796116 -0.086158626 -0.0070446953 -0.07587132 0.0027963594
-0.07915129 -0.030154064 -0.030023433 -0.0833046 -0.02887319 -0.054418284 0.075226784 -0.0104607865
0.07682136 -0.0011526048 0.042061508 0.047004446 0.0093791485 -0.015746474 0.055808395 -0.07424298
-0.053776525 0.0945306 0.016235769 -0.08446754 0.097892016 -0.04810102 -0.037588872 -0.011368804
-0.021612622 0.057200924 0.0399777 -0.087092645 0.055745035 -0.062055547 -0.002412334 0.036724433
-0.04817039 0.045403644 -0.06655282 -0.032717943 -0.047243774 -0.08157004 -0.10107611 0.06809589
0.088905975 -0.061097633 0.03542769 0.08491503 -0.10054981 -0.008838654 0.0066152588 -0.015836507
0.043866023 -0.057061963 -0.04388593 -0.09578887 0.049722955 0.062492102 -0.05457948 0.026034549
0.04955092 0.025983736 0.030216694 -0.093332104 -0.01936984 0.08207689 -0.029451683 -0.025240906
0.06517987 -0.09338065 -0.078328975 0.053409666 -0.09249192 0.053964302 -0.07633971 -0.058811016
-0.010649592 0.07464965 0.09977123 -0.06686142 0.042577937 -0.057681017 -0.077003226 0.06446622
0.0494674 -0.053121906 0.051139027 0.008186556 -0.022416651 -0.08024221 -0.005855687 0.012261197
-0.07644205 0.06422451 0.04285182 0.050099015 -0.024721079 -0.019806407 0.007320754 -0.033979632
0.01499968 -0.007833414 -0.051542394 -0.05649975 -0.08869279 0.046301544 -0.018459 0.09826316
0.054848135 -0.023331694 0.071819216 -0.09257051 -0.056793537 -0.06433725 0.049054578 0.07085508
0.03789343 0.041667625 0.05825609 0.0703651 -0.03716264 0.098989606 -0.079136275 -0.013454974
0.040365577 0.0275314 -0.056413192 0.024111569 0.009469613 0.026113033 -0.01974038 -0.04357702
-0.03972184 0.065403685 -0.025850996 0.05843693 -0.035292998 -0.029787593 0.057425484 -0.05651155
-0.052112006 -0.07668487 0.047823012 0.024801835 -0.014676347 -0.09817199 0.087234005 0.06187299
-0.08103108 -0.05778574 -0.054212775 0.09680413 0.050245553 0.062918454 -0.0029319525 -0.021498755
0.016604826 -0.019207038 0.029728413 -0.04491822 -0.00019547343 0.07112859 -0.057981852 -0.027902037
00000000: 58c3 bb3d 44f6 913d 9008 64bd c2ab 943d
00000010: 3cdb 9b3c 96c8 903d 54ac cbbc b877 abbd
00000020: 1015 5cbc c8cf 7c3d d0ac ba3b 67a3 a4bd
00000030: 842f 583d c06c d5ba 24ef c7bc 583e 4e3d
00000040: c8a0 08bc 78a0 d43c e35f 7fbd 3880 083c
00000050: 00ef dd39 c065 ccbc 68b6 b9bc f8ee b83c
00000060: b697 bdbd a056 2e3d 522f 943d ec25 3b3d
00000070: 708e 92bb cc8e 6a3d 186a 19bc e678 06bd
00000080: dc4f a33c b4b1 e8bc 3e96 bc3d 74bb fbbc
00000090: 0c40 a4bc ce7e 07bd bc29 333d 600f 2cbd
000000a0: 6828 683d ed5f a0bd 3163 57bd bc54 af3c
000000b0: 9689 bbbd 189a ab3d 73dd 9dbd 4108 d0bd
000000c0: d4c2 3d3d ed89 91bd d4db 833c 90f9 b8bb
000000d0: f254 a63d fa45 a1bd b8a1 4d3d 507a 48bd
000000e0: 4ec2 a5bd da2a 843d 44dd 8cbd 7d34 b5bd
000000f0: e038 59bc 98de 533d 3629 09bd 20ab 833d
00000100: a8ea b6bd 50d9 80bb 3cad 713d 4665 75bd
00000110: 00cf 81bb 8892 bf3d 974a 2abd b420 003d
00000120: 6c6a 533d 68f3 423d eca5 02bd 0d34 b5bd
00000130: 36c3 933d 145f a4bc 77c7 babd 820f c1bd
00000140: 7bfc 9ebd 3089 09bd 24da 4fbd f030 153d
00000150: acb1 4a3d dc1d edbc a080 f13c 7aa7 14bd
00000160: d863 143d 80f8 a6bb e4cd 523d c130 c4bd
00000170: ef73 b0bd 30d7 e6bb 6c62 9bbd 2043 373b
00000180: 121a a2bd a805 f7bc b4f3 f5bc 9a9b aabd
00000190: 7887 ecbc b5e5 5ebd 8010 9a3d b863 2bbc
000001a0: 8454 9d3d 0013 97ba b048 2c3d bc87 403d
000001b0: 00ab 193c c0fe 80bc 5897 643d b40c 98bd
000001c0: c644 5cbd 4299 c13d e000 853c 51fd acbd
000001d0: 9c7b c83d 9305 45bd caf6 19bd 3844 3abc
000001e0: f40c b1bc 844b 6a3d a8bf 233d a15d b2bd
000001f0: e854 643d f52d 7ebd 4018 1ebb 5c6c 163d
00000200: 514e 45bd 2cf9 393d d84c 88bd 4003 06bd
00000210: b082 41bd 310e a7bd fe00 cfbd dc75 8b3d
00000220: 5614 b63d 8341 7abd a01c 113d eee7 ad3d
00000230: 0fed cdbd 00d0 10bc d0c4 d83b 90bb 81bc
00000240: dcac 333d ceb9 69bd bcc1 33bd f42c c4bd
00000250: 4caa 4b3d b8f7 7f3d bc8e 5fbd 6846 d53c
00000260: e8f5 4a3d d8db d43c 0089 f73c e724 bfbd
00000270: 80ad 9ebc ee17 a83d a844 f1bc 04c6 cebc
00000280: 067d 853d 5b3e bfbd f16a a0bd 18c4 5a3d
00000290: 676c bdbd ac09 5d3d fe57 9cbd d2e3 70bd
000002a0: a07b 2ebc eae1 983d dc54 cc3d a4ee 88bd
000002b0: 3466 2e3d ee42 6cbd deb3 9dbd de06 843d
000002c0: 549e 4a3d 5b96 59bd 2877 513d e820 063c
000002d0: 20a3 b7bc 0756 a4bd 10e1 bfbb 30e3 483c
000002e0: a68d 9cbd 2488 833d 6485 2f3d a034 4d3d
000002f0: dc83 cabc 0c41 a2bc f0e2 ef3b 3a2e 0bbd
00000300: 38c1 753c b857 00bc 1e1e 53bd 486c 67bd
00000310: 91a4 b5bd b0a6 3d3d 5437 97bc 323e c93d
00000320: 70a8 603d 1c22 bfbc f415 933d 9c95 bdbd
00000330: 57a0 68bd 40c3 83bd 74ed 483d 781c 913d
00000340: 2436 1b3d acab 2a3d f09d 6e3d 941b 903d
00000350: da37 18bd 10bb ca3d 3312 a2bd 4072 5cbc
00000360: 6056 253d 8889 e13c 8511 67bd a085 c53c
00000370: 7026 1b3c 00eb d53c 94b6 a1bc d17d 32bd
00000380: 5eb3 22bd 5ef2 853d 78c5 d3bc 905b 6f3d
00000390: 648f 10bd 1c05 f4bc fc36 6b3d a878 67bd
000003a0: 6673 55bd f50c 9dbd 10e2 433d 382d cb3c
000003b0: 1075 70bc 650e c9bd bea7 b23d 886e 7d3d
000003c0: 9ff3 a5bd bdb0 6cbd 370e 5ebd 3e41 c63d
000003d0: 48ce 4d3d 64db 803d 0026 40bb 281e b0bc
000003e0: d806 883c 1458 9dbc 0089 f33c 2bfc 37bd
000003f0: 00f8 4cb9 deab 913d 617e 6dbd d092 e4bc

bias f4 [64]
-0.08116464 0.023578018 0.024673373 -0.062128037 0.04550296 0.06220922 0.01992958 0.094516665
-0.013657257 -0.0025052428 -0.008507185 -0.031908028 -0.04984248 0.07991743 -0.09194429 -0.008220851
-0.07814743 0.027627125 0.025279671 0.07089552 -0.07827433 -0.050994135 -0.0037732348 -0.07262827
-0.070774734 0.0062798783 0.08430721 -0.017667517 -0.024898604 -0.030267425 0.08042784 -0.05966887
0.049967498 0.081346795 0.02754794 0.00552015 -0.024369352 0.03655325 -0.08642812 0.08629684
-0.06683124 0.095024616 0.08243178 -0.03541822 -0.037114143 0.06815149 -0.09592147 -0.0424506
-0.0947631 0.054328382 0.043519422 -0.0719762 -0.005910985 -0.048403483 -0.08769968 -0.09193078
-0.07046304 0.08392325 -0.074241824 0.03243573 -0.09205398 -0.035031654 0.0035593435 0.010825485
00000000: a639 a6bd b026 c13c d01f ca3c f879 7ebd
00000010: 5061 3a3d 18cf 7e3d 5c43 a33c f491 c13d
00000020: b0c2 5fbc 002f 24bb b861 0bbc feb1 02bd
00000030: a127 4cbd c0ab a33d 4a4d bcbd c0b0 06bc
00000040: c30b a0bd 4852 e23c 5017 cf3c ac31 913d
00000050: 4b4e a0bd 3adf 50bd 6048 77bb 21be 94bd
00000060: 58f2 90bd 70c7 cd3b 42a9 ac3d 78bb 90bc
00000070: 28f8 cbbc 64f3 f7bc 5ab7 a43d 5867 74bd
00000080: b8aa 4c3d 2699 a63d 38ac e13c 60e2 b43b
00000090: 3ca2 c7bc dcb8 153d 3a01 b1bd 66bc b03d
000000a0: d1de 88bd 449c c23d fed1 a83d b212 11bd
000000b0: 0005 18bd 0293 8b3d 7a72 c4bd aee0 2dbd
000000c0: 2813 c2bd 7087 5e3d 6c41 323d 4268 93bd
000000d0: f0b0 c1bb bb42 46bd e49b b3bd 3446 bcbd
000000e0: ed4e 90bd f4df ab3d 190c 98bd 54db 043d
000000f0: cc86 bcbd 5a7d 0fbd e043 693b 605d 313c

weight f4 [64]
1.0 1.0 1.0 1.0 1.0 1.0 1.0 1.0
1.0 1.0 1.0 1.0 1.0 1.0 1.0 1.0
1.0 1.0 1.0 1.0 1.0 1.0 1.0 1.0
1.0 1.0 1.0 1.0 1.0 1.0 1.0 1.0
1.0 1.0 1.0 1.0 1.0 1.0 1.0 1.0
1.0 1.0 1.0 1.0 1.0 1.0 1.0 1.0
1.0 1.0 1.0 1.0 1.0 1.0 1.0 1.0
1.0 1.0 1.0 1.0 1.0 1.0 1.0 1.0
00000000: 0000 803f 0000 803f 0000 803f 0000 803f
00000010: 0000 803f 0000 803f 0000 803f 0000 803f
00000020: 0000 803f 0000 803f 0000 803f 0000 803f
00000030: 0000 803f 0000 803f 0000 803f 0000 803f
00000040: 0000 803f 0000 803f 0000 803f 0000 803f
00000050: 0000 803f 0000 803f 0000 803f 0000 803f
00000060: 0000 803f 0000 803f 0000 803f 0000 803f
00000070: 0000 803f 0000 803f 0000 803f 0000 803f
00000080: 0000 803f 0000 803f 0000 803f 0000 803f
00000090: 0000 803f 0000 803f 0000 803f 0000 803f
000000a0: 0000 803f 0000 803f 0000 803f 0000 803f
000000b0: 0000 803f 0000 803f 0000 803f 0000 803f
000000c0: 0000 803f 0000 803f 0000 803f 0000 803f
000000d0: 0000 803f 0000 803f 0000 803f 0000 803f
000000e0: 0000 803f 0000 803f 0000 803f 0000 803f
000000f0: 0000 803f 0000 803f 0000 803f 0000 803f

bias f4 [64]
0.0 0.0 0.0 0.0 0.0 0.0 0.0 0.0
0.0 0.0 0.0 0.0 0.0 0.0 0.0 0.0
0.0 0.0 0.0 0.0 0.0 0.0 0.0 0.0
0.0 0.0 0.0 0.0 0.0 0.0 0.0 0.0
0.0 0.0 0.0 0.0 0.0 0.0 0.0 0.0
0.0 0.0 0.0 0.0 0.0 0.0 0.0 0.0
0.0 0.0 0.0 0.0 0.0 0.0 0.0 0.0
0.0 0.0 0.0 0.0 0.0 0.0 0.0 0.0
00000000: 0000 0000 0000 0000 0000 0000 0000 0000
00000010: 0000 0000 0000 0000 0000 0000 0000 0000
00000020: 0000 0000 0000 0000 0000 0000 0000 0000
00000030: 0000 0000 0000 0000 0000 0000 0000 0000
00000040: 0000 0000 0000 0000 0000 0000 0000 0000
00000050: 0000 0000 0000 0000 0000 0000 0000 0000
00000060: 0000 0000 0000 0000 0000 0000 0000 0000
00000070: 0000 0000 0000 0000 0000 0000 0000 0000
00000080: 0000 0000 0000 0000 0000 0000 0000 0000
00000090: 0000 0000 0000 0000 0000 0000 0000 0000
000000a0: 0000 0000 0000 0000 0000 0000 0000 0000
000000b0: 0000 0000 0000 0000 0000 0000 0000 0000
000000c0: 0000 0000 0000 0000 0000 0000 0000 0000
000000d0: 0000 0000 0000 0000 0000 0000 0000 0000
000000e0: 0000 0000 0000 0000 0000 0000 0000 0000
000000f0: 0000 0000 0000 0000 0000 0000 0000 0000

running_mean f4 [64]
-0.08686628 -0.092276566 0.102156624 -0.00143825 -0.005061839 0.04633404 0.07906161 -0.07616226
-0.1533915 0.012130041 -0.1461298 -0.011053461 -0.12691964 0.13279746 0.033384345 0.04323835
0.02956065 -0.019163374 0.17351097 -0.0048204823 -0.0776787 0.03125651 -0.047765348 0.10535703
-0.07185144 0.014804822 -0.12526278 0.007959434 -0.118613124 0.066085204 -0.020247722 -0.11918801
-0.12557057 0.03522604 0.0060453503 0.0076598125 0.07698784 -0.061341412 -0.12759149 0.1477418
-0.12589152 -0.020867208 0.03380942 -0.0491832 -0.046108566 -0.033455644 0.030909728 -0.11321144
0.014625471 0.017272739 0.034014743 -0.04125117 -0.041805163 -0.017654464 -0.04305362 -0.0011599344
0.10792772 -0.02073535 -0.098133035 0.16170016 0.011634205 -0.13123354 0.18304026 -0.04070369
00000000: f3e6 b1bd 7ffb bcbd 7e37 d13d a983 bcba
00000010: c8dd a5bb c3c8 3d3d 0eeb a13d f5fa 9bbd
00000020: a912 1dbe 14bd 463c 0da3 15be 9319 35bc
00000030: 39f7 01be 0ffc 073e 06be 083d b21a 313d
00000040: 2d29 f23c 82fc 9cbc dcac 313e 23f5 9dbb
00000050: 0316 9fbd d406 003d 99a5 43bd 6dc5 d73d
00000060: d926 93bd ed8f 723c e344 00be 4968 023c
00000070: 70eb f2bd ae57 873d 8dde a5bc d818 f4bd
00000080: 9295 00be 2e49 103d 1318 c63b 2aff fa3b
00000090: cdab 9d3d 2241 7bbd 58a7 02be a049 173e
000000a0: b5e9 00be b5f1 aabc bf7b 0a3d 5374 49bd
000000b0: 56dc 3cbd c908 09bd 6636 fd3c 66db e7bd
000000c0: ac9f 6f3c 8f7f 8d3c 0b53 0b3d fdf6 28bd
000000d0: e43b 2bbd 18a0 90bc fe58 30bd f108 98ba
000000e0: 3509 dd3d 2edd a9bc f9f9 c8bd ba94 253e
000000f0: 649d 3e3c 1662 06be e86e 3b3e eab8 26bd

running_var f4 [64]
0.85299927 0.9356171 0.88584447 0.84552354 0.8323631 0.8270103 0.8376049 0.86991906
0.91860265 0.8279255 0.943749 0.82037574 0.92751336 0.92142487 0.8268606 0.84286845
0.8549715 0.866379 1.0211186 0.82225806 0.8409403 0.8681665 0.8657292 0.9525843
0.9023683 0.8463821 1.0288582 0.8400337 0.85633093 0.83615506 0.86593014 0.893435
0.98230606 0.8343857 0.8425134 0.8356212 0.95625985 0.8799279 0.84553814 0.954661
0.9139181 0.83890253 0.8508692 0.8554655 0.8656489 0.84494835 0.8978519 0.89989316
0.8355493 0.856137 0.863103 0.84308255 0.87878615 0.8756951 0.82517445 0.8466857
0.8689944 0.8821959 0.9512566 0.95322996 0.8633633 0.8963996 1.0628376 0.83990836
00000000: 295e 5a3f 9a84 6f3f b4c6 623f 3b74 583f
00000010: c015 553f f2b6 533f 466d 563f 04b3 5e3f
00000020: 8b29 6b3f edf2 533f 8999 713f 2504 523f
00000030: 8471 6d3f 80e2 6b3f 23ad 533f 3ac6 573f
00000040: 6adf 5a3f 04cb 5d3f 04b4 823f 817f 523f
00000050: dd47 573f 2940 5e3f 6ea0 5d3f 91dc 733f
00000060: 9c01 673f 7fac 583f a0b1 833f 730c 573f
00000070: 8138 5b3f 420e 563f 99ad 5d3f 28b8 643f
00000080: 6978 7b3f 4d9a 553f f5ae 573f 45eb 553f
00000090: 72cd 743f f442 613f 3075 583f aa64 743f
000000a0: 89f6 693f 51c2 563f 90d2 593f c9ff 5a3f
000000b0: 2b9b 5d3f 894e 583f 9fd9 653f 665f 663f
000000c0: 8fe6 553f cb2b 5b3f 51f4 5c3f 42d4 573f
000000d0: 21f8 603f 8e2d 603f a23e 533f 65c0 583f
000000e0: 6b76 5e3f 97d7 613f 8d85 733f e106 743f
000000f0: 6105 5d3f 727a 653f 100b 883f 3c04 573f

weight f4 [64, 64, 3]
-0.05261243 -0.04113727 0.05628565 -0.04483199 -0.030628912 0.07129267 0.05313909 -0.032125987
-0.07137636 -0.05906339 -0.060755696 0.06270103 0.06516202 -0.07215611 0.0232689 -0.028534077
0.052614123 -0.04951175 0.025574557 0.042348176 0.018224709 0.037040874 0.052640647 0.046011433
0.015653469 0.03843855 -0.055248003 -0.03805759 0.032150626 -0.030133463 0.0009891242 0.044325225
-0.022517212 0.007495038 0.011873037 0.055701584 0.07154681 0.06718327 0.020364746 0.03681153
0.07060163 -0.0031502694 0.010149352 0.06816444 -0.035623364 0.030840911 -0.04546987 0.032670066
-0.00401327 -0.006252669 -0.04506096 -0.022642013 -0.036972214 0.003378965 0.00972008 0.04807224
0.021848723 -0.008839227 0.033213258 -0.043775067 -0.055426724 -0.039506044 -0.016574398 -0.021126326
0.009895243 -0.04930042 -0.03181966 0.009436972 0.065315515 0.034087934 -0.035363685 -0.0029781163
0.038045168 0.029915847 -0.05868071 0.054861233 -0.0040560067 -0.0679439 0.017255366 0.050138205
0.04524295 0.060007468 -0.03740197 -0.015718069 0.04977694 0.03029842 0.011532173 0.07075854
-0.011216648 0.05073975 0.054525927 0.033207178 -0.01230818 -0.064442135 0.06829673 0.030293375
0.054398224 -0.044719428 0.0037725344 -0.023888778 0.041140065 -0.011402588 -0.008398987 0.06414598
0.036645427 -0.05861316 -0.0034627467 0.006451927 0.00944867 0.019492969 -0.011049911 0.03624183
0.047361374 -0.00094489753 -0.0018697828 -0.020370279 -0.044293106 0.01984518 0.054013863 -0.013026707
-0.032746214 -0.0071211457 0.070507646 -0.032119542 -0.011321556 -0.013763279 -0.019199546 0.059927642
-0.048358854 -0.044225648 0.014443092 -0.038479958 0.033264376 0.031225726 0.021952137 0.049954668
0.034785576 -0.045695253 -0.052653 -0.008102499 -0.059836507 -0.059766218 -0.006972283 -0.0017483309
0.016866662 -0.025702406 -0.06625635 -0.03750859 0.023228638 0.010324664 -0.005313158 0.027149945
0.063578025 -0.01907451 -0.0038015842 0.06872597 0.009099938 0.037093975 0.065473795 -0.0384789
-0.032752343 -0.027380656 -0.012900699 0.06971115 -0.054099746 0.019450717 -0.060356233 -0.062144216
0.07060483 -0.01593678 -0.037577588 0.037739575 -0.04803798 0.038193516 -0.06020202 -0.06857088
0.025519535 -0.012041189 0.0313432 -0.007213205 -0.050247304 -0.00956291 0.028977253 -0.005524151
-0.002542317 -0.03758921 -0.054058306 0.039500505 -0.025623824 -0.020976476 -0.035612307 -0.01858687
-0.023185052 0.023543842 0.036506467 0.011706702 -0.05136644 0.03534165 0.05673559 -0.04318536
0.02926489 0.039901868 -0.03577803 -0.050350167 0.027787097 -0.035620585 0.03453847 -0.0018030256
0.0060677156 -0.041633233 -0.025860585 -0.01018142 0.00809069 0.055859983 -0.016361106 0.03754446
-0.060213145 0.018955044 -0.040728282 0.025651671 -0.014325816 -0.01129448 -0.0024638847 -0.07091052
0.06831072 0.0417542 -0.055125408 0.02057559 0.043957748 -0.02858043 -0.057310376 0.0046095476
-0.07142612 -0.023268487 -0.035697445 -0.032207184 0.019389965 -0.059320644 -0.019190118 -0.04549452
0.032463893 -0.06816494 0.06562288 -0.0079628825 0.058033153 -0.039154086 -0.024568912 -0.0011911392
0.0133386925 -0.05177439 0.032583676 -0.036509138 -0.06865776 -0.0035020038 0.010754243 0.028264761
00000000: 2280 57bd 8e7f 28bd c88b 663d c0a1 37bd
00000010: 7ce9 fabc e401 923d 60a8 593d 8a96 03bd
00000020: c52d 92bd 74ec 71bd f7da 78bd 6669 803d
00000030: aa73 853d 95c6 93bd 6c9e be3c 4cc0 e9bc
00000040: e881 573d d5cc 4abd bc81 d13c 4875 2d3d
00000050: fc4b 953c 2cb8 173d b89d 573d 7c76 3c3d
00000060: b43b 803c be71 1d3d bb4b 62bd 47e2 1bbd
00000070: 60b0 033d 74da f6bc 80a5 813a 5e8e 353d
00000080: 0476 b8bc f098 f53b 2087 423c 5827 643d
00000090: 2287 923d 6297 893d f8d3 a63c b0c7 163d
000000a0: 9697 903d c074 4ebb 7849 263c cc99 8b3d
000000b0: cee9 11bd 14a6 fc3c 9d3e 3abd 0cd1 053d
000000c0: c081 83bb 30e3 ccbb d791 38bd be7b b9bc
000000d0: 2d70 17bd a071 5d3b f840 1f3c 66e7 443d
000000e0: 18fc b23c 68d2 10bc a00a 083d 7c4d 33bd
000000f0: 2207 63bd 17d1 21bd 08c7 87bc 1e11 adbc
00000100: a81f 223c 3def 49bd 5555 02bd 889d 1a3c
00000110: 24c4 853d ca9f 0b3d 83d9 10bd 802c 43bb
00000120: 40d5 1b3d 1412 f53c 2f5b 70bd 2cb6 603d
00000130: 40e8 84bb 2c26 8bbd 205b 8d3c b85d 4d3d
00000140: ac50 393d 64ca 753d cf32 19bd 2ec3 80bc
00000150: e8e2 4b3d 6434 f83c 70f1 3c3c dae9 903d
00000160: 08c6 37bc 7cd4 4f3d 9456 5f3d 4004 083d
00000170: 40a8 49bc 3dfa 83bd 28df 8b3d d029 f83c
00000180: acd0 5e3d b82b 37bd a03c 773b 66b2 c3bc
00000190: 7c82 283d ecd1 3abc e89b 09bc f85e 833d
000001a0: 8419 163d 5a14 70bd 40ef 62bb b06a d33b
000001b0: 98ce 1a3c b8af 9f3c b00a 35bc 5072 143d
000001c0: 00fe 413d 00b3 77ba 8013 f5ba 92df a6bc
000001d0: b06c 35bd 5c92 a23c a43d 5d3d f86d 55bc
000001e0: e520 06bd 8058 e9bb 5066 903d c88f 03bd
000001f0: 0c7e 39bc 607f 61bc 5e48 9dbc b076 753d
00000200: ef13 46bd f425 35bd b8a2 6c3c 299d 1dbd
00000210: 3a40 083d 18cd ff3c f8d4 b33c 449d 4c3d
00000220: 527b 0e3d f22a 3bbd acaa 57bd 58c0 04bc
00000230: 2017 75bd 6ccd 74bd c077 e4bb 4028 e5ba
00000240: f42b 8a3c da8d d2bc 69b1 87bd 9ba2 19bd
00000250: fc49 be3c c828 293c 001a aebb 9069 de3c
00000260: 3235 823d 2642 9cbc 0024 79bb 34c0 8c3d
00000270: e817 153c daef 173d 2017 863d 0d9c 1dbd
00000280: 5227 06bd 664d e0bc 745d 53bc b8c4 8e3d
00000290: b297 5dbd 1c57 9f3c 1938 77bd ef8a 7ebd
000002a0: 4499 903d da8d 82bc f5ea 19bd d094 1a3d
000002b0: 79c3 44bd ce70 1c3d 6596 76bd e46e 8cbd
000002c0: 580e d13c 6848 45bc ba61 003d c05c ecbb
000002d0: 1ed0 4dbd c0ad 1cbc b461 ed3c f003 b5bb
000002e0: 009d 26bb 25f7 19bd 3e6c 5dbd 48cb 213d
000002f0: 0ee9 d1bc dcd6 abbc 36de 11bd 7e43 98bc
00000300: 94ee bdbc 04df c03c ce87 153d 78cd 3f3c
00000310: 9e65 52bd 68c2 103d 9463 683d 22e3 30bd
00000320: ecbc ef3c 2470 233d fc8b 12bd fa3b 4ebd
00000330: c4a1 e33c e4e6 11bd 3678 0d3d 8053 ecba
00000340: b0d3 c63b 9c87 2abd 94d9 d3bc f8cf 26bc
00000350: d08e 043c 70cd 643d ba07 86bc 38c8 193d
00000360: 0fa2 76bd 9c47 9b3c b3d2 26bd 7423 d23c
00000370: d4b6 6abc 7c0c 39bc 2079 21bb 8939 91bd
00000380: 7ee6 8b3d 7406 2b3d 2ecb 61bd 248e a83c
00000390: 0a0d 343d 8221 eabc 49be 6abd b00b 973b
000003a0: dc47 92bd 8e9d bebc 7c37 12bd aeeb 03bd
000003b0: b4d7 9e3c 34fa 72bd 9834 9dbc 7658 3abd
000003c0: dcf8 043d 0f9a 8bbd 4a65 863d c076 02bc
000003d0: 2cb4 6d3d 0960 20bd be44 c9bc 0020 9cba
000003e0: 888a 5a3c 6211 54bd 7676 053d 9b8a 15bd
000003f0: 719c 8cbd e081 65bb 9032 303c 808b e73c

bias f4 [64]
0.0071704835 0.05283551 -0.06923815 -0.023905035 -0.01859298 0.019489229 0.026080213 0.023023516
0.06390089 0.05825676 -0.0478186 0.0073999017 -0.066999875 0.049532108 0.052970335 -0.01233612
0.050830506 -0.023935191 0.046592258 0.035501927 -0.055029552 0.028909214 -0.03729504 0.027871333
0.062585264 -0.020572048 -0.03276727 0.016023189 -0.052369032 0.061310723 -0.028711844 -0.016279705
0.042641215 -0.022944182 0.053753868 0.0056706816 0.04277928 0.0076111555 0.06200473 0.03820587
-0.057502348 -0.063917026 0.063234136 0.0008660406 -0.044311758 -0.033770848 -0.013242435 0.017689154
-0.02845658 -0.006779313 -0.036697112 0.053372458 0.020683303 0.06081441 0.009936534 -0.018161967
-0.0504362 -0.0035766438 -0.058419287 -0.03883245 -0.008751906 -0.058413494 -0.030375049 0.04377801
00000000: 60f6 ea3b 0c6a 583d bbcc 8dbd 7ed4 c3bc
00000010: 4e50 98bc e0a7 9f3c 2ca6 d53c d09b bc3c
00000020: 78de 823d a49e 6e3d 70dd 43bd e07a f23b
00000030: 3b37 89bd 2ee2 4a3d 6cf7 583d 701d 4abc
00000040: a633 503d bc13 c4bc 86d7 3e3d 786a 113d
00000050: ab66 61bd 04d3 ec3c afc2 18bd 6c52 e43c
00000060: b42c 803d b686 a8bc f936 06bd 1043 833c
00000070: e980 56bd f420 7b3d 1a35 ebbc 045d 85bc
00000080: 8ea8 2e3d 70f5 bbbc 042d 5c3d 20d1 b93b
00000090: 5439 2f3d 0067 f93b acf8 7d3d c27d 1c3d
000000a0: 9587 6bbd eee6 82bd e680 813d 0007 633a
000000b0: 3f80 35bd 4d53 0abd ccf6 58bc d8e8 903c
000000c0: c61d e9bc 0025 debb b64f 16bd 149d 5a3d
000000d0: 0870 a93c 8818 793d d8cc 223c 68c8 94bc
000000e0: 3096 4ebd 2066 6abb 1049 6fbd c60e 1fbd
000000f0: 2864 0fbc fd42 6fbd 18d5 f8bc 9250 333d

weight f4 [64]
1.0 1.0 1.0 1.0 1.0 1.0 1.0 1.0
1.0 1.0 1.0 1.0 1.0 1.0 1.0 1.0
1.0 1.0 1.0 1.0 1.0 1.0 1.0 1.0
1.0 1.0 1.0 1.0 1.0 1.0 1.0 1.0
1.0 1.0 1.0 1.0 1.0 1.0 1.0 1.0
1.0 1.0 1.0 1.0 1.0 1.0 1.0 1.0
1.0 1.0 1.0 1.0 1.0 1.0 1.0 1.0
1.0 1.0 1.0 1.0 1.0 1.0 1.0 1.0
00000000: 0000 803f 0000 803f 0000 803f 0000 803f
00000010: 0000 803f 0000 803f 0000 803f 0000 803f
00000020: 0000 803f 0000 803f 0000 803f 0000 803f
00000030: 0000 803f 0000 803f 0000 803f 0000 803f
00000040: 0000 803f 0000 803f 0000 803f 0000 803f
00000050: 0000 803f 0000 803f 0000 803f 0000 803f
00000060: 0000 803f 0000 803f 0000 803f 0000 803f
00000070: 0000 803f 0000 803f 0000 803f 0000 803f
00000080: 0000 803f 0000 803f 0000 803f 0000 803f
00000090: 0000 803f 0000 803f 0000 803f 0000 803f
000000a0: 0000 803f 0000 803f 0000 803f 0000 803f
000000b0: 0000 803f 0000 803f 0000 803f 0000 803f
000000c0: 0000 803f 0000 803f 0000 803f 0000 803f
000000d0: 0000 803f 0000 803f 0000 803f 0000 803f
000000e0: 0000 803f 0000 803f 0000 803f 0000 803f
000000f0: 0000 803f 0000 803f 0000 803f 0000 803f

bias f4 [64]
0.0 0.0 0.0 0.0 0.0 0.0 0.0 0.0
0.0 0.0 0.0 0.0 0.0 0.0 0.0 0.0
0.0 0.0 0.0 0.0 0.0 0.0 0.0 0.0
0.0 0.0 0.0 0.0 0.0 0.0 0.0 0.0
0.0 0.0 0.0 0.0 0.0 0.0 0.0 0.0
0.0 0.0 0.0 0.0 0.0 0.0 0.0 0.0
0.0 0.0 0.0 0.0 0.0 0.0 0.0 0.0
0.0 0.0 0.0 0.0 0.0 0.0 0.0 0.0
00000000: 0000 0000 0000 0000 0000 0000 0000 0000
00000010: 0000 0000 0000 0000 0000 0000 0000 0000
00000020: 0000 0000 0000 0000 0000 0000 0000 0000
00000030: 0000 0000 0000 0000 0000 0000 0000 0000
00000040: 0000 0000 0000 0000 0000 0000 0000 0000
00000050: 0000 0000 0000 0000 0000 0000 0000 0000
00000060: 0000 0000 0000 0000 0000 0000 0000 0000
00000070: 0000 0000 0000 0000 0000 0000 0000 0000
00000080: 0000 0000 0000 0000 0000 0000 0000 0000
00000090: 0000 0000 0000 0000 0000 0000 0000 0000
000000a0: 0000 0000 0000 0000 0000 0000 0000 0000
000000b0: 0000 0000 0000 0000 0000 0000 0000 0000
000000c0: 0000 0000 0000 0000 0000 0000 0000 0000
000000d0: 0000 0000 0000 0000 0000 0000 0000 0000
000000e0: 0000 0000 0000 0000 0000 0000 0000 0000
000000f0: 0000 0000 0000 0000 0000 0000 0000 0000

running_mean f4 [64]
0.032738794 -0.10441735 0.12236158 0.039244466 0.052384175 0.093181394 -0.12791076 -0.10076977
-0.06866118 0.09426997 0.035012845 -0.07171315 -0.20714097 0.091852866 -0.10904753 0.05687572
0.08057626 -0.103226125 0.038889635 -0.077330165 0.02892559 0.091291815 -0.09982088 -0.15142353
-0.03453309 -0.023150194 0.05375361 -0.039449666 0.14872317 -0.11462206 -0.026285022 -0.05901928
0.16118664 -0.06689033 0.0475586 -0.11095497 0.101319134 0.083360046 0.018191999 -0.05260577
-0.0106953485 -0.042252734 0.111530915 -0.024136536 0.20611759 -0.03492355 -0.062032737 -0.18437949
0.014738044 0.12394586 -0.10698033 0.16079567 -0.14891665 -0.044526022 -0.04042209 0.14935654
-0.060204733 -0.09233049 0.06644876 -0.05021504 0.04186403 -0.089502394 -0.08234215 0.014879292
00000000: 1d19 063d c3d8 d5bd b598 fa3d cebe 203d
00000010: ca90 563d e3d5 be3d 0afb 02be 6260 cebd
00000020: 3c9e 8cbd 9d10 c13d a169 0f3d 58de 92bd
00000030: c31c 54be 5b1d bc3d 5054 dfbd 84f6 683d
00000040: 2b05 a53d 3868 d3bd bd4a 1f3d 475f 9ebd
00000050: 5cf5 ec3c 34f7 ba3d e46e ccbd c50e 1bbe
00000060: 9272 0dbd 7aa5 bdbc bf2c 5c3d f995 21bd
00000070: e34a 183e f8be eabd b053 d7bc 33be 71bd
00000080: 1c0e 253e ccfd 88bd cecc 423d 5c3c e3bd
00000090: 6880 cf3d acb8 aa3d 6307 953c 2679 57bd
000000a0: 8b3b 2fbc 3411 2dbd 526a e43d fcb9 c5bc
000000b0: 7d10 533e ff0b 0fbd 0a16 7ebd facd 3cbe
000000c0: d677 713c 54d7 fd3d 8118 dbbd 9fa7 243e
000000d0: 9b7d 18be eb60 36bd a291 25bd ecf0 183e
000000e0: 3d99 76bd c517 bdbd 4a16 883d 49ae 4dbd
000000f0: 9e79 2b3d 084d b7bd 00a3 a8bd 46c8 733c

running_var f4 [64]
0.84178174 0.87169826 0.8408689 0.83762157 0.863649 0.8772865 0.8488101 0.96380895
0.9072045 0.82707554 0.9853227 0.85638505 0.92214835 0.8683155 0.91168684 0.87163454
0.8687674 0.86955553 0.8397057 0.82758945 0.8378843 0.8653383 0.83789325 0.86318934
0.8289333 0.8360544 0.8495374 0.8514869 0.85751873 0.8917128 0.84567404 0.854479
0.852585 0.8140649 0.85915124 0.83634436 0.82626724 0.8295028 0.83278346 0.8942488
0.8438726 0.88959366 0.9009971 0.8265817 0.9786725 0.8183888 0.8424278 0.86984676
0.82892084 0.91867465 0.847145 0.8676045 0.88748974 0.90650064 0.83821356 0.8911431
0.8771309 0.90702707 0.8416896 0.8539987 0.85189575 0.8345089 0.8398223 0.83202934
00000000: 027f 573f 9e27 5f3f 2f43 573f 5e6e 563f
00000010: 1a18 5d3f d995 603f 9e4b 593f 2fbc 763f
00000020: 8e3e 683f 39bb 533f 1c3e 7c3f 0d3c 5b3f
00000030: ea11 6c3f ed49 5e3f 4f64 693f 7123 5f3f
00000040: 8a67 5e3f 319b 5e3f f4f6 563f e7dc 533f
00000050: 967f 563f d086 5d3f 2c80 563f faf9 5c3f
00000060: f934 543f a907 563f 487b 593f 0cfb 593f
00000070: 5986 5b3f 4a47 643f 187e 583f 23bf 5a3f
00000080: 0343 5a3f 8f66 503f 56f1 5b3f aa1a 563f
00000090: 4086 533f 4c5a 543f 4c31 553f 7ded 643f
000000a0: 0908 583f 69bc 633f bfa7 663f dc9a 533f
000000b0: 488a 7a3f ee81 513f 59a9 573f 47ae 5e3f
000000c0: 2834 543f 432e 6b3f 7fde 583f 541b 5e3f
000000d0: 8732 633f 6d10 683f 2a95 563f f421 643f
000000e0: a78b 603f ed32 683f f878 573f a99f 5a3f
000000f0: d715 5a3f 60a2 553f 98fe 563f e0ff 543f
