eindcode/voicerecognition/model256(74%).pt (torch, 120779 bytes, 26 tensors)

weight f4 [32, 1, 80]
0	0x3d904053	0.07043519
1	0xbdc3a3f3	-0.09552755
2	0xbe7aac28	-0.24479735
3	0xbeb2b94f	-0.34907004
4	0xbdf92f5b	-0.121672355
5	0xbe7e0127	-0.24805127
6	0xbe2d8b34	-0.16947633
7	0xbe3d13cf	-0.18464588
8	0x3ddf46b9	0.10902161
9	0x3e60dcba	0.219592
10	0x3e1f9e7f	0.15587805
11	0x3e090b19	0.1338314
12	0x3e39fe59	0.18163432
13	0x3ed68efa	0.41905957
14	0x3ee7c6c9	0.4526885
15	0x3dad06a7	0.084485345
16	0xbbfbae86	-0.007680717
17	0xbecf5d56	-0.40500897
18	0xbf1b4fa8	-0.6066842
19	0xbf055160	-0.52077293
20	0xbf17e23d	-0.5932959
21	0xbe568882	-0.20950511
22	0xbe3b6adb	-0.18302481
23	0x3cd5aaac	0.02608236
24	0xbbd4bec8	-0.0064924695
25	0x3e0cc36a	0.1374642
26	0x3e28c34e	0.16480753
27	0x3d97068b	0.07374295
28	0x3e700184	0.23438078
29	0x3ebd552f	0.36979052
30	0x3e732c7c	0.23747438
31	0x3e8be792	0.27325112
32	0x3e2b90b6	0.16754422
33	0x3d8bcd30	0.06826246
34	0xbe16fb23	-0.14744239
35	0xbe25e573	-0.16200809
36	0xbeb46e0d	-0.35240212
37	0xbeec79a3	-0.4618655
38	0xbf09a19d	-0.5376223
39	0xbe7062b6	-0.23475155
40	0xbdd39206	-0.10330586
41	0x3d3cc16e	0.046082906
42	0x3e29b032	0.1657112
43	0x3e3db7e0	0.18527174
44	0x3ebc2059	0.3674343
45	0x3e800107	0.25000784
46	0x3e7c2f10	0.24627328
47	0x3e8c0dcb	0.27354273
48	0x3e4b6103	0.19861226
49	0x3e02e63d	0.12783141
50	0x3d225f42	0.039641626
51	0xbe5ad80f	-0.21371482
52	0xbe9bf078	-0.304569
53	0xbf35f742	-0.7108041
54	0xbeb09281	-0.34486774
55	0xbf06f303	-0.52714556
56	0xbe249dfb	-0.1607589
57	0xbcda21bd	-0.026627416
58	0xbdfde3f5	-0.12396995
59	0x3e4f712c	0.20258015
60	0x3bf1671f	0.0073670293
61	0x3ec89d0b	0.39182314
62	0x3edf423f	0.4360523
63	0x3ed29847	0.41131803
64	0x3eb69c35	0.35666052
65	0x3e4cd05e	0.20001361
66	0x3da9975a	0.08280821
67	0xbe48ae0e	-0.19597647
68	0xbeb44046	-0.35205287
69	0xbe301ab6	-0.1719769
70	0xbe947110	-0.2899251
71	0xbe83694e	-0.2566628
72	0xbe28c3d3	-0.16480951
73	0xbdf96b5f	-0.121786825
74	0x3e798add	0.24369378
75	0x3e031415	0.1280063
76	0x3e004fa5	0.12530382
77	0x3e2b65a6	0.16737995
78	0x3eba9791	0.3644376
79	0x3e86bd57	0.2631633
80	0xbdeb9b2f	-0.11504208
81	0xbe0cb13b	-0.13739483
82	0xbe9a459b	-0.3013123
83	0x3b038ca6	0.0020072847
84	0x3d8a5898	0.06755179
85	0x3de99a6f	0.11406409
86	0x3e247d9c	0.16063541
87	0x3dbeec02	0.09322359
88	0x3e3e8caf	0.18608354
89	0x3e07ba94	0.13254768
90	0xbccda97f	-0.025105236
91	0xbe876d74	-0.26450694
92	0xbe080f61	-0.13287117
93	0xbea6df97	-0.3259246
94	0xbe2e70f7	-0.1703528
95	0xbe84f2de	-0.25966543
96	0xbc54f7d2	-0.012998538
97	0x3c7053eb	0.014668445
98	0x3e5caeb8	0.21551025
99	0x3e3258f3	0.17416744
100	0x3ec7cc7d	0.390232
101	0x3ecda462	0.40164477
102	0x3ebd4404	0.36965954
103	0x3e1a66eb	0.15078323
104	0x3dd6c7aa	0.10487302
105	0x3c2f8741	0.010713399
106	0xbe1d1068	-0.1533829
107	0xbe7589c3	-0.23978333
108	0xbf0ce55a	-0.5503746
109	0xbf0d0ce9	-0.55097824
110	0xbf145162	-0.5793668
111	0xbe48e10f	-0.19617103
112	0xbdbb1efe	-0.09136771
113	0x3e70db43	0.23521142
114	0x3eb13e81	0.34618
115	0x3f043ce3	0.51655406
116	0x3f07b897	0.53016037
117	0x3f10f393	0.56621665
118	0x3ea89555	0.3292643
119	0x3da371f0	0.07980716
120	0xbe7594b8	-0.23982513
121	0xbeb79454	-0.35855353
122	0xbf0e6e1d	-0.5563677
123	0xbf1a4693	-0.6026394
124	0xbeee2371	-0.46511415
125	0xbea90e79	-0.33018854
126	0x3c381427	0.011235273
127	0x3e5c64c9	0.21522821
128	0x3eac9e90	0.33714724
129	0x3f29df8b	0.66356725
130	0x3f2c38c3	0.6727411
131	0x3f09c93b	0.5382268
132	0x3e4e67df	0.20156811
133	0x3d125f8e	0.03573566
134	0xbea6be7e	-0.3256721
135	0xbf0d3a72	-0.55167305
136	0xbf131d5f	-0.5746669
137	0xbeeeefc0	-0.4666729
138	0xbed685c9	-0.41898945
139	0xbec677f3	-0.3876339
140	0xbdba4158	-0.090944946
141	0x3e9b7095	0.3035933
142	0x3f01d112	0.5070964
143	0x3ed7ba25	0.42134205
144	0x3efbc17a	0.49171048
145	0x3ec3ee9c	0.38267982
146	0x3e03acbe	0.12858865
147	0x3d271191	0.040788237
148	0xbe1eb92c	-0.15500325
149	0xbec01ddb	-0.37522778
150	0xbf00c300	-0.50297546
151	0xbebcc79b	-0.36871037
152	0xbea42204	-0.32057202
153	0xbdb4c2f8	-0.0882625
154	0x3df762b5	0.12079374
155	0x3dea88d7	0.114518814
156	0x3e56fb6c	0.20994347
157	0x3e80306f	0.25036952
158	0x3e193507	0.14961635
159	0xbd357b2d	-0.044306923
160	0x3eaf7110	0.34265947
161	0x3ebbc641	0.36674693
162	0x3e10cfda	0.14141789
163	0x3e182f07	0.1486169
164	0x3d71e086	0.059052013
165	0xbe1b990a	-0.15195099
166	0xbe6cb93d	-0.23117538
167	0xbe930ea0	-0.28722095
168	0xbe84e3c9	-0.25955036
169	0xbe04429d	-0.12916036
170	0x3d9bfde7	0.076167874
171	0x3dba7f7b	0.09106346
172	0x3eb97952	0.36225373
173	0x3ec2e1d1	0.3806291
174	0x3ed8e9ba	0.4236582
175	0x3ec454c4	0.3834592
176	0x3e221dc0	0.15831661
177	0xbdbd7e24	-0.09252575
178	0xbea6f0c4	-0.32605565
179	0xbec1f97c	-0.37885654
180	0xbee91ed9	-0.45531347
181	0xbf21d94c	-0.63222194
182	0xbecdb77e	-0.40179056
183	0xbebc127b	-0.3673285
184	0xbd099647	-0.03359058
185	0xbd7977ed	-0.060905386
186	0x3dada20b	0.08478173
187	0x3e94d21e	0.29066557
188	0x3ed3b5af	0.4134955
189	0x3efe2756	0.49639386
190	0x3f24879d	0.6426943
191	0x3f0f051e	0.55867183
192	0x3e7b1703	0.24520497
193	0xbe1518b0	-0.14560199
194	0xbe459863	-0.19296412
195	0xbe826277	-0.25465748
196	0xbeb6c532	-0.35697323
197	0xbf035f72	-0.51317513
198	0xbf075f33	-0.5287964
199	0xbe4e5fc5	-0.2015372
200	0xbcf31829	-0.029674606
201	0x3dd74827	0.10511809
202	0x3e0c5b6a	0.13706747
203	0x3e9f0a60	0.31062603
204	0x3f008ccd	0.50214845
205	0x3ee90171	0.45508912
206	0x3e85164e	0.2599358
207	0x3e0cf79c	0.1376633
208	0x3dc4505a	0.09585638
209	0xbdeaaff1	-0.114593394
210	0xbe10c2b7	-0.14136778
211	0xbe86ac82	-0.26303488
212	0xbee3071e	-0.44341367
213	0xbeb5acd3	-0.35483417
214	0xbeb822f9	-0.35964182
215	0x3d62acaf	0.055340465
216	0x3d9b8279	0.07593245
217	0x3e7e77b5	0.24850352
218	0x3e92ebf6	0.2869565
219	0x3e03e32e	0.12879631
220	0x3e8622b8	0.26198363
221	0x3e8bb4f8	0.27286506
222	0x3e327e20	0.17430925
223	0x3d265044	0.04060389
224	0xbe023c8b	-0.12718408
225	0x3d31c0ea	0.043396868
226	0xbd1d5650	-0.038412392
227	0xbe963a21	-0.29341224
228	0xbe6b1fe6	-0.22961387
229	0xbd9d992f	-0.07695233
230	0xbe136cb0	-0.1439693
231	0xbe7a54ce	-0.24446413
232	0xbd097431	-0.033558074
233	0x3dabc3e8	0.083869755
234	0x3c6c612b	0.0144274635
235	0x3d4b02d3	0.04956324
236	0x3e6c1f55	0.23058827
237	0x3e41dfff	0.18933104
238	0x3e6a9584	0.22908598
239	0x3e6db016	0.23211703
240	0x3ea85b3a	0.328821
241	0x3eb4728e	0.35243648
242	0x3e80a2f8	0.25124335
243	0xbca6c0f1	-0.020355674
244	0xbd811f39	-0.063047834
245	0xbe149207	-0.1450883
246	0xbea7489b	-0.3267258
247	0xbee07533	-0.43839416
248	0xbe1fe0d0	-0.15613103
249	0x3e57ff60	0.21093512
250	0x3edd53c8	0.43227983
251	0x3edc5a56	0.4303767
252	0x3f0fde67	0.56198734
253	0x3f1bb6b0	0.60825634
254	0x3ec927e4	0.39288247
255	0xbdf81fec	-0.121154636

bias f4 [32]
0	0xb810d0e6	-3.4526827e-05
1	0x38984868	7.2614115e-05
2	0xb8656237	-5.4689324e-05
3	0xb94b8cc8	-0.00019412034
4	0x398c3451	0.0002674186
5	0x3a142bdd	0.0005652288
6	0x3930b8e2	0.00016853542
7	0x37b6943a	2.1765114e-05
8	0xb9913234	-0.0002769396
9	0x39325c65	0.00017009822
10	0xb8367e8c	-4.3510037e-05
11	0xb9760905	-0.00023463748
12	0x3919f9ee	0.00014684323
13	0x391b4887	0.0001480897
14	0x399c2a67	0.0002978623
15	0x38f245d2	0.00011552464
16	0xb8f7d1cc	-0.000118169555
17	0xb816bf3d	-3.594089e-05
18	0xb995248e	-0.0002844673
19	0xba4b1e56	-0.0007748356
20	0x3a74e3ca	0.00093418045
21	0xb94bcd86	-0.00019436152
22	0x39b544b4	0.00034574198
23	0x3930e045	0.00016868215
24	0x391a257e	0.00014700551
25	0x39290276	0.00016118013
26	0xb83a79bd	-4.4459233e-05
27	0x38ad11e1	8.252613e-05
28	0xb8307d61	-4.2078438e-05
29	0x3b84d4b6	0.0040536774
30	0x38c52327	9.40024e-05
31	0xb9c242d7	-0.00037052363

weight f4 [32]
0	0x3f0e4a87	0.5558247
1	0x3f81531b	1.0103487
2	0x3f66fb4b	0.9022719
3	0x3f6b8297	0.9199614
4	0x3f3fbb02	0.74894726
5	0x3f49b2be	0.78788364
6	0x3eb4f769	0.3534501
7	0x3dc65ff0	0.096862674
8	0x3fd1a0d5	1.6377207
9	0x3f6e6191	0.93117625
10	0x3f828963	1.0198177
11	0x3f8bc04e	1.0918062
12	0x3f2fd12f	0.68678564
13	0x3f1fb3f2	0.6238395
14	0x3f8ae5e0	1.0851402
15	0x3f68cfd1	0.909421
16	0x3f053676	0.52036226
17	0x3e992068	0.29907537
18	0x3f2ad443	0.66730136
19	0x3f556e82	0.83371747
20	0x3fb95ca7	1.44814
21	0x3f641d35	0.89107066
22	0x3f0a94f9	0.54133564
23	0x3eb96c72	0.3621555
24	0x3ea34dac	0.31895196
25	0x3fa4f812	1.2888205
26	0x3bd113c0	0.006380528
27	0x3ef202cf	0.47267768
28	0x3ba9f10d	0.005186206
29	0x3ff8bd47	1.9432763
30	0x3f4b32b5	0.7937425
31	0x3eab016b	0.3339952

bias f4 [32]
0	0xbd042f52	-0.03227169
1	0xbd6441bb	-0.055726748
2	0xbd4cbd07	-0.049984958
3	0x3e09c3da	0.13453618
4	0x3da8434e	0.08215962
5	0x3eb39809	0.3507693
6	0x3e015a0d	0.12632008
7	0xbe9deaf4	-0.30843318
8	0xbc503a8c	-0.012709271
9	0x3cb56e52	0.022147331
10	0xbc328fac	-0.010898512
11	0x3c8025a8	0.015642956
12	0x3d046d90	0.03233105
13	0x3e071092	0.13189915
14	0xbcdd1b7c	-0.026990645
15	0x3c556b55	0.013026078
16	0x3dbfcf66	0.0936573
17	0x3e69933e	0.22810075
18	0x3dead15c	0.114657134
19	0x3d121c7e	0.035671704
20	0xbb8b623a	-0.004253653
21	0x3c4388af	0.011934443
22	0x3ca58d77	0.020209057
23	0x3d6aee5d	0.057356227
24	0x3e92b283	0.2865182
25	0xbb4983f5	-0.0030748819
26	0xbd750fce	-0.059829526
27	0x3e40381b	0.18771403
28	0xbde272ea	-0.11057074
29	0x3b01fd22	0.0019834717
30	0xbbf76295	-0.0075495937
31	0x3dc579bc	0.096423596

running_mean f4 [32]
0	0xb9327550	-0.00017019105
1	0x394fbc73	0.00019811261
2	0xb981b1ee	-0.00024737365
3	0xb964af9d	-0.00021809195
4	0x399d54ea	0.0003000864
5	0x39f5f572	0.00046912913
6	0x398cafa6	0.0002683375
7	0xb8b194d4	-8.467739e-05
8	0xb945077b	-0.0001879017
9	0x39007855	0.00012251858
10	0xb981d8ba	-0.0002476627
11	0xb8d333e2	-0.00010070928
12	0x38a7b1df	7.9963116e-05
13	0x39884d97	0.0002599775
14	0x39ade964	0.0003317102
15	0xb8628ea3	-5.401544e-05
16	0xb909e3fb	-0.00013150267
17	0x37a3faea	1.9547955e-05
18	0xb9f91b19	-0.0004751317
19	0xba26d3cf	-0.00063639594
20	0x3a26d308	0.00063638436
21	0xb892bce7	-6.997008e-05
22	0x39340f76	0.00017171897
23	0x3a327457	0.0006807497
24	0x3892b04d	6.994661e-05
25	0x390a7bc9	0.00013206819
26	0x3662551f	3.3726171e-06
27	0x3984c1a4	0.00025321275
28	0xb7c7d367	-2.382109e-05
29	0x3b84335c	0.004034443
30	0x39b0ec8d	0.0003374558
31	0xba916059	-0.0011091336

running_var f4 [32]
0	0x3e3007ad	0.17190428
1	0x3e802096	0.2502486
2	0x3e3c3275	0.18378623
3	0x3e444ff2	0.19171122
4	0x3e2f8591	0.17140795
5	0x3e4d7520	0.20064211
6	0x3d93ded1	0.07220233
7	0x3cecf632	0.028925989
8	0x3d442cb5	0.0478942
9	0x3e4c69fc	0.19962305
10	0x3e573ca8	0.21019232
11	0x3d401074	0.04689069
12	0x3e27cd8f	0.16387008
13	0x3e266655	0.16249974
14	0x3e6d4f37	0.2317475
15	0x3e5eea6c	0.21769112
16	0x3e1564d7	0.14589249
17	0x3de6172c	0.112348884
18	0x3e1af917	0.15134083
19	0x3e117e26	0.14208278
20	0x3dcc4c69	0.099755116
21	0x3e5e8ede	0.21734187
22	0x3d8586a8	0.06519824
23	0x3d8a332e	0.06748043
24	0x3c4a3a40	0.012342989
25	0x3e7da5aa	0.24770227
26	0x3bc74c59	0.0060820994
27	0x3de5ca82	0.11220266
28	0x3b3e4a9a	0.0029036165
29	0x3c0e6fb7	0.008693627
30	0x3e3cf0a5	0.18451174
31	0x3d977478	0.073952615

weight f4 [32, 32, 3]
0	0xbe53c7e7	-0.20681725
1	0xbdc05568	-0.0939129
2	0x3e09c0f8	0.13452518
3	0xbe44d6fd	-0.19222637
4	0x3f0520f0	0.52003384
5	0x3ce1ea9f	0.027577696
6	0x3e5b8041	0.21435644
7	0xbe3222ab	-0.17396037
8	0x3e7e13d9	0.24812259
9	0xbe89d72d	-0.2692198
10	0x3e8ab47e	0.2709083
11	0x3e955ccf	0.2917237
12	0x3edd9551	0.43277982
13	0xbf127be0	-0.5722027
14	0x3edfff24	0.43749344
15	0x3bded45b	0.006800217
16	0x3c65ddfe	0.014029978
17	0x3e050e7d	0.12993808
18	0xbd935449	-0.071938105
19	0xbe4f55d4	-0.20247585
20	0xbc9cb924	-0.01913125
21	0xbd961495	-0.073281445
22	0xbd620284	-0.05517818
23	0xbd9c4e4c	-0.076321214
24	0x3dd080bb	0.101808034
25	0x3e822172	0.25416142
26	0x3f27d935	0.65565807
27	0xbd25e420	-0.04050076
28	0x3e7bdf7f	0.24596976
29	0x3e74bb2d	0.23899527
30	0xbea249c5	-0.31696907
31	0xbecefa6b	-0.4042543
32	0xbeb41c05	-0.35177627
33	0x3e93f089	0.2889445
34	0x3e8e63bc	0.27810466
35	0x3e9da202	0.30787665
36	0xbeaaa3ce	-0.33328098
37	0xbae49610	-0.0017439742
38	0x3e031ed9	0.12804736
39	0x3d0f47fb	0.034980755
40	0xbdfc5cef	-0.12322413
41	0xbe5a5e54	-0.21325046
42	0xbec76f1e	-0.38951963
43	0xbd9a992d	-0.07548747
44	0xbeb17a6a	-0.34663707
45	0x3ef86b41	0.48519328
46	0x3f0f4440	0.55963516
47	0x3e9697ac	0.2941259
48	0x3dc1d5a6	0.09464578
49	0x3ebfb9fd	0.37446585
50	0x3ebf5b7a	0.3737448
51	0xbec66b39	-0.3875368
52	0x3e9fcaf6	0.31209534
53	0x3ee36aff	0.4441757
54	0xbde556ff	-0.11198234
55	0x3d5b164a	0.053488053
56	0x3e637385	0.22212036
57	0xbe7ee1c4	-0.2489081
58	0xbd81fcb7	-0.0634703
59	0x3dd8f0ee	0.10592829
60	0xbefb25ee	-0.49052376
61	0xbe9edc18	-0.31027293
62	0xbddce928	-0.107866585
63	0xbde971ad	-0.11398635
64	0xbeae5f7b	-0.3405722
65	0xbea41bc0	-0.32052422
66	0x3af9f4ae	0.0019070113
67	0xbd99fcf4	-0.0751895
68	0x3e05cc55	0.13066228
69	0xbe974efe	-0.29552454
70	0xbb8010d3	-0.0039082556
71	0x3d81aece	0.063321695
72	0xbe2a67d1	-0.16641165
73	0xbe6cced2	-0.2312577
74	0xbe68496b	-0.22684257
75	0x3d7ccfca	0.0617216
76	0xbcc0ca58	-0.023533985
77	0xbee61919	-0.44941023
78	0xbd2e46c5	-0.04254796
79	0x3cfd94a8	0.030954674
80	0x3d191db2	0.037381835
81	0xbe37a769	-0.17934956
82	0xbe122ba8	-0.14274466
83	0x3d20cb63	0.039256465
84	0x3d1c15d5	0.03810676
85	0xbc1300f3	-0.008972394
86	0xbd20062e	-0.039068393
87	0xbe78c94c	-0.24295539
88	0x3e3a24d2	0.18178108
89	0x3f180278	0.59378767
90	0xbe33313f	-0.17499255
91	0x3c13b316	0.009014865
92	0xbe013cca	-0.12620845
93	0xbdf90afc	-0.12160298
94	0xbe37e681	-0.17959024
95	0xbd6b7ab9	-0.057490084
96	0xbe53ab91	-0.20670916
97	0xbeb00234	-0.3437668
98	0x3db1e760	0.086867094
99	0xbea80df3	-0.32823142
100	0xbe04333a	-0.12910166
101	0xbcff9c15	-0.031202355
102	0xbea9123f	-0.33021733
103	0xbda6cde4	-0.08144739
104	0x3d5b6420	0.053562284
105	0xbdaf2bc6	-0.08553271
106	0x3d94487c	0.07240388
107	0x3dbed9d0	0.09318888
108	0xbc920634	-0.017825224
109	0xbcd8a120	-0.026444018
110	0x3c4c55cf	0.01247163
111	0x3d8a5823	0.06755092
112	0x3e7e0bca	0.24809185
113	0x3ed2b12b	0.41150793
114	0x3e0b9617	0.13631473
115	0xbe29ca9e	-0.16581199
116	0x3e843b99	0.2582672
117	0xbe1977f4	-0.14987165
118	0xbe4a1ac6	-0.19736776
119	0xbce8ea9a	-0.02843218
120	0x3cec3911	0.028835805
121	0xbe8577cf	-0.2606797
122	0xbe178fad	-0.14800902
123	0x3e6c3dc2	0.23070434
124	0x3dcfeb95	0.101523556
125	0x3e7c5550	0.24641919
126	0xbc9767fe	-0.018482205
127	0xbcd54467	-0.026033593
128	0x3e873430	0.26407003
129	0xbe338ba5	-0.17533739
130	0x3d5faa8c	0.054606006
131	0x3e2094b6	0.15681729
132	0x3e51ed89	0.20500769
133	0x3d4ccdf1	0.05000109
134	0x3e4fe169	0.20300831
135	0x3d8af96b	0.06785854
136	0xbe080125	-0.13281687
137	0x3e0e88ad	0.13919325
138	0xbe1040cf	-0.14087223
139	0xbddddcff	-0.10833167
140	0x3ecfe2d5	0.40602747
141	0xbe863126	-0.26209372
142	0xbb97bd73	-0.0046307384
143	0x3e19294c	0.1495716
144	0x3e7356ef	0.23763631
145	0xbc152a83	-0.009104374
146	0x3de3d1d8	0.11124009
147	0xbe1fd05b	-0.15606825
148	0xbe7e63d9	-0.24842776
149	0xbdf78b6c	-0.120871395
150	0xbdaec360	-0.085333586
151	0xbc0aecef	-0.008479341
152	0x3e27339d	0.16328283
153	0x3e3e0057	0.18554817
154	0x3d15cce5	0.036572356
155	0x3d4f3c33	0.05059452
156	0xbc498508	-0.0122997835
157	0x3e2ca332	0.16859129
158	0x3f19454b	0.5987136
159	0xbe92b148	-0.2865088
160	0xbbee5775	-0.0072736093
161	0x3e02a2fa	0.12757483
162	0xbea69e3c	-0.32542598
163	0xbe893681	-0.26799396
164	0x3dedf238	0.11618465
165	0xbe96ad2a	-0.2942899
166	0xbdc4fab2	-0.09618129
167	0xbcd6f1d5	-0.026238361
168	0xbe5bbb09	-0.21458067
169	0xbd151f95	-0.036407072
170	0x3e204b66	0.15653762
171	0xbf059510	-0.52180576
172	0xbe84be86	-0.25926608
173	0x3e6b0983	0.22952847
174	0xbb422ba2	-0.0029628058
175	0xbd842fcf	-0.06454431
176	0xbd12f05e	-0.035873763
177	0xbdbda06b	-0.09259113
178	0x3d09e9d1	0.03367025
179	0x3d6c3641	0.057668928
180	0xbc46a6ca	-0.012124727
181	0xbcd84883	-0.026401764
182	0xbd294c4a	-0.04133252
183	0xbf7a6f1e	-0.978258
184	0xbf95a43e	-1.1690748
185	0xbf651910	-0.8949137
186	0xbe7d82eb	-0.24756972
187	0xbef74019	-0.4829109
188	0xbdd623ef	-0.104560725
189	0x3e45e450	0.19325376
190	0x3d167797	0.036735144
191	0x3e9708e3	0.29498968
192	0x3e6d1f43	0.23156457
193	0xbd9accc1	-0.07558585
194	0xbb2d57c4	-0.0026450017
195	0x3cbb9475	0.022897938
196	0xbd14dd69	-0.036343966
197	0xbe98929b	-0.2979935
198	0x3e17d075	0.14825614
199	0xbdf910d2	-0.12161411
200	0xbe5fb75b	-0.21847288
201	0x3d12866f	0.035772737
202	0xbd9149d0	-0.07094157
203	0xbe1525f4	-0.14565259
204	0xbd081e9b	-0.033232313
205	0xbdf04776	-0.1173238
206	0xbe1196f9	-0.14217748
207	0x3d9a5b8c	0.075369924
208	0x3d1bdac1	0.038050417
209	0xbe4b201a	-0.19836465
210	0xbbea8074	-0.007156426
211	0x3df11ee0	0.11773467
212	0xbe007947	-0.12546264
213	0x3d241e10	0.040067732
214	0x3dcf6dc0	0.10128355
215	0x3ddc5045	0.10757498
216	0x3cf20bc5	0.029546628
217	0xbca89c23	-0.020582264
218	0x3e4ed3d7	0.20197998
219	0x3e7614a4	0.24031311
220	0x3d1d4a8b	0.038401168
221	0xbe9296b7	-0.2863061
222	0x3e31285c	0.17300552
223	0x3e9a13a4	0.3009311
224	0xbdd1c420	-0.10242486
225	0xbedb392d	-0.4281706
226	0xbe501a6c	-0.20322579
227	0xbe72162f	-0.23641275
228	0x3da8d22d	0.08243213
229	0xbc0f61ba	-0.008751327
230	0xbe9e6a25	-0.30940357
231	0xbef882b5	-0.48537222
232	0xbf25d0b3	-0.64771575
233	0xbfa6561d	-1.299503
234	0x3e4d3c42	0.20042518
235	0x3dba3e68	0.09093934
236	0x3db7e94a	0.08980043
237	0xbf5963c4	-0.84917855
238	0xbf8e1f54	-1.110331
239	0xbfc56d9f	-1.5424079
240	0xbe318403	-0.17335515
241	0xbf00a484	-0.5025103
242	0xbf06817a	-0.52541316
243	0x3c1f7354	0.009732086
244	0xbe6cd80a	-0.23129287
245	0xbeb196c0	-0.34685326
246	0xbef85447	-0.485018
247	0xbf099a29	-0.53750855
248	0xbf5ec0e4	-0.8701308
249	0x3ea96ad8	0.33089328
250	0x3e6340c1	0.2219267
251	0x3dfc1d6c	0.12310299
252	0x3e2051ba	0.15656176
253	0x3e242641	0.16030218
254	0xbe0a6b9f	-0.13517617
255	0xbdb2eb3a	-0.08736272

bias f4 [32]
0	0xb8748fa1	-5.8307898e-05
1	0x3867d1b3	5.526999e-05
2	0x388199bb	6.179834e-05
3	0x37b3bbd4	2.1425927e-05
4	0xb824e192	-3.9310726e-05
5	0x388b3785	6.638378e-05
6	0xb81db7dd	-3.7602953e-05
7	0xb8419453	-4.6152923e-05
8	0xb8871d74	-6.442788e-05
9	0x387385fc	5.8060497e-05
10	0xb81f83fd	-3.8031478e-05
11	0x3839ad1d	4.426866e-05
12	0x36f53c93	7.3086208e-06
13	0x3925e4a3	0.000158208
14	0x38807892	6.1259736e-05
15	0x35e0ffbd	1.676373e-06
16	0xb881e6c2	-6.194181e-05
17	0xb8163d94	-3.5820136e-05
18	0xb7b2dac1	-2.1321119e-05
19	0x38763302	5.8698475e-05
20	0xb87b820f	-5.996419e-05
21	0xb885a14a	-6.3719766e-05
22	0xb8163712	-3.5814075e-05
23	0xb876749c	-5.875957e-05
24	0xb7f9ce94	-2.9779309e-05
25	0x38125e56	3.489697e-05
26	0xb863583d	-5.4203196e-05
27	0xb83fea31	-4.5756056e-05
28	0xb8919053	-6.941021e-05
29	0xb8204835	-3.821422e-05
30	0xb7fbfe67	-3.0039997e-05
31	0x37d6d710	2.5610934e-05

weight f4 [32]
0	0x3e962217	0.29322883
1	0x3f9bfef0	1.2187176
2	0x3fd600bf	1.6718978
3	0x404372b6	3.0538764
4	0x3e349129	0.17633499
5	0x3fe8bffc	1.8183589
6	0x3fc9a748	1.5754175
7	0x3f818aee	1.0120523
8	0x3fd789a9	1.6838886
9	0x3e9b711a	0.30359727
10	0xb8505c1d	-4.967685e-05
11	0x3e928fdb	0.28625378
12	0x3eb775ef	0.35832164
13	0x3fd67da4	1.6757092
14	0x3ef9a8db	0.4876164
15	0x3f1e22e9	0.6177202
16	0x3f05b8c7	0.5223507
17	0x3eee5243	0.46547136
18	0x3f5e5524	0.86848664
19	0x3f956b0d	1.1673294
20	0x3fc99f8d	1.5751816
21	0x401079aa	2.2574258
22	0x3f2fd7f6	0.68688905
23	0x3ee8f709	0.45500973
24	0x3f220c83	0.6330034
25	0x3ef9a967	0.48762056
26	0x3f756043	0.9585001
27	0x3ea9ebff	0.33187863
28	0x3fe43bc6	1.7830741
29	0x3f8430d4	1.0327401
30	0x3f46aa8c	0.77603984
31	0x3fee849f	1.8634223

bias f4 [32]
0	0x3e63d7f7	0.22250353
1	0xbe0ab6b5	-0.1354626
2	0xbed4da31	-0.41572717
3	0xbeadd61f	-0.33952424
4	0xbc0a560e	-0.008443369
5	0xbd43ac56	-0.047771774
6	0x3e02b9cf	0.12766193
7	0x3d46ca99	0.048533056
8	0xbecb4491	-0.3970075
9	0x3e7cdf4f	0.2469456
10	0xbd7132d9	-0.058886383
11	0x3f03b9a3	0.51455134
12	0x3e6a8b7f	0.22904776
13	0xbe8db134	-0.27674258
14	0x3c126bb9	0.008936816
15	0x3e50949f	0.20369194
16	0x3ea0ac0c	0.3138126
17	0x3e5b64fa	0.21425238
18	0x3f79d92f	0.9759702
19	0x3e36a4d1	0.1783631
20	0x3c4f5c5b	0.012656297
21	0xbe108988	-0.14114964
22	0x3e2f633d	0.171277
23	0x3e4b760b	0.19869249
24	0x3d29151c	0.041279897
25	0x3e499590	0.1968596
26	0xbe51bdae	-0.20482513
27	0x3eb34331	0.350122
28	0xbe926481	-0.28592303
29	0x3f0089ae	0.5021008
30	0x3f0bc7cc	0.5460174
31	0xbeacb416	-0.33731145

running_mean f4 [32]
0	0x3f1b94c5	0.6077388
1	0xbfedffd1	-1.8593694
2	0xc07ed3ac	-3.9816694
3	0xc0cc160c	-6.3776913
4	0x405b4d26	3.4265838
5	0xc01aa077	-2.416044
6	0xc05d5961	-3.4585803
7	0xbfd1b8c0	-1.6384506
8	0xc08cc66b	-4.399221
9	0x40072f2c	2.1122541
10	0xbada7254	-0.0016666153
11	0xbea62b26	-0.32454795
12	0xbf378ded	-0.71700937
13	0xc008ee6a	-2.1395516
14	0x3f6c6322	0.92338765
15	0x408c8a2d	4.391867
16	0x3efc47b0	0.49273443
17	0xbe23b425	-0.15986688
18	0xbfac4a6e	-1.3460214
19	0xbfd8e07a	-1.6943505
20	0xc0541f32	-3.314404
21	0xc0cd9351	-6.424233
22	0xbeda2cbc	-0.42612255
23	0x3f3a43c7	0.7275967
24	0xbe266ea3	-0.16253142
25	0x408abf5f	4.3358607
26	0xc03d4167	-2.9571168
27	0xbf2aa110	-0.6665201
28	0xc051e89b	-3.279822
29	0xbfeb8f30	-1.8403072
30	0xbe7c3acb	-0.24631803
31	0xc06ec7de	-3.730949

running_var f4 [32]
0	0x41188ce8	9.534401
1	0x422e6dbd	43.607166
2	0x423fdd02	47.965828
3	0x437994ee	249.58176
4	0x4211e168	36.470123
5	0x429da97d	78.83103
6	0x42ff8af1	127.77137
7	0x420ab620	34.677856
8	0x4291710a	72.72078
9	0x420417bc	33.02318
10	0x375c5729	1.3133315e-05
11	0x41a36cae	20.428066
12	0x411da4f6	9.852774
13	0x4229396d	42.30608
14	0x41ed131b	29.634329
15	0x42485601	50.08399
16	0x41eda2a6	29.704418
17	0x414cd868	12.802834
18	0x423147c1	44.320072
19	0x4182738b	16.306417
20	0x42c8dbd6	100.42937
21	0x430bedbb	139.92863
22	0x41b7bc20	22.966858
23	0x41b7584f	22.91812
24	0x41f86979	31.0515
25	0x424b0a3e	50.760002
26	0x420a4e5a	34.576515
27	0x415123ac	13.071209
28	0x42b9856d	92.7606
29	0x41dc2fe9	27.523394
30	0x4202c952	32.6966
31	0x427ac334	62.690628

weight f4 [64, 32, 3]
0	0xbee65814	-0.44989073
1	0xbc37e48c	-0.011223923
2	0x3da10ffa	0.078643754
3	0x3e67ac83	0.22624402
4	0xbe4acdf0	-0.19805121
5	0xbeae990d	-0.34101143
6	0xbdc2ac00	-0.09505463
7	0xbe433303	-0.19062428
8	0xbe3c90e4	-0.18414646
9	0x3e88a6b7	0.26689693
10	0x3e22d182	0.15900233
11	0x3e14f86f	0.14547895
12	0xbe34b06a	-0.17645422
13	0xbd4f9618	-0.05068025
14	0xbda1bf7c	-0.07897851
15	0x3cf749dc	0.030186586
16	0xbe23657c	-0.15956682
17	0x3db8dc08	0.09026343
18	0x3ec919a6	0.3927738
19	0x3d927d25	0.07152776
20	0xbea1d37e	-0.31606668
21	0x3e3253eb	0.17414825
22	0x3ee8b5e4	0.45451272
23	0xbe1ad60f	-0.1512072
24	0xbf5483df	-0.8301372
25	0xbe4ed17f	-0.20197104
26	0xbec5f4bf	-0.3866329
27	0xbe8e4d29	-0.27793244
28	0x3dae2daf	0.08504807
29	0xbe673239	-0.22577752
30	0x377c3186	1.5031901e-05
31	0x384cc39d	4.881957e-05
32	0x386dea3f	5.6723362e-05
33	0xbe8c686b	-0.27423415
34	0x3e1b30c6	0.15155324
35	0xbe2ec185	-0.1706601
36	0xbe9f6029	-0.31128052
37	0x3dac6cf7	0.08419221
38	0x3e646b48	0.2230655
39	0x3d25b86c	0.04045908
40	0x3e51b41f	0.20478867
41	0xbe49f944	-0.19723994
42	0xbe3bc2f5	-0.18336089
43	0x3e95feb0	0.29295874
44	0xbd4e9cc3	-0.05044247
45	0xbe0ee29c	-0.13953632
46	0xbdec3bdc	-0.11534855
47	0xbe143f23	-0.1447721
48	0xbfaa52f1	-1.3306562
49	0xbf420339	-0.7578617
50	0x3e126a17	0.14298283
51	0xbeaafc76	-0.33395737
52	0xbe52b0e2	-0.20575288
53	0xbedc3de7	-0.43015978
54	0x3e29e10c	0.16589755
55	0x3bf260f1	0.00739681
56	0x3e4d5821	0.2005315
57	0x3da79cab	0.08184179
58	0x3da9e96c	0.08296475
59	0x3eaa1f22	0.33226877
60	0xbd09498d	-0.03351741
61	0xbead5f20	-0.33861637
62	0xbe082522	-0.13295415
63	0x3f241558	0.6409507
64	0x3f06e909	0.52699333
65	0xbecbf0cd	-0.39832154
66	0xbe1e4449	-0.15455736
67	0x3ea42312	0.32058007
68	0xbdfe3302	-0.12412073
69	0xbef5a595	-0.47977892
70	0x3c02475f	0.0079515865
71	0x3e2c4dcf	0.16826557
72	0xbe04f50d	-0.12984104
73	0xbeab3a4a	-0.3344291
74	0x39af836c	0.00033476518
75	0xbdca357c	-0.098734826
76	0xbd9417eb	-0.072311245
77	0x3d231335	0.03981324
78	0xbe2e7987	-0.17038547
79	0x3daaaca7	0.08333712
80	0xbeb980eb	-0.3623117
81	0xbe2e5895	-0.17025979
82	0x3e957dfa	0.29197675
83	0x3d81cabb	0.06337496
84	0x3f1923b2	0.5982009
85	0x3f09a3db	0.5376565
86	0xbf103a76	-0.56339204
87	0xbe321219	-0.17389716
88	0x3e1a5cbe	0.15074441
89	0xbd8e7f2a	-0.06957848
90	0xbe993efd	-0.2993087
91	0xbd1feede	-0.03904616
92	0x3ed05ffd	0.40698233
93	0x3d012281	0.031527046
94	0x3ed99623	0.42497358
95	0xbd2defad	-0.0424649
96	0x3ca88af9	0.02057408
97	0xbe8632ec	-0.26210725
98	0x3d659948	0.056054384
99	0xbe607211	-0.21918513
100	0x3d9ad839	0.075607724
101	0x3d3f0819	0.046638582
102	0xbec8a966	-0.3919174
103	0xbef2128f	-0.47279784
104	0x3e5c9b60	0.21543646
105	0xbdd5b9a3	-0.10435798
106	0x3f13844d	0.5762375
107	0x3e947077	0.28992054
108	0x3dde1cee	0.10845362
109	0xbe499be2	-0.19688371
110	0xbe16949d	-0.14705129
111	0xbd8d75bd	-0.069072224
112	0x3eeb8374	0.45998728
113	0xbea1da9e	-0.31612104
114	0x3e1beabd	0.15226264
115	0x3e3aacb1	0.18229939
116	0xbc8f90b1	-0.017525049
117	0xbecaa095	-0.3957564
118	0x3f0b2c07	0.54364055
119	0x3d8a0850	0.06739867
120	0xbf1e5ab3	-0.61857146
121	0xbeaa575a	-0.3326977
122	0x3e8cf92b	0.2753385
123	0x3e561e6d	0.20910044
124	0xbe8f68ef	-0.28009745
125	0xbee58e9f	-0.44835374
126	0x399537a9	0.00028460965
127	0x3861f49d	5.3871994e-05
128	0xb77c1f40	-1.5027646e-05
129	0x3e961128	0.29309964
130	0xbf033622	-0.51254475
131	0x3e51bd8d	0.20482464
132	0x3edc6141	0.4304295
133	0xbebb02b4	-0.365255
134	0x3eee3ab7	0.4652917
135	0x3da33160	0.07968402
136	0xbe04531f	-0.12922333
137	0x3de7ce42	0.113186374
138	0x3e8bb66b	0.2728761
139	0xbebfe7c3	-0.37481508
140	0x3d82a16a	0.063784435
141	0x3e4f4b01	0.20243455
142	0xbee7178a	-0.45135146
143	0xbe3d35ef	-0.18477605
144	0x3d803b9d	0.0626137
145	0xbf1244e7	-0.57136387
146	0xbf08ed7b	-0.53487366
147	0x3e8f9cf8	0.28049445
148	0xbe985762	-0.29754168
149	0xbf0be725	-0.54649574
150	0xbc0212d3	-0.007939058
151	0x3f14e760	0.5816555
152	0xbea1dccb	-0.31613764
153	0xbf5b3dbb	-0.8564107
154	0xbdb1fd48	-0.08690888
155	0x3f07ba69	0.53018814
156	0xbee3da28	-0.44502378
157	0xbdf995f4	-0.121868044
158	0x3dc64e69	0.09682924
159	0xbeaa152e	-0.33219284
160	0x3e9efca1	0.31052116
161	0x3efc9203	0.49330148
162	0x3e6fa360	0.23402166
163	0xbf0247bb	-0.508907
164	0xbe2e162f	-0.1700065
165	0x3e5dce7a	0.21660796
166	0xbd2341d8	-0.039857715
167	0xbd1e3239	-0.038622115
168	0xbb735d7d	-0.003713458
169	0xbe67f897	-0.22653423
170	0x3e578ebd	0.21050544
171	0x3e999ba2	0.3000155
172	0xbe76f0a0	-0.24115229
173	0xbeb7368a	-0.35783798
174	0xbe8c3009	-0.27380398
175	0xbef40c43	-0.47665605
176	0x3d8cb2f2	0.068700686
177	0x3ea34a1c	0.31892478
178	0xbd679a47	-0.056543615
179	0x3e1a14f6	0.15047058
180	0xbebd92a6	-0.37025946
181	0x3e4e9bc0	0.20176601
182	0x3c89487f	0.016758202
183	0xbe317651	-0.1733029
184	0x3d3b582c	0.045738384
185	0xbe9090c8	-0.2823546
186	0x3d8b9038	0.06814617
187	0x3d27942b	0.04091279
188	0x3e766111	0.24060465
189	0xbee12cc4	-0.43979466
190	0x3d9cef83	0.07662871
191	0x3e8b65ac	0.27226007
192	0x3e42ed47	0.19035827
193	0xbe1787bb	-0.14797871
194	0xbeca8dc5	-0.39561287
195	0xbd696caa	-0.056988396
196	0xbd6104e8	-0.05493632
197	0xbe1241b2	-0.14282873
198	0xbf08b2e3	-0.5339796
199	0xbed97029	-0.42468384
200	0xbe4dfb81	-0.20115472
201	0x3ef06669	0.46953133
202	0x3ef4505f	0.47717568
203	0x3edb24f7	0.4280164
204	0xbd715283	-0.05891658
205	0xbd5bd2a1	-0.05366767
206	0xbde20374	-0.11035815
207	0xbd3a07e8	-0.045417696
208	0x3d2223e6	0.039585017
209	0x3da27827	0.079330735
210	0x3e99ccb8	0.30039
211	0x3f5486e6	0.8301834
212	0x3eeff436	0.46866006
213	0x3e4df9dd	0.20114847
214	0xbe24a1b0	-0.16077304
215	0xbed163a2	-0.40896326
216	0xbe94ba35	-0.29048315
217	0xbe0f6c58	-0.14006174
218	0xbe1b3790	-0.15157914
219	0xbd08addf	-0.03336894
220	0xbe6cb8f1	-0.23117425
221	0xbe4092f8	-0.18806064
222	0x3832bd2f	4.2614698e-05
223	0xb78de9f9	-1.6917462e-05
224	0xb7bb798b	-2.2348735e-05
225	0xbe4493bb	-0.1919698
226	0xbea00ecf	-0.31261298
227	0xbed94846	-0.42437953
228	0xbeb3b5e2	-0.35099703
229	0xbecd0ec1	-0.4005032
230	0xbe14758e	-0.14497969
231	0xbed1efee	-0.41003364
232	0xbe114de3	-0.14189868
233	0xbda1ac95	-0.078942455
234	0xbe6ad92c	-0.22934407
235	0xbe87888b	-0.26471362
236	0xbe91f9ed	-0.2851099
237	0xbe335a38	-0.17514884
238	0xbe96f027	-0.29480097
239	0xbd8071c5	-0.062717
240	0x3d79e8d2	0.06101305
241	0x3c1f75f2	0.00973271
242	0xbcab9a83	-0.0209477
243	0x3de6ae1f	0.1126368
244	0x3d9142f1	0.07092846
245	0x3e84d9c5	0.25947395
246	0xbd80e3c2	-0.06293441
247	0x3b846fc4	0.004041644
248	0x3dfbb5dc	0.12290546
249	0xbe278876	-0.1636065
250	0xbf4bc7e3	-0.7960188
251	0xbf148378	-0.58013105
252	0x3ea284d4	0.31741965
253	0x3ef4c104	0.4780351
254	0x3f0601d3	0.52346534
255	0xbdf17ed7	-0.11791771

bias f4 [64]
0	0xb836606f	-4.3481992e-05
1	0x387a0d37	5.9616952e-05
2	0xb83a5b57	-4.4430923e-05
3	0x3844a584	4.688419e-05
4	0xb8a8a8df	-8.042319e-05
5	0xb893a009	-7.039315e-05
6	0xb80ae64f	-3.3116256e-05
7	0x385ad62a	5.2174706e-05
8	0xb84b1b9f	-4.8424696e-05
9	0x3724949e	9.809764e-06
10	0x37c6c00b	2.3692866e-05
11	0xb774c9a1	-1.4590479e-05
12	0xb6888ba5	-4.0693726e-06
13	0xb7686baa	-1.3853345e-05
14	0x387ecc0e	6.074836e-05
15	0x384b76d2	4.850963e-05
16	0x382fead1	4.194194e-05
17	0x381f5a99	3.799293e-05
18	0x388d9d43	6.752696e-05
19	0xb582c2ad	-9.742413e-07
20	0xb8875239	-6.452617e-05
21	0xb8a67825	-7.9378755e-05
22	0x38547d2c	5.0661314e-05
23	0x38750a88	5.842236e-05
24	0x381a0aa9	3.672639e-05
25	0x387e0d4b	6.05707e-05
26	0x38596c5e	5.1837756e-05
27	0xb82d972a	-4.1387197e-05
28	0xb769d12e	-1.3936586e-05
29	0x38786256	5.921939e-05
30	0x3749b229	1.2022015e-05
31	0x38814288	6.163592e-05
32	0xb87b4310	-5.990552e-05
33	0x386b21b7	5.6059765e-05
34	0xb7c886a0	-2.3904548e-05
35	0x37c64d89	2.3639544e-05
36	0xb84cf9d3	-4.8870057e-05
37	0x384e11b8	4.913073e-05
38	0xb83b35ac	-4.463426e-05
39	0xb83b88b7	-4.47116e-05
40	0xb88999aa	-6.561291e-05
41	0x3883ff6e	6.294144e-05
42	0x386bce2f	5.622039e-05
43	0x383a1e73	4.4374214e-05
44	0x38223851	3.867626e-05
45	0xb8220912	-3.8632257e-05
46	0xb8474f30	-4.7519046e-05
47	0x3806e68d	3.2162807e-05
48	0x385a59ae	5.205877e-05
49	0x3793bb51	1.7610992e-05
50	0xb861f906	-5.38761e-05
51	0xb790c46e	-1.7257607e-05
52	0xb814d989	-3.5488545e-05
53	0x3878cbf5	5.9317757e-05
54	0x37ff466b	3.043116e-05
55	0x37eb749b	2.8068482e-05
56	0xb81d9d14	-3.7578007e-05
57	0x37df7f0e	2.6642836e-05
58	0xb81c8397	-3.731585e-05
59	0x387fab2c	6.0956154e-05
60	0xb854da8e	-5.0748284e-05
61	0xb787858c	-1.6155442e-05
62	0x3856f1af	5.124666e-05
63	0x389a53a4	7.3588715e-05

weight f4 [64]
0	0x3fa2e194	1.2725091
1	0x3f9398b6	1.1530979
2	0x3fbbe9d3	1.4680732
3	0x3f2c9a06	0.6742252
4	0x40027554	2.0384111
5	0x3f66dba0	0.9017887
6	0x3fd3ba96	1.6541317
7	0x3f7bc933	0.9835388
8	0x3f535779	0.8255535
9	0x3fb4dfc4	1.4130788
10	0x3f392cb9	0.72333866
11	0x3f5c7abd	0.86124784
12	0x3f75318e	0.9577874
13	0x3fc12ccf	1.50918
14	0x3f69d4d6	0.91340387
15	0x3fe45668	1.7838869
16	0x3f761729	0.9612909
17	0x3fb02904	1.3762517
18	0x3f2deb05	0.67936736
19	0x3f9ead7a	1.2396691
20	0x3f7d2c8a	0.98896086
21	0x3f83bf5d	1.0292774
22	0x3fa2787e	1.2693021
23	0x3f751670	0.9573736
24	0x3f123384	0.57109857
25	0x3f93d785	1.1550146
26	0x3f5dcd19	0.8664108
27	0x3fc4b228	1.5366869
28	0x3fd522ac	1.6651206
29	0x3fafca19	1.373355
30	0x3f3fa0d6	0.7485479
31	0x3fc57fdc	1.5429645
32	0x3fc01e8e	1.5009325
33	0x3fa97fed	1.3242165
34	0x3fb6811b	1.425815
35	0x3f65c37c	0.8975141
36	0x3f8bce3c	1.0922313
37	0x3f2f5248	0.68484926
38	0x3fbbcab2	1.4671233
39	0x3fae7fe6	1.3632782
40	0x3fc89155	1.5669352
41	0x3f4f1d27	0.8090386
42	0x3f9ef8d6	1.2419689
43	0x3f9babe7	1.2161835
44	0x3e5015e2	0.20320848
45	0x3f80ba30	1.005682
46	0x3f6eb739	0.93248326
47	0x3f4d4bad	0.801936
48	0x3f858f09	1.0434276
49	0x3f5c9726	0.86168134
50	0x3f914178	1.1348104
51	0x3fc9870c	1.5744338
52	0x3f8c4529	1.0958606
53	0x3ecc6b00	0.39925385
54	0x3f58c93e	0.8468207
55	0x3fcdb01d	1.606937
56	0x3fd4018d	1.6562973
57	0x3f469ccf	0.7758302
58	0x3fa00bcf	1.2503604
59	0x3ea3dd1f	0.3200464
60	0x3fcd8b11	1.6058065
61	0x3fa050fe	1.2524717
62	0x3f9b8d09	1.2152416
63	0x3f18ee3c	0.59738517

bias f4 [64]
0	0x3df787e8	0.12086469
1	0xbe1140cd	-0.14184876
2	0xbec69e79	-0.3879278
3	0x3d3088e8	0.043099314
4	0xbf430ab6	-0.7618822
5	0x3e51113c	0.2041673
6	0xbf143173	-0.57887954
7	0xbec57144	-0.38562977
8	0xbe47dee3	-0.19518618
9	0xbea657f0	-0.32488966
10	0xbda50ce6	-0.08059101
11	0x3e3dcb64	0.18534619
12	0xbe362c6d	-0.17790385
13	0xbf08a66b	-0.53378934
14	0xbe7c48ca	-0.24637142
15	0xbec2319e	-0.3792848
16	0xbe83b0d6	-0.25720853
17	0xbed178bb	-0.40912423
18	0xbe3ce08e	-0.18445036
19	0xbf24bb72	-0.6434852
20	0x3d1e491f	0.038643952
21	0xbede363b	-0.4340075
22	0xbe896de6	-0.26841658
23	0xbd201d8d	-0.03909068
24	0xbebc871c	-0.3682183
25	0xbe6da411	-0.23207118
26	0xbe6439a6	-0.22287616
27	0xbf3db7a8	-0.7410836
28	0xbf7605cb	-0.9610259
29	0xbe1e6210	-0.15467095
30	0xbd1e513f	-0.0386517
31	0xbed627a0	-0.41827106
32	0xbee4afe9	-0.4466546
33	0xbf000748	-0.5001111
34	0xbef86fca	-0.48522788
35	0xbe6591d6	-0.22418913
36	0xbe888f4f	-0.26671836
37	0x3e875c88	0.26437783
38	0xbe883b3f	-0.266077
39	0x3c0e47b1	0.008684085
40	0xbe52039e	-0.20509192
41	0x3ddc3d9f	0.10753941
42	0xbed74229	-0.42042664
43	0xbe8f650d	-0.28006783
44	0xbf136789	-0.5757986
45	0xbf13d08a	-0.5774008
46	0xbea9e174	-0.3317982
47	0xbb0ce09a	-0.0021496178
48	0xbd9ec708	-0.07752806
49	0x3cff2f9c	0.031150632
50	0xbe9326ba	-0.28740484
51	0xbe993622	-0.29924113
52	0xbeb7d320	-0.35903263
53	0xbef35d0f	-0.47531936
54	0xbee5626b	-0.4480165
55	0xbeaa1171	-0.33216432
56	0xbe9b71b0	-0.30360174
57	0x3b36f8a5	0.00279192
58	0xbd93ae35	-0.07210962
59	0xbf31b97e	-0.69423664
60	0xbebfcf5f	-0.374629
61	0xbe6fa81d	-0.23403974
62	0xbeede426	-0.46463126
63	0x3e111d7d	0.14171405

running_mean f4 [64]
0	0xbf3052c9	-0.6887632
1	0xbf135589	-0.5755239
2	0xc009dcc5	-2.1540997
3	0xc087a056	-4.2383223
4	0xbd0f5668	-0.034994513
5	0xc0059874	-2.08743
6	0xbfcd476b	-1.603742
7	0xbf80d5b1	-1.0065213
8	0xc0456f24	-3.0849085
9	0xc0092167	-2.1426637
10	0xc07f0834	-3.9848757
11	0xc05dabd5	-3.4636128
12	0xc0569902	-3.3530889
13	0x3ed5815f	0.41700265
14	0xbf57c429	-0.8428369
15	0xbfd49ba5	-1.6609999
16	0xbec75e3a	-0.38939077
17	0xbeb9feb3	-0.36327133
18	0xc0b3d6c7	-5.619968
19	0xbf3a107b	-0.726814
20	0xc0843061	-4.1309056
21	0xc00fba7b	-2.2457569
22	0xc031207e	-2.7676082
23	0xbf85bc2b	-1.0448049
24	0xc02b3212	-2.674931
25	0x3fa802dc	1.3125873
26	0xbfad9947	-1.3562402
27	0x3e100957	0.14066063
28	0x3ffdc3b5	1.982535
29	0xc0792fdb	-3.8935459
30	0xc0ba0326	-5.8128843
31	0xc0337662	-2.8041005
32	0xc031ed6d	-2.7801163
33	0xbfedd392	-1.8580191
34	0xbe33c5c6	-0.17555913
35	0xbf873694	-1.0563531
36	0xbf267a4b	-0.65030354
37	0xc05acc2e	-3.4187121
38	0x3e90ffd6	0.28320187
39	0xbe3c2554	-0.18373615
40	0xc0768c79	-3.8523238
41	0xbeaa9429	-0.33316162
42	0xbedb1424	-0.42788804
43	0xc0d86fad	-6.7636323
44	0x40641402	3.5637212
45	0xbfd4869a	-1.6603577
46	0xc03d6691	-2.9593852
47	0xc073811b	-3.804755
48	0xbfc64c0d	-1.5491959
49	0x3f85ae00	1.0443726
50	0xc031f71c	-2.7807074
51	0xc061d844	-3.5288248
52	0xbf2991c7	-0.66238064
53	0x3fceafdb	1.6147417
54	0x40250351	2.5783274
55	0xbfca0df2	-1.5785506
56	0x3f5d5df5	0.8647149
57	0xbfda5e80	-1.7060089
58	0xc047fcf9	-3.1248152
59	0x3f296e79	0.6618419
60	0xbfe07c2b	-1.7537893
61	0xc059518b	-3.395602
62	0xbf7fcf55	-0.9992574
63	0xc00426c9	-2.0648673

running_var f4 [64]
0	0x40d10e24	6.532976
1	0x408137a1	4.0380406
2	0x409c24d1	4.879494
3	0x401fe3f7	2.4982889
4	0x402eb4e1	2.72979
5	0x4045ddbb	3.0916584
6	0x406b7282	3.678864
7	0x4056c5dd	3.3558266
8	0x403da98c	2.9634733
9	0x40b4318f	5.6310496
10	0x40b7d2e4	5.7444935
11	0x40731917	3.7984064
12	0x4097a4fa	4.7388887
13	0x40a96a65	5.2942376
14	0x40741c29	3.8142188
15	0x40e055d2	7.010476
16	0x40650cd8	3.578909
17	0x4086fdab	4.2184653
18	0x403a33e2	2.9094167
19	0x409a1153	4.814615
20	0x40b92540	5.785797
21	0x40b6f01d	5.7168107
22	0x40a87c81	5.265198
23	0x405289a1	3.2896502
24	0x40412689	3.017977
25	0x409cd829	4.9013867
26	0x400a8d8c	2.1648893
27	0x408a2dd0	4.3180923
28	0x40098ea8	2.149332
29	0x40a3f7d1	5.124001
30	0x40b291d3	5.580301
31	0x40b5224e	5.6604376
32	0x40f2dade	7.589217
33	0x407e4637	3.9730356
34	0x40604757	3.5043542
35	0x404a7c94	3.1638536
36	0x4013e400	2.310791
37	0x40bdcd53	5.931314
38	0x401636aa	2.3470864
39	0x4096c54c	4.711584
40	0x40e6ca3e	7.212188
41	0x40356187	2.8340776
42	0x4087669c	4.2312756
43	0x40e44906	7.133914
44	0x3fd838d4	1.6892343
45	0x4081a5cc	4.051489
46	0x40658ca0	3.586708
47	0x407071db	3.7569492
48	0x4082942c	4.0805874
49	0x4062480b	3.5356472
50	0x40fd4b92	7.915475
51	0x40be3575	5.9440255
52	0x40c511c3	6.158418
53	0x406a4bff	3.6608884
54	0x4023154a	2.5481744
55	0x406ea8ca	3.729052
56	0x40ee8b4b	7.4545035
57	0x402282aa	2.539225
58	0x409d8f2b	4.9237266
59	0x40226290	2.5372658
60	0x40900208	4.500248
61	0x410cb7a4	8.794834
62	0x4079acfb	3.901183
63	0x40a286e3	5.0789657

weight f4 [64, 64, 3]
0	0x3f4399cb	0.76406544
1	0x3e541bb4	0.20713693
2	0xbd69dd11	-0.05709559
3	0x3e79a061	0.24377586
4	0xbf0165f0	-0.5054617
5	0x3c1a665e	0.00942382
6	0x3ca2dec7	0.01988162
7	0x3e0144e0	0.1262393
8	0x3ebe0c9e	0.37119
9	0x3f24697a	0.64223444
10	0x3d8e4ab4	0.06947842
11	0xbd666ae6	-0.05625429
12	0xbf02138d	-0.5081108
13	0xbeaed5ff	-0.3414764
14	0xbd3ed5fc	-0.04659079
15	0xbe7800fd	-0.24219127
16	0xbdde1501	-0.1084385
17	0x3d24ec44	0.040264383
18	0xbeab75b1	-0.3348823
19	0xbed9bd58	-0.4252727
20	0x3d81ac46	0.06331687
21	0x3cdecd6d	0.027197564
22	0xbdb9557b	-0.09049507
23	0xbe9b1a6e	-0.30293602
24	0xbb72ec2f	-0.0037067046
25	0x3e224e10	0.15850091
26	0xbed7e788	-0.42168832
27	0x3e58451a	0.2112011
28	0x3e9029ce	0.28156894
29	0xbde08bb8	-0.10964149
30	0x3d28d9ad	0.041223217
31	0x3ecdf160	0.40223217
32	0xbe08d081	-0.13360788
33	0x3d103e6c	0.03521578
34	0x3ea72983	0.32648858
35	0xbbe8d072	-0.0071049267
36	0xbe52d54f	-0.20589183
37	0x3d65c503	0.05609609
38	0x3f29277d	0.6607588
39	0xbec6e4ab	-0.38846335
40	0x3eee451e	0.46537107
41	0x3e9c601c	0.30542076
42	0xbf074973	-0.5284645
43	0x3da3e64b	0.08002909
44	0x3ea5a4c9	0.32352284
45	0x3e8c96ce	0.27458805
46	0x3d4f19b0	0.050561607
47	0xbce332cb	-0.02773418
48	0xbbda0246	-0.006653103
49	0xbe70cdf9	-0.23516072
50	0x3e590828	0.21194518
51	0xbc8a3bff	-0.016874311
52	0x3e1c9c65	0.15294035
53	0x3eaed89b	0.34149632
54	0x3e023331	0.1271484
55	0x3dee0ad9	0.11623163
56	0x3e97f2f3	0.29677543
57	0x3e63d729	0.22250046
58	0xbd37c348	-0.04486397
59	0xbf0e5d5b	-0.556112
60	0x3f05dcba	0.52289927
61	0xbe42a1a4	-0.19006974
62	0xbf1f1f61	-0.62157255
63	0x3e9e589f	0.30926988
64	0xbdff1e95	-0.12457005
65	0xbea3af38	-0.3196962
66	0x3d7bc741	0.06146932
67	0x3ddefb4d	0.108877756
68	0xbec4154c	-0.38297498
69	0x3eba874a	0.36431342
70	0x3d1058cf	0.035240944
71	0xbcc0c1be	-0.023529883
72	0xbe186a5b	-0.14884321
73	0xbd460a3d	-0.048349608
74	0xbeebfc28	-0.46090817
75	0x3be81cff	0.0070835347
76	0xbd806837	-0.062698774
77	0x3eb4dc94	0.35324538
78	0xbed7c20a	-0.42140228
79	0xbe214495	-0.15748818
80	0xbe07f57c	-0.13277239
81	0x3e3cf701	0.184536
82	0x3e07e9c5	0.1327277
83	0xbdcd756e	-0.100321636
84	0x3e0c077d	0.13674732
85	0x3db4a9ef	0.08821475
86	0xbe629959	-0.2212881
87	0x3cd7bd2e	0.026335325
88	0x3e09d2cc	0.13459319
89	0x3f22d467	0.6360535
90	0x3de8e36f	0.113715045
91	0xbc7d6d2a	-0.015467921
92	0xbe9554fe	-0.29166406
93	0x3e2da7e6	0.1695858
94	0x3ea036a5	0.3129169
95	0xbf0b380a	-0.54382384
96	0xbd85765a	-0.065167144
97	0x3e676a33	0.22599106
98	0xbe1ac52a	-0.15114275
99	0x3e6fba25	0.23410852
100	0x3e529816	0.20565829
101	0x3de63551	0.11240638
102	0x3dbeb01e	0.093109354
103	0xbd0c9282	-0.03431941
104	0xbf03a511	-0.51423746
105	0xbd992723	-0.07478168
106	0x3d0925a6	0.03348317
107	0x3ec342a1	0.3813677
108	0xbc2496c4	-0.010045711
109	0xbeba2e03	-0.3636323
110	0xbf03daff	-0.51506037
111	0xbc1f5d48	-0.00972683
112	0x3e773edf	0.24145077
113	0xbf06cb4f	-0.52653974
114	0x3ee65eec	0.44994295
115	0xbe85c8c3	-0.26129732
116	0xbe2de1e6	-0.16980705
117	0x3e0c76da	0.13717213
118	0xbeb54522	-0.35404307
119	0x3e16c105	0.14722069
120	0x3efcd587	0.49381658
121	0xbe85d3dd	-0.261382
122	0xbf051beb	-0.51995724
123	0xbe97d14f	-0.29651877
124	0x3c358405	0.011078839
125	0x3ed7c7d1	0.42144635
126	0x3f1b4ab8	0.60660887
127	0x3f2af018	0.66772604
128	0xbe5103a4	-0.20411545
129	0x3ec43d87	0.38328192
130	0xbe8d9240	-0.27650642
131	0x3c2b2994	0.010446925
132	0xbc89f32b	-0.016839584
133	0x3d934cb7	0.071923666
134	0xbe3982b9	-0.18116273
135	0x3da6184b	0.08110102
136	0xbde0a005	-0.10968021
137	0xbebb4a00	-0.36579895
138	0xbbfa5206	-0.0076391725
139	0x3ddcf84b	0.107895456
140	0xbe8b13ac	-0.27163446
141	0x3e882363	0.26589498
142	0x3e9265c5	0.2859327
143	0xbd22dd29	-0.039761696
144	0xbd83f5dc	-0.06443378
145	0x3e0c8693	0.13723211
146	0x3ec1e3ff	0.3786926
147	0xbf08fbe2	-0.5350934
148	0x3d0af4b3	0.03392477
149	0x3e30ee24	0.17278343
150	0xbd506088	-0.05087331
151	0x3ea2674e	0.3171944
152	0x3c920e48	0.017829075
153	0x3e4196f6	0.18905243
154	0xbdf44709	-0.119276114
155	0xbe329f94	-0.17443687
156	0xbeb6f1e9	-0.35731438
157	0x3ed0204f	0.4064965
158	0x3ec63167	0.38709566
159	0xbd8ec4f4	-0.069711596
160	0x3dfb1ffd	0.12261961
161	0xbed9a7cc	-0.4251083
162	0xbe407f58	-0.18798578
163	0x3cf78769	0.030215936
164	0xbe7277ab	-0.23678462
165	0xbec9f0cc	-0.39441526
166	0x3df84e96	0.12124364
167	0x3f2e0fd6	0.67992914
168	0x3f19a72a	0.600207
169	0xbd35725b	-0.04429851
170	0xbe10c6fd	-0.14138408
171	0xbe5af7a3	-0.21383528
172	0x3e000a00	0.12503815
173	0x3e0b21e2	0.13587144
174	0x3d7da9e8	0.061929613
175	0xbe14c1ba	-0.14527026
176	0x3e954a95	0.29158464
177	0xbe7076c2	-0.23482803
178	0xbde077d1	-0.10960353
179	0xbdf6cfbe	-0.120513424
180	0xbeb53672	-0.353931
181	0xbead110f	-0.33802077
182	0xbebda254	-0.3703791
183	0xbed5d390	-0.41762972
184	0xbf1c6cac	-0.6110332
185	0xbf1979ce	-0.59951484
186	0xbe048b8e	-0.12943861
187	0xbdecf144	-0.11569455
188	0xbcf80e09	-0.03028013
189	0xbea06727	-0.313287
190	0x3f0b723d	0.5447119
191	0xbe49d4b7	-0.1971005
192	0xbd79321e	-0.06083881
193	0xbd23d356	-0.039996468
194	0xbe8d8e1a	-0.27647477
195	0xbf281a0f	-0.6566476
196	0xbdf53f4d	-0.11974964
197	0xbdc9be2f	-0.09850728
198	0xbdce7816	-0.10081498
199	0xbdfa9f7f	-0.12237453
200	0x3e986d45	0.29770866
201	0x3db4c3ae	0.088263854
202	0xbe8351d7	-0.25648376
203	0xbbe80e0a	-0.0070817517
204	0xbe8fb287	-0.28065893
205	0xbf304e20	-0.6886921
206	0xbd0d5483	-0.034504425
207	0xbdf39083	-0.11892798
208	0xbcaa5560	-0.020792663
209	0x3e4a2e69	0.19744267
210	0xbe1fa935	-0.15591891
211	0x3e1773d6	0.14790282
212	0xbde7ca6d	-0.113179065
213	0xbef11744	-0.47088063
214	0xbef64bb8	-0.48104644
215	0xbea6dcad	-0.32590237
216	0x3d29ea01	0.04148293
217	0xbd83d865	-0.06437758
218	0xbe702618	-0.23452032
219	0x3f6edd1d	0.9330614
220	0x3e0d8dd3	0.13823633
221	0x3e8f4a9d	0.27986613
222	0x3e4389d6	0.19095549
223	0x3eb6ed69	0.35728005
224	0x3e1a0ab3	0.15043144
225	0xbdc1c1e7	-0.09460812
226	0x3dc915c4	0.098186046
227	0x3e79ae35	0.24382861
228	0xbe8274c7	-0.2547972
229	0xbebd09af	-0.3692145
230	0xbe8f6ecf	-0.28014228
231	0xbdb21240	-0.08694887
232	0x3cac58eb	0.021038493
233	0x3ed35c26	0.4128124
234	0xbe9c180d	-0.304871
235	0x3e04fdcc	0.12987441
236	0x3e954d7e	0.29160684
237	0xbe9e324c	-0.30897748
238	0xbe8e83e7	-0.27835009
239	0xbdc7eec9	-0.097623415
240	0x3e0686fd	0.13137431
241	0x3d8a4bd9	0.06752748
242	0xbe659745	-0.22420986
243	0x3dbc6237	0.091984205
244	0xbe7e39bb	-0.2482671
245	0xbe7af0eb	-0.24505965
246	0xbd48e78a	-0.049048938
247	0x3eb41db9	0.35178927
248	0x3f1aedc2	0.6051904
249	0xbe56f6db	-0.20992605
250	0xbe864702	-0.2622605
251	0x3d6ad5e7	0.0573329
252	0x3ec2e606	0.3806612
253	0xbd4b6ee6	-0.049666308
254	0xbc8d232f	-0.01722869
255	0x3e6d244d	0.23158379

bias f4 [64]
0	0xb880af76	-6.136198e-05
1	0x38850496	6.3427884e-05
2	0xb70678bd	-8.015134e-06
3	0xb83cb4a5	-4.499093e-05
4	0xb89c806a	-7.462579e-05
5	0x38021894	3.1017305e-05
6	0xb7df1c44	-2.6596834e-05
7	0x3756f53c	1.2812492e-05
8	0x3880cbab	6.141452e-05
9	0x388b269d	6.635229e-05
10	0xb68f7114	-4.274896e-06
11	0x383be3bd	4.4796372e-05
12	0x378c7ff6	1.6748887e-05
13	0x388ffd99	6.8660076e-05
14	0x370163f7	7.712274e-06
15	0x3793d603	1.7623423e-05
16	0x38573dab	5.1317427e-05
17	0xb7d1a0ec	-2.4989677e-05
18	0xb74559ea	-1.176305e-05
19	0x376ff572	1.4302657e-05
20	0x38530c35	5.031769e-05
21	0x3868254b	5.5347842e-05
22	0xb871f955	-5.7691086e-05
23	0x38960177	7.15283e-05
24	0x3884fd3f	6.341421e-05
25	0x37cabdc9	2.4168652e-05
26	0xb89030d0	-6.875547e-05
27	0x381e250d	3.770464e-05
28	0x37342cad	1.0739238e-05
29	0x384c2f49	4.8681428e-05
30	0x3858bb98	5.1673123e-05
31	0x378fad88	1.7127735e-05
32	0xb86f1353	-5.7000037e-05
33	0xb799b412	-1.8322873e-05
34	0xb79f8e07	-1.9020414e-05
35	0xb88bf0cc	-6.6728884e-05
36	0xb86ee728	-5.6958903e-05
37	0x3870a61a	5.7375153e-05
38	0xb64da1a7	-3.0641474e-06
39	0xb87db553	-6.0488772e-05
40	0xb82a76d0	-4.064181e-05
41	0xb835a0c8	-4.3303502e-05
42	0xb873ede0	-5.8157253e-05
43	0x386ce0a5	5.6476e-05
44	0xb72f275e	-1.0439979e-05
45	0xb87829ae	-5.9166625e-05
46	0xb88196d6	-6.179295e-05
47	0xb883a71e	-6.277695e-05
48	0xb8591118	-5.175275e-05
49	0xb74225bb	-1.1572086e-05
50	0x38726498	5.779098e-05
51	0x385bf910	5.2445626e-05
52	0x387fdee4	6.100432e-05
53	0xb80d0b19	-3.3627355e-05
54	0x36c13ec1	5.7591537e-06
55	0xb87cb67e	-6.025144e-05
56	0x389b9f3b	7.420635e-05
57	0x38a038b0	7.6399534e-05
58	0x3807b7ec	3.23578e-05
59	0xb8183cff	-3.629643e-05
60	0xb756057f	-1.2756674e-05
61	0xb8372fa2	-4.367496e-05
62	0x36ad3348	5.1617717e-06
63	0x37533eba	1.2591185e-05

weight f4 [64]
0	0x3f8e0cb1	1.1097623
1	0x3f8807b9	1.0627357
2	0x3f66688e	0.9000329
3	0x3f697f71	0.91210085
4	0x3f913f15	1.1347376
5	0x3fa55233	1.291571
6	0x3fa4f590	1.288744
7	0x3fa07174	1.2534623
8	0x3f986e46	1.1908653
9	0x3f368ba1	0.71306807
10	0x3f8b4d82	1.0883029
11	0x3f89bb4d	1.0760285
12	0x3fa9bdd2	1.3261054
13	0x3f68f062	0.90991795
14	0x3f9bd8d0	1.2175541
15	0x3fa9f6a6	1.3278396
16	0x3f8dd105	1.1079413
17	0x3f7581d8	0.9590125
18	0x3f89b364	1.0757871
19	0x3f71ef21	0.94505507
20	0x3f979897	1.1843442
21	0x3f392e9f	0.72336763
22	0x3f76e996	0.96450174
23	0x3faca4b4	1.3487763
24	0x3f899b23	1.0750469
25	0x3f80b351	1.0054723
26	0x3fa49c4d	1.2860199
27	0x3f5071aa	0.8142344
28	0x3fa97d4d	1.3241364
29	0x3f952e22	1.1654704
30	0x3fa68dfb	1.3012079
31	0x3f9adfd7	1.209956
32	0x3f9b0d6d	1.2113472
33	0x3f934a23	1.1507
34	0x3f8fc7f7	1.12329
35	0x3f88542d	1.0650688
36	0x3f8ee476	1.1163471
37	0x3fa4bc21	1.2869912
38	0x3f977a6d	1.1834236
39	0x3f6284c3	0.8848383
40	0x3f95860a	1.168153
41	0x3f7732b8	0.96561766
42	0x3f49d704	0.7884371
43	0x3fab58f2	1.3386519
44	0x3fa06807	1.2531747
45	0x3f85e4a2	1.0460398
46	0x3f607f0a	0.87693846
47	0x3f88007f	1.0625151
48	0x3f8cd580	1.1002655
49	0x3fc6601d	1.5498081
50	0x3f8733ca	1.056268
51	0x3f612ced	0.87959176
52	0x3f8e8ac3	1.1136097
53	0x3f8a086a	1.0783818
54	0x3f6f31c1	0.93435293
55	0x3fb187c1	1.3869554
56	0x3fbb9c56	1.4657085
57	0x3f965341	1.1744157
58	0x3faed328	1.365819
59	0x3f5becd0	0.8590822
60	0x3f915f1f	1.1357154
61	0x3f752b4c	0.9576919
62	0x3f6d6bac	0.9274242
63	0x3fbdbe24	1.4823651

bias f4 [64]
0	0xbf4cc867	-0.7999329
1	0xbeaef566	-0.341716
2	0xbf1e6338	-0.61870146
3	0xbe12da73	-0.14341144
4	0xbf29af8c	-0.6628349
5	0xbeaef293	-0.34169444
6	0xbe18a279	-0.14905728
7	0xbf09003d	-0.5351599
8	0xbed21ba6	-0.4103672
9	0xbeda38f7	-0.42621586
10	0xbf0603f0	-0.5234976
11	0xbf1a06f0	-0.60166836
12	0xbf393687	-0.7234883
13	0xbee9b77b	-0.45647797
14	0xbeba2d9c	-0.36362922
15	0xbf197a54	-0.5995228
16	0x3e00c979	0.12576856
17	0xbee92e54	-0.45543158
18	0xbe4d21a1	-0.2003236
19	0xbebd82f0	-0.3701396
20	0xbf1efecf	-0.6210756
21	0xbea0a0f2	-0.31372792
22	0xbed2d617	-0.41178963
23	0xbe79457a	-0.2434291
24	0xbe81c4b0	-0.25345373
25	0xbe50ddac	-0.20397061
26	0xbf0c13d8	-0.5471778
27	0xbf10c395	-0.56548434
28	0xbf46a4a3	-0.77594966
29	0xbf01dccd	-0.5072754
30	0xbecb8eef	-0.39757487
31	0xbf19fe3c	-0.60153556
32	0xbebcfeeb	-0.36913237
33	0xbf2fd4e7	-0.6868424
34	0xbf03a227	-0.514193
35	0xbf697b3d	-0.9120367
36	0xbeb3d125	-0.35120502
37	0xbe09a7e2	-0.13442948
38	0x3dc2149b	0.094765864
39	0xbed26215	-0.41090456
40	0xbe0f4281	-0.13990213
41	0xbf1f7144	-0.62282205
42	0xbee4aa98	-0.44661403
43	0xbe9fd112	-0.31214195
44	0xbf3b2123	-0.7309744
45	0xbf354910	-0.7081461
46	0xbf2cec77	-0.67548317
47	0xbefa5627	-0.48893854
48	0xbf47660f	-0.77890104
49	0xbf471611	-0.77768046
50	0xbf21b521	-0.63167006
51	0xbf004597	-0.50106186
52	0xbdba4827	-0.09095793
53	0xbf0ced05	-0.55049163
54	0xbf1dd22c	-0.6164882
55	0xbf641e92	-0.89109147
56	0xbe22e417	-0.15907322
57	0xbededfce	-0.43530124
58	0xbef9ce08	-0.48790002
59	0xbedf25ff	-0.43583676
60	0xbf037bb6	-0.5136064
61	0xbf09a128	-0.5376153
62	0xbee8b126	-0.45447654
63	0xbe70ff93	-0.23534994

running_mean f4 [64]
0	0x3f68d5d1	0.9095126
1	0xbccd3ec3	-0.025054341
2	0xbf1daa75	-0.6158822
3	0x3fe7fc20	1.8123817
4	0xbe8c64f2	-0.27420765
5	0x3fb7c8f0	1.4358196
6	0x4047bba4	3.1208277
7	0xbfb148bd	-1.3850323
8	0xbfbbe906	-1.4680488
9	0xbec33dd6	-0.38133115
10	0x4006bd8f	2.1053197
11	0xbf677cef	-0.9042501
12	0xbf830a05	-1.0237433
13	0x3e44fb60	0.19236517
14	0x3ef07c9b	0.46970066
15	0xbf945400	-1.1588135
16	0x4003f19e	2.0616221
17	0xbfa8265c	-1.3136706
18	0x40019dfa	2.0252671
19	0x40126f67	2.2880495
20	0x3fc55565	1.5416685
21	0x40646fc5	3.5693219
22	0xbe383dbf	-0.17992304
23	0x40a0172b	5.002828
24	0xbfe69cfc	-1.8016658
25	0x3fa4c9ca	1.2874081
26	0x40176c02	2.3659673
27	0x40051e27	2.0799654
28	0xc01e99b4	-2.4781313
29	0xbe8ecd3a	-0.2789095
30	0x3f296e5d	0.66184026
31	0x3ff91231	1.9458677
32	0x408d84df	4.4224696
33	0x3f9ce575	1.2257525
34	0x3f8a372b	1.0798086
35	0x3fd7d370	1.6861401
36	0x3f005fd1	0.50146204
37	0x40906f0f	4.513557
38	0x406464ba	3.5686479
39	0xbfe5195d	-1.7898365
40	0x3fb06fe2	1.3784144
41	0xc0516322	-3.2716756
42	0xbeafbc66	-0.34323424
43	0x4084d5c1	4.151093
44	0x3eae9156	0.34095258
45	0x4024dc4d	2.575946
46	0xbfcb571b	-1.5885957
47	0x4010318a	2.2530236
48	0x4039feaa	2.9061685
49	0x3f2a8584	0.6660998
50	0xc075c8a5	-3.8403714
51	0x3f82bd26	1.0213974
52	0x4047e7fe	3.1235347
53	0x3fcdb353	1.607035
54	0xbfe980f3	-1.8242477
55	0xbf72c65b	-0.94833916
56	0x403f07b9	2.9848464
57	0x40327179	2.7881758
58	0x405d5837	3.4585092
59	0x402ab65b	2.66738
60	0xbffced69	-1.9759952
61	0xbefc1512	-0.49234825
62	0xbfdf60d8	-1.7451429
63	0x4035a50e	2.8381991
